policy/reacher_2dof_corner.pt (torch_old, 554571 bytes, 11 tensors)

weight f4 [256, 8]
000000 58 16 19 bf 57 6b 3c 40 15 45 4c bf 4b 0a 3a be
       -0.5979972 2.9440515 -0.7979291 -0.18167989
000010 0e c7 aa 3e bc 48 e2 3e da 62 e4 bd f8 02 97 3c
       0.33354992 0.44196117 -0.11151667 0.018434033
000020 49 e1 cb bd 75 ca b7 3f 61 64 01 3f 25 9e 63 bf
       -0.09955079 1.435866 0.5054379 -0.88913184
000030 81 8b 20 bf 13 6e a0 3e 1c c5 de bc 0a 2d 36 3e
       -0.62712866 0.3133398 -0.027193598 0.17790619
000040 f5 ee d4 3f 65 1e b6 3f c9 f0 28 3d 33 84 76 3a
       1.6635424 1.4228026 0.041245256 0.00094038545
000050 8b e4 22 be 5c 0f 2a 3f e0 fc e0 ba 2b df 4c 3d
       -0.15907495 0.66429687 -0.0017165206 0.050017517
000060 9f 48 7b bf c6 fc 19 40 89 78 31 3f 89 d5 d6 be
       -0.98157686 2.406053 0.6932455 -0.4195979
000070 28 6b 6f 3e 50 da 89 3e 54 7f 98 3d f2 e7 bb 3d
       0.2338072 0.26924372 0.07446161 0.091750994
000080 c5 39 28 bf 3a 6c b9 3f 90 bf 22 bf b9 3f 05 bf
       -0.6571315 1.4486153 -0.6357355 -0.5205036
000090 d5 83 63 be c5 cb a9 be fb 24 6d bd ab 43 05 bd
       -0.22218259 -0.33163276 -0.057896595 -0.032535236
0000a0 2e 1a ba 3e 8b 03 2b c0 53 a9 df be 4f c8 3f bc
       0.363481 -2.6720912 -0.43683872 -0.011705472
0000b0 32 18 1d bf 34 40 bc 3e 65 c5 0f 3e 40 68 f6 3c
       -0.61365044 0.36767733 0.14040144 0.030079007
0000c0 e5 e7 1f be 4a 3f 11 c0 a0 d3 07 be a0 f9 3a 3f
       -0.15615804 -2.2694879 -0.13264322 0.7303715
0000d0 11 25 94 bd b0 8e e7 3e 07 ee 8e 3c cc 8d 76 bc
       -0.07233632 0.4522605 0.017447485 -0.015048455
0000e0 28 5e 3d 3f 8d 52 bf bf 66 92 80 be 96 7e 0c bf
       0.73971796 -1.4947067 -0.25111693 -0.54880655
0000f0 7c 31 1d 3e 23 8c 01 3f 36 08 cb bd ae c3 fd 3d
       0.15350908 0.50604457 -0.099136755 0.123908386
000100 c2 2c 28 bf 76 72 05 bf b4 46 d6 3d ec 32 5a be
       -0.65693295 -0.5212778 0.10462704 -0.21308488
000110 7f 2d 82 3e d6 2e 32 3f 74 45 8d bd f5 68 3f bd
       0.25425336 0.69602716 -0.06898013 -0.046730954
000120 d2 a8 63 be 82 75 d4 3e be f5 da bd d0 95 b7 3e
       -0.22232369 0.414959 -0.10691403 0.35856485
000130 a7 f3 1f 3e 11 e2 f3 be 6c 8e df 3c 3b 4e 06 be
       0.1562029 -0.47633412 0.027289592 -0.1311578
000140 7f 23 2e c0 e8 ad 8b 3f c1 28 d5 3e 13 e7 f3 be
       -2.7209165 1.0912447 0.41632655 -0.47637233
000150 69 b7 b8 3e e8 60 42 3e 68 05 02 bd ec aa 1c be
       0.3607743 0.1898228 -0.031743437 -0.15299577
000160 dc 45 91 3f 93 28 14 c0 7e 29 db 3e 84 f4 1e bd
       1.1349444 -2.3149765 0.42805094 -0.038807407
000170 42 04 a8 be 64 fd 51 3e d1 58 7d bd 75 5f 45 3c
       -0.32815748 0.20506817 -0.06185228 0.0120466845
000180 f9 72 c5 3f cc c2 35 3f 2b 01 b0 be d6 b1 66 bd
       1.5425712 0.7100036 -0.3437589 -0.05632194
000190 fc 9d ce 3e 65 51 89 3d a8 4b 5b bd c3 c8 07 3e
       0.40354908 0.06704978 -0.05353895 0.13260178
0001a0 4f 93 03 c0 b0 4f 4a bf 3f 52 1f bf 26 8e 13 bf
       -2.055866 -0.79027843 -0.6223487 -0.57638776
0001b0 b0 21 73 bd 7d 1d 88 3e ca 44 95 3d d0 d4 66 3d
       -0.0593583 0.26584998 0.07288511 0.056355298
0001c0 b9 3e fe bf 22 91 19 40 15 ba de 3e bf db 4c be
       -1.9862891 2.3994832 0.43501344 -0.20005701
0001d0 f1 d4 b2 3e d3 15 06 3f 15 3f 0a 3d f5 de 1b 3b
       0.34928086 0.5237705 0.033751566 0.0023784016
0001e0 92 97 d0 bf a4 b2 87 bf 79 e6 86 3d b1 2b 97 bd
       -1.6296256 -1.0601392 0.06586928 -0.0738138
0001f0 ef 42 44 bf ee ef cb be 57 8b 9e bd d0 37 3b bd
       -0.7666463 -0.3983149 -0.07741421 -0.045707524
000200 a5 e4 09 c0 76 c2 dd bf 9d 98 95 be 29 f0 c3 3d
       -2.1545804 -1.732497 -0.29217997 0.09567291
000210 0c c5 61 be 75 69 29 bf 71 fd ec bc b0 49 93 3d
       -0.22047824 -0.6617654 -0.028929444 0.07191789
000220 bd 12 18 3f c1 6b f5 be b1 1f 0f bf 8a e0 44 be
       0.5940359 -0.47933772 -0.5590773 -0.1922628
000230 f8 f5 1f be 36 7a 0f 3e 58 61 8a bd d7 eb be 3d
       -0.15621173 0.14011464 -0.06756848 0.09322327
000240 0c 33 80 bf 4d 01 59 c0 4a 97 0e 3f aa ce 1a 3f
       -1.0015578 -3.3907044 0.556996 0.60471594
000250 bd 2a ab 3e f1 a3 1e bf 30 62 73 bc cc c1 b8 bd
       0.33431044 -0.61968905 -0.014854953 -0.09021339
000260 39 54 e6 be 17 25 e0 3f e1 b5 f0 3e e2 9e 18 3f
       -0.44986132 1.7511319 0.47013763 0.59617436
000270 d9 fa 52 3e 7c 89 02 bf e4 94 35 bd b8 45 61 bd
       0.20603503 -0.50991035 -0.044331446 -0.05499813
000280 22 d5 01 3f 20 58 6a 3f cd 23 65 bf c8 3b bb be
       0.5071584 0.9154072 -0.8950775 -0.36569047
000290 46 a7 01 3e 26 23 bf 3d 2b 0b 8b bd 44 b6 8f 3d
       0.12661466 0.09332876 -0.067892395 0.07017186
0002a0 b7 9a ad bf d6 1c dd be c1 ba 6f 3e 9e 62 d4 bc
       -1.356284 -0.43186063 0.23411085 -0.02592593
0002b0 73 0b 0b 3f 2c 49 e8 3e 8d 61 21 be 46 66 13 3e
       0.54314345 0.45368326 -0.15759869 0.14394483
0002c0 91 77 c3 bf ff 46 5c 3f 0e b6 60 3e bc 7d a4 bf
       -1.5270864 0.8604583 0.21944448 -1.2850871
0002d0 a7 4b 18 3f 28 be 11 bd 2f 5b 8b bd 13 9c b1 3d
       0.59490436 -0.035581738 -0.06804501 0.08672347
0002e0 b6 4f 04 40 b1 ae 70 3e ef 93 6d be 1e db 14 be
       2.0673652 0.2350414 -0.23200963 -0.14536712
0002f0 50 da 09 bf de a6 bc bd 80 b7 ba 3d aa c0 82 3d
       -0.53848743 -0.09211515 0.09117031 0.06384404
000300 be c2 85 be c0 33 3c 3c 2f 9f 02 bf 1d 64 98 bf
       -0.2612514 0.011486948 -0.51024145 -1.1905552
000310 df c5 a7 3e 71 66 af bd df 8b b4 bd 56 e5 16 be
       0.3276815 -0.08564461 -0.08815741 -0.14735922
000320 5e 66 66 3f b9 86 08 40 1d 99 e3 be bf c7 eb b9
       0.8999995 2.1332228 -0.44452754 -0.00044971515
000330 b6 c3 37 bc 21 1b 54 3f 1e 28 46 bb fb 81 a0 3d
       -0.011216095 0.82853895 -0.0030236314 0.07837292
000340 2f c9 af bf f9 83 41 40 01 50 b5 3e e3 f0 5f be
       -1.3733271 3.02368 0.354126 -0.21869235
000350 29 aa e7 3e f4 06 0a 3f 71 4f 4e 3d 55 87 ab 3d
       0.4524701 0.5391686 0.05036873 0.08375422
000360 01 82 3c c0 43 33 f0 3f 0b 83 20 3f df 4b 08 bd
       -2.9454348 1.8765644 0.62699956 -0.03327548
000370 8e 0f f4 3e df d3 73 3f 55 93 51 3d e5 04 7f 3d
       0.47668117 0.95245165 0.051165897 0.062260527
000380 95 0c a3 3e bc 2c 2e 40 42 29 e7 bc 0d ae d2 be
       0.31845537 2.7214804 -0.028217915 -0.41148415
000390 c8 86 c4 be 1b 67 8b 3e a4 d9 07 3d cb f5 39 3c
       -0.3838408 0.272271 0.033166543 0.0113501055
0003a0 77 04 c0 bf d8 ea e9 3e 6a 5e 7c bd ae 0f 75 be
       -1.5001363 0.45686984 -0.061613478 -0.23931763
0003b0 10 1c 5b 3f 42 7c d6 be 27 18 dc bd 2d 80 bf bc
       0.85589695 -0.41891676 -0.10746794 -0.023376549
0003c0 7a a0 27 40 0b b0 88 3f ac 4e 23 bd 5d c7 a4 3e
       2.6191697 1.0678724 -0.03986995 0.32183352
0003d0 42 c3 fa 3e 4c f9 85 be 00 15 52 3d f3 3c 81 bd
       0.48977095 -0.2616676 0.05128956 -0.06310453
0003e0 36 4f 0e bf d1 4f 17 bd 27 4f 20 bf b7 ba a4 3e
       -0.55589616 -0.036941353 -0.62620777 0.32173702
0003f0 81 52 2d 3f 2d c5 0a 3f dd 1e 18 bc 86 02 97 3c
       0.67704016 0.54207116 -0.009284702 0.01843382

bias f4 [256]
000000 38 12 39 bf 61 35 ae be ce c7 3e bf ca ce 3d bd
       -0.72293425 -0.340251 -0.7452363 -0.046339788
000010 f8 08 13 3e 4f 25 4c be a3 93 31 bf e2 42 bc be
       0.1435889 -0.19936107 -0.693659 -0.36769778
000020 e9 be 62 be f3 d2 21 be 66 18 57 bf 20 24 8b be
       -0.22143139 -0.15803127 -0.84021604 -0.27176
000030 55 8a ed be 2e bf 5b be b2 63 55 be 58 7d 03 bf
       -0.463946 -0.21459648 -0.20838812 -0.51363134
000040 b9 21 8b be 99 70 bd be fa dd 46 bf 0d dd 8f be
       -0.27174166 -0.36999968 -0.7768246 -0.28098336
000050 ac af 31 bf b8 c6 61 bf e1 02 31 bf 69 05 42 bf
       -0.6940868 -0.88193846 -0.6914502 -0.75789505
000060 02 22 80 bf ac 15 be be ed 6e 45 bd d6 44 1a bf
       -1.0010378 -0.3712591 -0.04820149 -0.60261285
000070 06 ed 2e be 9c fe 0f be a2 3b 25 bf 1f ad 28 bf
       -0.17082605 -0.1406197 -0.6454412 -0.6588916
000080 13 19 6b bf 0d 5e 51 bf ad c8 93 be 48 a1 e7 be
       -0.91835135 -0.81784135 -0.2886404 -0.45240235
000090 9d 7d 95 be 03 d6 dc be bd eb 35 bf d5 ea 10 bf
       -0.29197398 -0.43132028 -0.71062833 -0.56608325
0000a0 6d 71 05 bf b6 94 34 bf 24 17 68 bf 24 a0 5c bf
       -0.521262 -0.70539415 -0.9066031 -0.86181855
0000b0 e1 4a 3f bf df a8 7f bf 4d 88 db be 89 2f 45 bf
       -0.7472363 -0.9986705 -0.42877427 -0.7702566
0000c0 bd 0e cb be db 45 55 bf 36 5b a7 bf bd 06 2c bf
       -0.39659682 -0.83309716 -1.307471 -0.6719778
0000d0 da 7c fb be cd 33 b1 be 6a f1 78 be 82 84 52 bf
       -0.49118692 -0.34609833 -0.24310842 -0.8223344
0000e0 c0 f2 88 be ce 59 d5 bd 47 b9 fa be c4 de 70 be
       -0.26747704 -0.104175195 -0.4896948 -0.23522478
0000f0 75 34 85 be 39 75 16 bd f3 fa 41 bf e0 ff d3 be
       -0.26016584 -0.036732886 -0.75773543 -0.41406155
000100 8f 9f 47 bf af 56 7b 3c e6 ed 35 be ef 7c af be
       -0.7797784 0.015340491 -0.17766532 -0.34275004
000110 52 ec 2e bf 36 16 25 bf 08 16 95 be 42 4a 2e bf
       -0.68329346 -0.64487016 -0.2911837 -0.6808206
000120 b9 37 1c bf 99 b6 8a be 87 eb 5b bf e0 81 0c bf
       -0.61022526 -0.27092436 -0.8590626 -0.54885674
000130 b2 e3 cb be c2 30 00 bf 4a 01 2b bf 2b ca ba be
       -0.39822155 -0.500744 -0.6679884 -0.36482367
000140 be ac dd bd 48 65 4b bf 06 65 8c bf da 01 33 bf
       -0.108239636 -0.7945142 -1.096833 -0.699247
000150 1c fd 99 bf 45 3e ab be 2d ca 2f bf 7d 0c 57 be
       -1.2030368 -0.33445945 -0.6866787 -0.21000858
000160 c8 64 92 be 81 70 a7 bf 7c 72 f0 bd b5 31 04 bf
       -0.28592515 -1.3081208 -0.11740586 -0.51638347
000170 95 b0 f4 be f2 a6 00 bf e4 72 44 bf 78 94 85 bf
       -0.4779097 -0.5025474 -0.7673781 -1.0435934
000180 1a e7 1f bf 25 64 a7 bd 10 e4 d3 be 2b d8 47 be
       -0.6246201 -0.08173398 -0.41384935 -0.19516055
000190 cd ce 42 bf 12 3b d6 be 00 f9 25 bf 04 44 29 be
       -0.760968 -0.41841942 -0.6483307 -0.16529852
0001a0 07 32 c2 be 89 3a 3f be e6 c1 5a bf 97 b3 b9 be
       -0.37928793 -0.18674673 -0.85452116 -0.3626983
0001b0 88 10 a7 be 1f 1a 86 bf 60 cc 14 bf 62 8e 42 bf
       -0.326298 -1.0476722 -0.5812435 -0.7599851
0001c0 ad 71 a4 bd d2 9c dc be aa 06 5e be b8 54 95 be
       -0.080294944 -0.43088394 -0.2168223 -0.29166198
0001d0 c1 c6 99 be 57 66 47 be 9b df 9f be aa 3e 10 bf
       -0.3003445 -0.19472633 -0.31225285 -0.5634562
0001e0 55 eb c7 be ec 8d f7 3c c4 ec 1f bf f7 dd 70 bf
       -0.39046732 0.03021904 -0.6247065 -0.9408869
0001f0 d3 a2 8b be 22 d1 18 bf 02 40 27 bf f2 cb d8 3c
       -0.27272663 -0.5969411 -0.65332043 0.026464436
000200 20 1c 08 bf aa 94 3f bf d9 50 1f bf df 4d 08 bf
       -0.53167915 -0.7483622 -0.6223274 -0.5324382
000210 ed 7e f2 be ac f4 e1 be fe 9b 00 be 55 07 19 bf
       -0.47362462 -0.44131982 -0.12559506 -0.5977681
000220 ea 07 15 bf 99 97 32 be 86 1d 9d bf 21 50 f8 be
       -0.582152 -0.17440642 -1.2274635 -0.48498634
000230 f9 33 9b be de 22 fc be c2 ac ec be 01 f7 80 bf
       -0.3031309 -0.49245352 -0.46225554 -1.007538
000240 28 ee 00 bf de 5f 0a bf a5 ac 8e be ed 0b 32 bf
       -0.503634 -0.5405253 -0.27866092 -0.6954945
000250 38 22 39 bf 33 80 1b bf c7 b6 5e be e5 fa 47 bf
       -0.7231784 -0.6074249 -0.21749412 -0.7811721
000260 5d ce 24 be 9b dc 84 bf 02 2d fb be 5b 97 bb bd
       -0.16094346 -1.0379823 -0.49057776 -0.09159728
000270 1b 1c 4c bf d5 c0 3f bf de 9a 9e bf d6 eb 1d 3e
       -0.79730386 -0.74903613 -1.2391012 0.15421996
000280 b2 61 99 bf 59 e2 60 bf b0 d9 df bc 59 05 a2 bf
       -1.1982939 -0.8784538 -0.027325481 -1.2657882
000290 0a fe 1f bf 19 c7 43 bf 50 80 49 be da 87 32 bf
       -0.6249701 -0.76475674 -0.19677854 -0.69738543
0002a0 8c d3 c9 bd 99 60 3a bf 8d 19 1a bf 29 80 22 bf
       -0.098548025 -0.72803646 -0.6019524 -0.63476807
0002b0 57 65 96 be 0d 96 23 bf 4b 09 38 bf ee 53 6f bf
       -0.2937419 -0.63900834 -0.7188918 -0.9348744
0002c0 7c 13 b6 be a2 6c b6 be 74 65 d0 be 1c 44 2b bf
       -0.3556174 -0.35629755 -0.40702403 -0.669008
0002d0 68 c2 af be 4b fc 05 bf 04 14 95 be 65 db 06 bf
       -0.34328008 -0.52338094 -0.29116833 -0.5267852
0002e0 1d 26 fd be 58 f1 34 bf 95 ee 18 bf f1 b4 c8 bd
       -0.4944314 -0.7068076 -0.5973905 -0.09800137
0002f0 bd 23 9a be 26 57 0b bf b9 c7 07 bf 4b a9 eb bd
       -0.3010539 -0.5442985 -0.5303913 -0.115068994
000300 3c d1 2f be f9 f0 d3 be 47 8a 38 bf 66 47 64 bf
       -0.1716966 -0.41394785 -0.72085994 -0.89171445
000310 0c ff 06 bf 44 ba 94 be 9f a5 2e bf f0 c4 2d bf
       -0.5273292 -0.2904836 -0.6822147 -0.6787863
000320 0c ac b7 be dd a1 1b bf 6c 51 17 bf de bd b0 be
       -0.3587345 -0.6079386 -0.59108615 -0.34519857
000330 a7 e2 c0 be 84 ca d2 be fd dc b6 bd 2a 5a ba be
       -0.37672922 -0.41170132 -0.08928869 -0.36396915
000340 87 b1 29 bf 71 d2 1d bf c3 9e 28 bf f0 7f 44 bf
       -0.6628651 -0.61649233 -0.6586725 -0.7675772
000350 f3 25 00 bf e2 b7 7c bf 81 cf 8b be d9 23 01 bf
       -0.50057906 -0.9871808 -0.2730675 -0.50445324
000360 23 e3 f2 3c 0c 8d 91 be 0c 00 1b bf ca 19 2e be
       0.029649323 -0.28427923 -0.60546947 -0.17002025
000370 55 eb 6a bf 5f 2f 8e bf ac 4b 1f be fb f7 ec bb
       -0.9176534 -1.1108207 -0.1555621 -0.00723171
000380 0a f2 06 3e a1 76 0e bf fb 5d 2d bf 70 a8 ff bd
       0.13178268 -0.55649763 -0.6772153 -0.12483299
000390 3f 97 2d bf 7e 1c 43 bf 1d df f8 be f3 8b bf 3d
       -0.6780891 -0.7621535 -0.48607722 0.09352865
0003a0 42 ec 47 be 73 1f 4b bf ba 2e 0d bf 5c bf 58 be
       -0.19523719 -0.7934486 -0.55149424 -0.21166748
0003b0 4d 9e 38 bf 77 9b 44 bf 80 ec 8a bf 6c 11 0c bf
       -0.7211655 -0.7679972 -1.0853424 -0.54714084
0003c0 8a 2f 25 bf a5 d2 cf be 21 03 dd be 28 a4 fc be
       -0.64525664 -0.40590397 -0.4316645 -0.4934399
0003d0 c5 3c 2e bf f8 77 d2 be b9 63 db 3c 1b ca cd be
       -0.68061477 -0.41107154 0.02678095 -0.40193257
0003e0 78 f0 c0 be 09 b6 ed be 74 ef f5 be 37 d7 35 bf
       -0.37683463 -0.46427944 -0.4803425 -0.71031517
0003f0 dd 1f d3 be 00 d8 9e bf 5b 4a 23 bf 84 2f 2d bf
       -0.41235247 -1.2409668 -0.6378533 -0.6765063

weight f4 [256, 256]
000000 e8 fc 86 bd 17 6c b1 bd 0f d3 19 3d 51 01 5c bd
       -0.06591207 -0.086631946 0.037554797 -0.053712193
000010 92 b9 22 3d d5 a3 76 bc 21 5c ce bc 9e 5e 4b 3d
       0.039727755 -0.015053709 -0.025190415 0.04965078
000020 64 31 90 bd b6 7e 57 3b 25 30 54 3c e3 24 53 bd
       -0.070406705 0.0032881922 0.012950932 -0.05154885
000030 80 f9 04 39 c9 2e 3e bc ec 16 6c bd d7 20 81 bc
       0.00012681447 -0.011607834 -0.057639048 -0.01576273
000040 46 92 8c bd 31 22 65 3c 59 87 3f 3d 56 56 66 bc
       -0.06863837 0.013985203 0.046759937 -0.01405867
000050 2f eb b0 bd a8 08 49 3b ff a9 16 bb 7b c1 b9 3b
       -0.08638608 0.0030675326 -0.002298951 0.0056688166
000060 00 c9 03 3b 49 df a1 bb bc a7 c8 bc 4b 2e 22 bd
       0.002010882 -0.0049399477 -0.024494044 -0.03959493
000070 3a f0 98 bd 1e ce 64 bd 8c 3f 2d bc 32 68 51 3c
       -0.074676946 -0.05586063 -0.010574233 0.01278119
000080 b4 59 2a bc b7 45 55 3d c6 95 8b bc 57 41 25 bd
       -0.010397363 0.05206844 -0.017039191 -0.040345516
000090 55 ff 04 bb 54 2f 90 bc 2d 6e 7e bc b3 91 b1 3c
       -0.0020293791 -0.017600693 -0.015529198 0.02167592
0000a0 69 46 13 bc 6e a0 5f 3d 72 94 e9 bc 41 e1 31 bd
       -0.008988955 0.054596357 -0.028513167 -0.04342771
0000b0 cc ed bb 3c 63 08 3b bd bd 4f b9 bb e0 27 ad bc
       0.022940539 -0.045662295 -0.0056552575 -0.021137178
0000c0 3a b2 2f bc 94 bf b7 bd 3c 2d 69 bb d7 53 fa bc
       -0.010723645 -0.089720875 -0.003557994 -0.030557556
0000d0 84 c1 f3 3b 60 42 ac 3c 09 65 83 3c 94 a4 f9 3b
       0.0074388403 0.021027744 0.016039388 0.007618496
0000e0 b6 76 0b bd c0 c2 37 bd 7c 4a 35 3d 4e 55 4e bd
       -0.03404876 -0.044863462 0.044260487 -0.05037432
0000f0 d3 4f a5 bd 34 22 9c bb 2f a1 72 bd 21 4e 42 3c
       -0.08071866 -0.0047648195 -0.059235748 0.011859448
000100 93 68 41 3d 92 71 77 bc d6 ec b4 bd 45 3a 8d bd
       0.04721887 -0.015102761 -0.08834235 -0.0689588
000110 5a dd 4a 3d f2 e1 aa bc 75 58 84 bd e0 3d 22 3c
       0.049527504 -0.020859692 -0.06462184 0.009902447
000120 fc 00 ea 39 40 65 ab bd cf 89 86 3c 39 74 b3 bb
       0.0004463269 -0.08368921 0.016423134 -0.0054765013
000130 e2 0b 45 3d 30 72 30 bc 6e 3f 6d bd fd 6e 5f bc
       0.048107035 -0.010769412 -0.05792182 -0.0136373015
000140 b8 7a 18 3d 75 cc 96 bc b6 7a 16 3b 07 9b 20 bd
       0.03722641 -0.01840804 0.0022961325 -0.039210346
000150 36 63 90 bd d4 e2 4a 3c 73 4b 44 bc bc 06 1d bd
       -0.07050173 0.012383182 -0.011980879 -0.0383365
000160 ca 78 c2 bd 43 88 0b 3d e1 64 4e bd ca db b0 bd
       -0.09495695 0.034065496 -0.050389174 -0.086356714
000170 74 89 b3 3c 67 89 bc 3c 7b 2c 3d bd 7b f6 58 bd
       0.021916129 0.023014737 -0.046184998 -0.052969437
000180 80 aa 55 3d 59 2e aa bb 5a fe 31 bd f1 71 e6 3c
       0.052164555 -0.0051935134 -0.04345546 0.028130503
000190 d8 a2 ab bc e5 49 20 bb 53 5a 83 bd b3 05 b8 bd
       -0.020951673 -0.0024458107 -0.06413712 -0.08985462
0001a0 04 f2 b1 bd 2c 50 2c bd bd 3d 61 bd de ea bd 3d
       -0.08688739 -0.042068645 -0.05499052 0.09273313
0001b0 80 d8 f3 bb b2 18 ff bc d6 7f 59 3c ff fd 51 bd
       -0.0074415803 -0.031139705 0.013275107 -0.05126762
0001c0 1e f9 8f bd c8 86 89 3c 73 77 b7 bd ff c5 a6 3c
       -0.07029937 0.016787902 -0.0895833 0.020358084
0001d0 63 81 c9 3c 04 38 6b bd 4d 53 8b bd 03 be 8c bc
       0.02459783 -0.057426468 -0.06802998 -0.017180448
0001e0 52 a8 ae 3c e7 57 75 bd ce 55 85 bd 5e fe 96 bd
       0.021320496 -0.059898283 -0.065105066 -0.073727354
0001f0 bb 80 07 bd ab b3 ab bb f6 42 8f bc 49 56 2f 3b
       -0.03308175 -0.005239924 -0.017487984 0.002675431
000200 3a c1 2c bd f8 fe 98 3b f9 a7 5e 3d d6 ac 93 3c
       -0.042176463 0.0046690665 0.05435941 0.01802675
000210 2b d7 c2 3c 65 d7 e4 bc 1e d9 70 bd 32 61 67 bc
       0.02378424 -0.02793474 -0.05880081 -0.014122294
000220 43 dd 00 3d 02 42 4b bc bc d3 6a bc 3a ee 3d bd
       0.03146101 -0.012405874 -0.014332708 -0.04636977
000230 93 3b 64 bd 1d 36 3d 3d ac 55 6f bc 3d e4 8f bc
       -0.055720877 0.046194185 -0.014607828 -0.017564887
000240 96 28 36 bc 66 93 93 bd c9 c7 b5 bc 2d 34 8a 3c
       -0.011118075 -0.072058484 -0.022189992 0.016870582
000250 18 e8 01 bd 78 75 fb bc 19 2d bc 3d 13 bb 21 bd
       -0.031715482 -0.030695662 0.09188289 -0.03948505
000260 04 ff 76 bd 7b b7 83 bc ed 7c a7 3c 90 f0 e8 3b
       -0.060301796 -0.016078701 0.020445311 0.0071087554
000270 2b 63 03 3b cd 2b 43 bd b8 ce 09 3d f9 8f 18 bd
       0.0020048122 -0.047649194 0.033644408 -0.037246678
000280 6c 8d aa 3c f6 7b cc 3b 39 d0 e3 bc 1e d0 f2 bc
       0.020819388 0.006240363 -0.02780925 -0.029640254
000290 04 09 9f bd 1f 9a 34 3c 82 62 b6 3c ed ca ac bd
       -0.077653915 0.011023073 0.022263769 -0.084371425
0002a0 40 97 9e bd 61 63 bf bc 7c 2c a7 3a 7c ac 87 bd
       -0.077436924 -0.023362817 0.0012754346 -0.06624696
0002b0 28 bf 69 3c b0 a9 4e bd 93 9a c0 bd 9c b1 98 3c
       0.014266767 -0.050454795 -0.09404483 0.018639378
0002c0 be a3 99 bd 39 e0 8d bc 52 be 5c bd 80 bb a2 bb
       -0.075019345 -0.017318832 -0.05389244 -0.0049661994
0002d0 60 86 7b bd 05 96 7a bd 0e b0 91 3c c6 67 29 bd
       -0.061407447 -0.061178226 0.017784145 -0.04135873
0002e0 88 7b 35 bd db a5 2c bc 66 70 4c bd 3f 94 cd 3b
       -0.04430726 -0.01053759 -0.04991188 0.006273776
0002f0 4a f7 65 bb 72 31 b5 3c 55 af 7d bd 15 9b 8d bc
       -0.0035090023 0.022118304 -0.061934788 -0.017285863
000300 6a dc e3 3c 2c 9d 6a 3d 6b 7e 56 bd 1b d8 92 3c
       0.027815063 0.057278797 -0.052366655 0.017925313
000310 88 1a a2 3c 52 eb 37 3d 25 28 4d bd 1a 00 b5 3b
       0.019788042 0.044902153 -0.050087113 0.0055236937
000320 5d cb 83 bd 9a 94 1d bd cd 62 71 3c e0 92 94 3d
       -0.06435273 -0.038471796 0.014733029 0.07254577
000330 fe 46 36 bd ef b9 d7 3c 2f b5 31 bd b0 3e 5e bc
       -0.044501297 0.026333777 -0.04338568 -0.013564751
000340 61 09 1b 3d ac 17 2c 3c 22 85 54 bd 62 da 67 bd
       0.03785074 0.010503691 -0.051884778 -0.05660475
000350 39 af 27 3b d6 c4 70 bd 7b f8 f5 bc 1f ee 2a bd
       0.0025586619 -0.058781467 -0.030025711 -0.041730996
000360 24 9b b3 bc 67 48 2b bc 65 d3 9a bd 9c ba 7b bd
       -0.021924563 -0.010454274 -0.075598516 -0.06145726
000370 80 e8 a7 3c 42 23 65 bd 68 e3 20 3a 88 8d a9 bd
       0.020496607 -0.055941828 0.0006137402 -0.08278948
000380 f5 58 ad 3c 9b 5e db bc 38 bf 83 bc 02 ed 81 bc
       0.021160582 -0.02677851 -0.016082391 -0.015860084
000390 19 c3 59 b9 96 9e 6e 3d e7 88 76 3c 80 55 5a bd
       -0.00020767412 0.058256708 0.0150472885 -0.053304195
0003a0 b2 bd 88 bd df bd 19 3c 8c 78 19 bc ac 83 4f bd
       -0.066768065 0.009383648 -0.0093671195 -0.05066268
0003b0 35 aa 87 bd 59 7c 81 bd 24 c2 58 bd da 2e 7e bd
       -0.06624261 -0.063225456 -0.052919522 -0.0620564
0003c0 ee 17 9f bd a7 da 7d bd 88 f8 33 bb b1 64 fa bb
       -0.07768236 -0.0619761 -0.0027461369 -0.007641398
0003d0 39 29 d1 bc 01 db 08 bb 39 e5 38 bc 71 9b bc 3c
       -0.025532352 -0.002088249 -0.01128512 0.023023339
0003e0 22 7e 4c bd cd d5 5c 3b 31 47 b1 3c c7 51 ff 3b
       -0.049924977 0.003369677 0.021640392 0.007791731
0003f0 5e fc 90 bd 40 1e 5a bb ff 29 f3 bb d9 57 7c bd
       -0.07079385 -0.003328219 -0.007420778 -0.061607216

bias f4 [256]
000000 f3 89 94 3c 5e d2 15 3e ad 0b 7c be 6a 4b b2 bd
       0.018132186 0.1463103 -0.24613829 -0.0870579
000010 23 b4 9e bd 7a 8a a9 bd 3a 82 da bd 4a a3 9a bd
       -0.07749202 -0.082783654 -0.1066937 -0.07550676
000020 54 e0 11 bd a9 c2 88 bd dd 52 6f bc e5 b8 4a bd
       -0.035614327 -0.066777535 -0.0146071585 -0.049492735
000030 fe 04 98 3e 14 f7 bb 3b 9a 81 1b be 04 95 d5 bd
       0.2969131 0.005736241 -0.15186158 -0.10428813
000040 6b b3 b1 bb 6b 5a 96 3c cd 89 eb bd 4f 20 1b bd
       -0.0054229996 0.018353662 -0.11500893 -0.03787261
000050 08 a7 44 bc a8 76 ad bb a1 d7 dd bd d5 26 b2 bc
       -0.012002714 -0.005293686 -0.108321436 -0.021747032
000060 8f 00 83 3d 29 73 cd bd 57 32 89 bc 68 68 f3 bc
       0.06396591 -0.10031731 -0.016747637 -0.02971287
000070 62 1e fc bd 94 f1 7c be 46 ac e5 bd 5c 24 2f bd
       -0.123104826 -0.2470153 -0.11214499 -0.042759284
000080 14 a2 ba bd 61 fe 83 be d5 6c aa be 1b af 39 3e
       -0.09112945 -0.25780013 -0.33286157 0.18133204
000090 c0 5a de bb fc b3 5e bc ac 24 42 be 8a 5a ac bc
       -0.0067857206 -0.013592716 -0.18959302 -0.021039266
0000a0 9d fe 44 be dc 1c e3 bd 0e c5 6e be bb 1e 96 be
       -0.19237752 -0.11089489 -0.23317358 -0.2932032
0000b0 b0 a3 08 be 8a 82 c1 bd bd c8 55 bc 37 1d 6d bd
       -0.13343692 -0.094487265 -0.013048348 -0.05788919
0000c0 3a 6c 39 bd 96 c0 a3 bd 45 41 c1 bd 7b 52 0b be
       -0.04526923 -0.07995717 -0.09436277 -0.13605683
0000d0 93 c4 c7 3c 09 90 57 bd f5 5c ae bc bf 65 b0 bd
       0.024385726 -0.052627597 -0.02128456 -0.086131565
0000e0 25 13 6a bb 94 37 f3 bd d5 3e 70 bd f8 7e fc bd
       -0.0035716977 -0.11875835 -0.05865367 -0.12328905
0000f0 63 41 65 bc 77 7a 70 bd 69 0b ea 3b b8 c2 47 3d
       -0.01399264 -0.05871054 0.0071424735 0.048769683
000100 e1 13 1c be c9 c0 b8 bd 34 1b 28 3d b3 d6 cb 3d
       -0.15241958 -0.09021146 0.041041568 0.0995306
000110 6a 0d 8a be 1f e1 de bb b0 0c b7 be 69 81 bc bc
       -0.2696336 -0.006801739 -0.35751867 -0.023010926
000120 41 d8 db bc d6 7c d6 bd 1a c4 48 bd 0f 08 85 bd
       -0.026836516 -0.10473029 -0.049015142 -0.06495678
000130 e1 15 e7 bd 35 7f 6f be 8c 78 c5 bb 80 bf c2 bd
       -0.1128347 -0.2338837 -0.006026333 -0.09509182
000140 98 3f 0b be c1 d6 95 be 0a 27 2b bd a7 c0 3c be
       -0.13598478 -0.29265407 -0.041785277 -0.18432866
000150 52 c0 40 bc bf 4f a2 bc e3 2d ea bc bb c5 94 be
       -0.011764603 -0.019813417 -0.028586334 -0.29057106
000160 1d 67 29 bd 75 7a 83 bd a4 6a 13 be 24 f7 31 3c
       -0.041358102 -0.06419841 -0.14396149 0.010862146
000170 cf 21 af bd a4 40 b6 bd eb ba c1 bd 27 d5 2c bd
       -0.0855137 -0.08899048 -0.0945948 -0.042195465
000180 ed 0b be bd 8c 65 02 bc f6 c9 14 bd 3a b8 8b be
       -0.092796184 -0.007958781 -0.036325417 -0.2728899
000190 27 9f 00 be 9a 5d fa bd 62 cc c6 bb 21 38 51 bd
       -0.12560712 -0.12224884 -0.006066845 -0.05107892
0001a0 4a b5 96 bd 19 1b 39 3e 17 3b 6b bd 55 21 ad bd
       -0.07358797 0.18076743 -0.0574294 -0.08453623
0001b0 fd 32 45 3e 47 a0 53 bd 79 88 db bd 80 9e a3 bd
       0.19257732 -0.051666524 -0.107193895 -0.07989216
0001c0 79 3f 4e bd 34 80 c6 bd f3 20 16 bc 52 b1 90 bd
       -0.0503535 -0.096924216 -0.009163129 -0.07065071
0001d0 82 3e 9c bd 9c 91 1b bd 48 e4 31 3c e3 f6 da bc
       -0.0762911 -0.03798066 0.010857649 -0.026729053
0001e0 b6 62 3d be 63 68 14 bd ff 9e a2 bd 26 bc 58 be
       -0.18494686 -0.036232363 -0.07940482 -0.21165523
0001f0 e5 81 0b be f0 43 0f 3e 24 c2 f5 3c 90 4b 5b 3c
       -0.1362377 0.1399076 0.0299998 0.013384715
000200 97 68 a2 be 68 17 b4 bd 3e 5e 99 be a8 04 54 bd
       -0.3172042 -0.08793527 -0.29954714 -0.051762253
000210 bc 76 65 bd 86 22 47 bd 36 9c b0 3c 20 39 75 bc
       -0.056021437 -0.04861691 0.021558862 -0.014967233
000220 09 21 8d 3e 9a be 46 be 14 73 65 bd 98 cb 9e bd
       0.27564266 -0.19408646 -0.05601795 -0.07753676
000230 53 2f 9d 3e d5 cf 0d be ad e1 36 bd 9c 6f ee bd
       0.30700168 -0.13848813 -0.044648815 -0.116423815
000240 0c 96 05 bd 0c f2 a7 be f4 00 05 be 91 e9 81 be
       -0.0326138 -0.32801855 -0.12988645 -0.2537351
000250 ee de 59 3d 8f 6a d3 bd 71 67 0a bd cc 5d 5b bd
       0.053191118 -0.10323059 -0.033790056 -0.05355625
000260 5a 8c a9 bd 98 18 0f be 2a 5b 72 bd aa 80 58 bc
       -0.08278723 -0.13974226 -0.059168972 -0.01321427
000270 db 8d b8 bd cc b7 ea bd 64 bc 43 be 84 66 50 be
       -0.09011432 -0.11460838 -0.19114834 -0.20351607
000280 2a 93 b0 bc 37 d2 8a 3e b2 a4 e4 3b bd 07 22 bd
       -0.021554548 0.27113506 0.006977641 -0.03955816
000290 65 bb 4b 39 e3 3d ba bc 77 88 ac 3c d4 54 b1 bd
       0.00019429399 -0.022734588 0.021061165 -0.08658758
0002a0 77 23 0a bc e6 67 66 bd de e1 5f 3c 5e d6 3b bd
       -0.008431307 -0.05625143 0.013664691 -0.045858733
0002b0 17 06 94 bb 3d 3a e6 bc 07 88 f1 bc 44 91 37 bd
       -0.0045173275 -0.028103942 -0.029483808 -0.04481627
0002c0 42 a7 a2 be 69 26 8c 3e ad 18 81 3e ba b6 a6 bd
       -0.31768233 0.27373055 0.2521414 -0.08140321
0002d0 43 ae b0 bd f4 62 9f bd de e7 a0 bd 68 87 bc 3d
       -0.08626988 -0.07782546 -0.07856725 0.09205514
0002e0 15 98 24 bd 60 61 87 bd 0d 7f c4 bd fd 65 20 bd
       -0.0401841 -0.0661037 -0.095945455 -0.039159764
0002f0 cf d9 3a bd 2c 45 4b be 63 ec 3a bd 24 f9 7a be
       -0.045617875 -0.19850606 -0.045635592 -0.24509102
000300 e0 a5 2c be 8a cc 92 bd e7 3d 7d ba 94 51 98 bc
       -0.16860151 -0.07167919 -0.0009660408 -0.018593587
000310 fe 97 a7 bd 6b 1e 45 be 81 b3 48 bd 0b ab af bd
       -0.08183287 -0.19249885 -0.048999313 -0.08577546
000320 94 cd 73 bd 77 00 74 bc ac 5d 1e bc 24 a7 3a bc
       -0.059522226 -0.014892689 -0.009665888 -0.0113923885
000330 1b e8 8f bd ce f0 c8 bd 73 c3 76 bd f8 ce 29 bd
       -0.070266925 -0.09811555 -0.06024499 -0.041457146
000340 44 2a e3 3d c2 ff a6 bd cc af 4a bd 74 a0 71 bd
       0.11092046 -0.08154251 -0.04948406 -0.05899091
000350 dd a8 32 be 4e 97 b2 bd af 16 f9 bc ca bc cd bd
       -0.17447229 -0.08720265 -0.030406324 -0.10045774
000360 96 3d c4 bd cd 3a b1 bd f2 20 1b 3d ab 87 9b be
       -0.09582059 -0.086537935 0.037873216 -0.30376944
000370 ac f2 31 3e d8 a4 a1 be 4b 2d 7e bd 97 d0 cc bb
       0.17377728 -0.31571078 -0.062054913 -0.006250452
000380 a3 1b 83 bd c6 c1 21 be 78 a9 84 bd 59 17 aa bc
       -0.06401756 -0.15796575 -0.06477636 -0.020763086
000390 84 c9 b6 bd 3c 08 e8 3c c2 37 dc be d8 47 b1 3c
       -0.08925155 0.028324239 -0.4301129 0.021640703
0003a0 66 17 f1 3d 37 b7 f7 bc 31 93 a3 bd c6 3c be bd
       0.11772041 -0.03023873 -0.07987059 -0.09288935
0003b0 9e 0e 98 bd 04 5b 25 bd a4 fe 94 bd 56 7a f9 39
       -0.07424663 -0.040370002 -0.07275131 0.00047584128
0003c0 8d ba 2a bd 69 53 8a bd c1 bd 10 bd 7b 41 f9 bc
       -0.041681815 -0.067541905 -0.035337213 -0.030426731
0003d0 45 22 f6 be 77 3b 26 be ec 84 be 3c 7f d0 be bd
       -0.4807302 -0.16233622 0.023256741 -0.09317111
0003e0 35 9f 3e be d5 4a b0 3b 5c 2e 2a be 2b 38 4c be
       -0.1861542 0.0053800144 -0.16619247 -0.19943301
0003f0 09 2f ff bc df 78 ed 3d ab c4 d4 bd 2a bf ba ba
       -0.031150358 0.1159532 -0.10389074 -0.0014247645

weight f4 [2, 256]
000000 8d e7 94 3c e2 3d eb 3d c0 2d 41 3e 41 22 c2 bc
       0.018176818 0.114864126 0.18865108 -0.023697974
000010 4b 81 8b 3d a3 33 0c bc 56 43 84 bc f5 dd 22 bd
       0.0681177 -0.008557233 -0.01614539 -0.039762456
000020 10 da 1f bd 54 bc 46 3c 09 13 64 ba d8 5b 7c bc
       -0.03902632 0.012129862 -0.0008700346 -0.015402757
000030 92 6e 1f 3e 01 cd bc 3b 35 f4 05 3f d4 89 8d bc
       0.15569523 0.005761743 0.52325755 -0.017277636
000040 09 c6 6e 3c 54 6b 1b be 4d c1 eb bb a4 db 49 bd
       0.014573582 -0.15177661 -0.007194674 -0.04928173
000050 c7 46 ce bc 0b a4 92 3c 1e 5c f4 3b f1 f0 17 bd
       -0.025180234 0.017900487 0.0074572703 -0.037095014
000060 39 8a ac bd a6 f9 50 bf 6b 67 1e bd b8 94 97 bc
       -0.084248014 -0.81630933 -0.038672846 -0.018503532
000070 57 af 01 3d 3a a9 e1 bc 9c 9d 50 3e 62 d6 b5 be
       0.031661358 -0.027546514 0.20372623 -0.35515124
000080 fb 89 06 3d a1 0f 81 3f e0 a2 7b 3c d1 46 2d bf
       0.032846432 1.0082895 0.015358657 -0.6768618
000090 72 06 e3 3b f0 cb e8 bc 0c e5 63 3e 4b de 97 3c
       0.0069282586 -0.028417557 0.22255343 0.018538615
0000a0 5f db 04 3f 2e 64 80 bd 89 a3 37 bf 3c ec b7 3e
       0.51897234 -0.06269108 -0.7173391 0.3592242
0000b0 82 fc cc 3d 87 da 2b 3c 3d 44 38 3b dc 37 9b bc
       0.100090995 0.010489113 0.0028116845 -0.018947534
0000c0 be bd e0 3c 3d 78 28 bc 14 80 ea 3b 72 f0 79 be
       0.027434226 -0.010282573 0.0071563814 -0.24408129
0000d0 bb bf 0f 3e 4a 05 bd 3b d6 f8 19 3e 13 a4 53 3c
       0.14037983 0.005768453 0.1503633 0.012917536
0000e0 3e 8f 7a 3d be 3f 31 3c 72 f5 76 bc 09 d0 00 40
       0.061171763 0.01081842 -0.015073167 2.0126975
0000f0 82 41 d5 bb 41 a6 81 bd f6 ef 01 bc 8c 2e b3 3e
       -0.0065080533 -0.063305385 -0.007930746 0.3499645
000100 07 07 ad 3e 09 45 fe 3b 11 e0 8b bc 41 44 44 bd
       0.33794424 0.0077596945 -0.017074617 -0.047916654
000110 21 6c ff 3c 33 fc 81 3d be 10 5a 3d f5 25 af 3e
       0.03117949 0.06346931 0.053238623 0.34208646
000120 69 75 8b 3f eb f1 90 be 6c 62 2e 3d c8 9e 85 bf
       1.0895206 -0.2830957 0.04257433 -1.0439081
000130 60 e8 75 3d 42 1e 19 bd 5f 4f 3c 3b 91 8d 5e 3d
       0.060036063 -0.03738237 0.0028733832 0.054334227
000140 33 ff 84 3d ab d6 b7 bd 35 5b 0b bc a7 b4 90 be
       0.06493988 -0.089764915 -0.008505632 -0.28262827
000150 9c 52 ac 3b af 80 34 3c 78 84 6f 3c 8d 2b e7 3f
       0.0052588712 0.011017009 0.014618985 1.8060166
000160 1d 2d d2 bb 9c b4 93 bc bc fb 84 bc 6d 43 76 3d
       -0.0064140693 -0.018030457 -0.016233318 0.060122896
000170 8a 1b 38 bd 25 53 ae 3c 45 f1 01 bc 31 e9 05 bd
       -0.04494814 0.02127988 -0.007931058 -0.03269309
000180 3c 9a 07 40 df 0c a0 bc 35 51 0b bb 54 ab 11 be
       2.1187887 -0.019537387 -0.002125812 -0.14225513
000190 1f 4b 4b be a7 20 78 bc 95 d6 26 3c 15 25 b6 bc
       -0.19852875 -0.015144504 0.010182996 -0.022234479
0001a0 87 1b a9 bc 2d e6 a4 3b 16 02 44 bd 54 11 7c bc
       -0.020643009 0.005032322 -0.04785355 -0.015384991
0001b0 31 5a 2c be 69 c5 32 3c 91 1d ef 3b 1c 7d 44 3b
       -0.1683128 0.010911324 0.0072972258 0.0029981798
0001c0 f6 a9 af bd 06 7f 7f bc 9f 1e bf bb 10 f7 e0 bc
       -0.08577339 -0.01559425 -0.0058325077 -0.027461559
0001d0 11 e8 0b bc 16 21 b9 bd 53 ed 10 bd 6a 74 58 3b
       -0.008539216 -0.09039514 -0.03538258 0.0033028373
0001e0 60 40 8d 3e 15 b5 d2 ba 7b fc af 3c 36 6c 7a 3e
       0.27588177 -0.0016075695 0.021482697 0.24455342
0001f0 f9 4d af 3e c5 b1 5b be ab c6 94 bc 52 a1 23 3d
       0.34239176 -0.21454532 -0.018161139 0.03994877
000200 71 99 ef bd 99 0f da 3b 22 39 de 3e 89 fd 8a 3c
       -0.116991885 0.0066546914 0.43402964 0.016966598
000210 5c aa 4e bc 1f 41 88 3d f8 86 32 3d 66 72 34 3d
       -0.012613859 0.06653046 0.043585747 0.04405441
000220 23 13 f9 3d 48 e0 5c 3f ea 3f 37 bb e6 b3 ae 3b
       0.12161853 0.86279726 -0.002796168 0.005331504
000230 9a 91 12 be 88 ff 91 bf 64 dd b3 3b 35 c7 2e be
       -0.14313355 -1.1406107 0.0054890383 -0.17068179
000240 09 af 07 3d 55 36 5b bd 15 cf 21 3e 07 6f c9 3b
       0.03312591 -0.053518612 0.15801652 0.0061472687
000250 24 46 e2 be d0 e5 85 3e 55 45 1b bc b4 e6 e3 bc
       -0.44194138 0.26151896 -0.009476979 -0.027819969
000260 28 f7 f4 bc a6 c2 65 be 78 1e 3f 3b 76 9d 07 bd
       -0.02990301 -0.22437534 0.0029162448 -0.03310915
000270 e1 a6 44 bd 65 cf 12 bd 13 58 d4 3d 3c 2b ea 3f
       -0.04801071 -0.035842318 0.10368361 1.8294444
000280 e8 b4 39 bd f4 2d 58 3c 8b 72 3c 3e 68 17 e6 bf
       -0.04533854 0.01319455 0.1840307 -1.7975893
000290 03 ca 6e bc c8 7e fd 3c fd 89 ad 3c 1d bc c9 3c
       -0.014574531 0.030944243 0.021183962 0.024625832
0002a0 be b0 15 bd a3 7b a4 3c 46 bc 10 bd de 70 ea 3c
       -0.036545508 0.020078486 -0.0353358 0.028618272
0002b0 b8 45 f3 39 e3 79 04 bc 51 6c c5 bc a2 6b ee b9
       0.00046400516 -0.008085701 -0.0240995 -0.0004547509
0002c0 d9 2e 31 be fe eb 3a bd 4e d3 0e 3e f1 58 50 3f
       -0.17303027 -0.045635216 0.13947794 0.81385714
0002d0 df f2 6c 3c 0a 22 ff 3c 2e 87 92 be 28 3a 32 3d
       0.014462202 0.03114416 -0.2861876 0.043512493
0002e0 ed 31 3c bd 76 64 37 3d bc 67 42 3b c1 80 fc 3a
       -0.04594605 0.04477354 0.0029663881 0.0019264446
0002f0 12 34 91 3b 19 1e ae bd fd dc 68 bf 35 af 61 be
       0.004431256 -0.085018344 -0.909622 -0.22039492
000300 8a 40 18 bf c0 58 0f bb 67 20 95 3c 6a 49 d7 3c
       -0.5947348 -0.0021872967 0.018203927 0.026280124
000310 ac 49 4c bd 10 61 97 3d 02 12 44 3b 3f c5 f1 bb
       -0.049874946 0.0739156 0.002991796 -0.00737825
000320 89 bd 72 bf cf c3 16 3b 9d 5b 98 3b 50 3b f3 bc
       -0.9482046 0.0023004895 0.004649593 -0.029691368
000330 02 33 0c bd 75 5d a5 3e a2 77 45 bc 03 ae 05 3d
       -0.034228332 0.32297865 -0.0120524485 0.032636654
000340 3f 16 8a 3e a8 de 7c 3c b5 31 5d 3d f0 91 21 3d
       0.26970097 0.015433945 0.054002482 0.039445817
000350 ec 63 13 3e 2b bc 13 3d 3d 33 8c 3b 58 51 14 3e
       0.14393586 0.036068123 0.004278569 0.14484155
000360 b0 d7 b5 3f b6 ef 06 bd 6b 7b 60 3e 7c 78 6e bf
       1.4206448 -0.03294345 0.2192208 -0.93152595
000370 e8 6f 76 3c 24 67 2f bf 26 f8 59 bd 2e 55 c9 3e
       0.015041329 -0.68516755 -0.05321517 0.393228
000380 a0 26 38 3b 06 a2 8a be b8 76 73 3c d8 51 97 3b
       0.0028099194 -0.2707674 0.014859848 0.004617911
000390 75 50 b1 3c d0 33 94 bc f1 7f 02 c0 48 69 ce bc
       0.02164481 -0.018091112 -2.039059 -0.025196686
0003a0 8a 12 8a 3e bd c9 d2 bb 71 70 48 be 03 e3 90 bf
       0.2696727 -0.0064327405 -0.19574143 -1.1319278
0003b0 62 5a ba 39 0f 18 e6 bb e8 24 53 bd 06 25 26 3e
       0.00035544025 -0.007021911 -0.05154887 0.16225061
0003c0 40 35 b7 bc 86 6e f9 3c 8a d7 8a bd a0 9e 02 3b
       -0.022364259 0.03044821 -0.06779392 0.0019930974
0003d0 fc 21 2d be 44 92 b7 3d 75 1b 0e bc fa 26 05 3d
       -0.16907495 0.08963445 -0.008673538 0.032507874
0003e0 f7 fa 0f be 09 93 8e 3f 7b 04 71 be 79 a0 0a 3e
       -0.14060579 1.1138622 -0.23536865 0.13537778
0003f0 b3 93 ff bc 98 33 37 bf 46 d4 a3 3c 9f e2 0f bd
       -0.031198358 -0.715631 0.01999868 -0.035128232

bias f4 [2]
000000 02 bf fa bd 3b b5 b4 bc
       -0.12243463 -0.022059074

weight f4 [256, 10]
000000 b7 15 f5 bf 06 18 22 c0 82 f9 71 bc 2d d4 7f be
       -1.9147252 -2.5327163 -0.01476896 -0.24983282
000010 2d 39 21 bf f2 de 53 be 6f 80 a8 bd f2 df e0 bc
       -0.6297787 -0.20690516 -0.08227622 -0.027450535
000020 0a 58 61 be 53 05 45 be 51 65 63 3f 77 36 99 3f
       -0.2200624 -0.19240312 0.8882647 1.1969746
000030 60 e2 3a bd 8b 05 34 bc fe 39 5f be d1 8e 44 3f
       -0.045626044 -0.01098765 -0.21799466 0.7678042
000040 e7 56 1c bd 7c 5a e8 bc 2a b7 0c be d4 7c 54 bd
       -0.038168814 -0.028363459 -0.13741747 -0.051876858
000050 5d de 3f 3f 0a a3 a7 bf bb f6 0a 3f 67 c5 cb 3e
       0.74948674 -1.309663 0.5428273 0.39799044
000060 39 de 54 be 61 5f 6f 3e 7f e9 18 bc 31 e8 6b 3d
       -0.20787896 0.23376228 -0.009333014 0.05759448
000070 de 79 41 3e 68 5d 09 3e 0a 6e de bf 41 0b 13 c0
       0.18894145 0.13414538 -1.7377331 -2.297562
000080 dc 1c b8 bc b4 f5 8d be 20 7e 6c 3e f8 6c 2e 3f
       -0.022474699 -0.2772652 0.23094988 0.68135023
000090 ec f2 7d bd 05 35 14 3c de b7 81 be b8 05 34 bc
       -0.061999246 0.009045844 -0.25335592 -0.010987692
0000a0 95 2b 7f bf bd aa df bf 74 66 13 bf ec a3 c0 be
       -0.99675876 -1.747398 -0.57578206 -0.37625062
0000b0 e2 50 a4 3e 3d 5f 73 be c0 63 81 3d ab 32 bf bc
       0.3209296 -0.237668 0.06317854 -0.02333959
0000c0 65 c7 e4 3e 0a 09 e4 be e8 6a cd 3f 35 5b b2 bf
       0.44683376 -0.44538146 1.604825 -1.3934084
0000d0 c7 4c 76 be e7 44 b8 be 04 64 46 be 82 68 6d 3e
       -0.24052726 -0.35990068 -0.1937409 0.23184398
0000e0 6c 93 89 bb 52 de 04 bd 34 e7 ef 3d 5a 9c 87 3c
       -0.0041984823 -0.032438584 0.1171402 0.016554046
0000f0 4f cb f9 bf 4e b4 2b 3f 37 a4 f7 3e af 40 9b 3e
       -1.951517 0.67072 0.48367473 0.30322787
000100 c8 8a 26 3f ee 3a ee ba 7a 59 a5 bd 9f c3 2f bb
       0.65055513 -0.0018175521 -0.08073707 -0.002681948
000110 e8 28 8a be 9e b4 38 bd d4 9c 54 bf 83 5d 1f 40
       -0.26984334 -0.045094125 -0.830518 2.4900825
000120 e2 fd 1b 3f f9 13 d7 be 7e e5 d6 3d 3a b6 bd be
       0.6093427 -0.42007425 0.10492991 -0.3705309
000130 17 9f c5 bd 5d 43 18 be ed ee ff be 22 5c de be
       -0.096494846 -0.14869447 -0.49986973 -0.43429667
000140 2a 18 05 c0 de c9 0c c0 ff 76 25 bf e8 5b a6 3e
       -2.0795999 -2.199821 -0.646347 0.32491994
000150 39 f5 f5 bd b6 35 c7 bd 1f 9d 54 3d ca 16 fc 3a
       -0.12009663 -0.097270414 0.051907655 0.0019232866
000160 a6 f5 69 3e e0 03 51 bd e0 d3 9b bf 31 af 9e 3f
       0.22847614 -0.051029086 -1.2174034 1.2397214
000170 35 69 38 bf cf 18 8a 3e 79 fa 66 be da ca 96 be
       -0.72035533 0.26972052 -0.22556485 -0.29451638
000180 26 51 c6 3d 04 80 81 bc ec e5 e2 3e a5 e7 be 3c
       0.096834466 -0.015808113 0.4431604 0.023303816
000190 f6 02 89 3e 36 d6 65 bf b7 46 c9 3d 51 67 47 3f
       0.26760072 -0.89779985 0.09827941 0.77892023
0001a0 fe b3 33 be 43 37 8a 3e 71 24 19 bd c8 58 3e bb
       -0.1754913 0.26995286 -0.03738827 -0.0029044617
0001b0 0c 24 6e 3d 31 23 6e 3e 1b c6 29 40 5b 1d f7 bf
       0.058139846 0.23255612 2.6527164 -1.9305834
0001c0 97 ba b9 bd 89 6f 5f 3e 61 9c ca be 49 8d 0f 3d
       -0.09068792 0.21819891 -0.39572433 0.03504685
0001d0 fa 86 dc 3d f1 13 e3 3c 4f d8 11 3f e2 b1 0b 3e
       0.10767932 0.02771947 0.56970686 0.13642076
0001e0 14 65 71 3f 10 b7 30 3f 61 57 78 be 17 46 b0 3d
       0.9429486 0.6902933 -0.24252082 0.086071186
0001f0 60 bd ca 3e 89 74 46 3e b3 81 98 bd a1 95 2a 3d
       0.39597607 0.19380392 -0.07446613 0.041646603
000200 e7 28 b0 be e7 3d 7b 3d 0a fb 33 bf 3a 5e f3 bf
       -0.34406206 0.06133833 -0.7030493 -1.9013131
000210 dd d3 2a 3e 8c d7 a5 bd d2 a1 85 3d 3d c5 50 be
       0.16682382 -0.08097753 0.065250054 -0.2038774
000220 05 37 30 3d c4 45 71 bd 29 55 b3 3e 92 c9 6a be
       0.04302122 -0.058904424 0.3502591 -0.22928455
000230 17 90 91 3f 56 32 be 3f 43 84 25 bf 4d 8d 29 3d
       1.1372098 1.4859111 -0.6465494 0.04139452
000240 d1 9d d1 bc b4 8d 7d bc 64 76 97 3d fa f5 84 bd
       -0.025587948 -0.015475679 0.07395628 -0.06492229
000250 6a 37 77 bd e2 5b b5 be d6 58 ea 3f 43 09 0b 40
       -0.06035558 -0.35421664 1.830836 2.1724403
000260 3b fb 7c 3d 39 88 d0 be 8a df 68 be 3c a5 9a 3d
       0.06176303 -0.4072893 -0.22741523 0.07551047
000270 fb 7d f2 3b cc 23 7d 3d b0 84 84 bd f8 eb 07 3f
       0.007400272 0.061801717 -0.06470621 0.53094435
000280 a8 87 56 bd 9d 1c 0c 40 0f f5 06 3f 8c 7d af be
       -0.052375466 2.1892464 0.5271768 -0.34275472
000290 ca 08 00 bf c8 08 1e bf 5b af a2 bd 43 0c 8b bd
       -0.5001341 -0.6173215 -0.07943603 -0.06789448
0002a0 7d e7 a1 bd 68 d1 89 be ab 87 4c 3d 71 5f b7 bf
       -0.07905481 -0.26917577 0.04993407 -1.4326001
0002b0 59 62 60 3f dc 66 44 3d 8b a1 21 bf f0 b6 55 3c
       0.87650067 0.047949657 -0.6313712 0.013044104
0002c0 b1 72 20 be 2e 8b 6b bd a1 40 c7 be ab aa f9 bd
       -0.15668751 -0.05750578 -0.38916495 -0.121907555
0002d0 7a a3 e6 bf 7e 30 ef 3f da 84 28 bf 80 fc 5d bf
       -1.8018639 1.8686674 -0.65827715 -0.8671341
0002e0 68 cb b0 be e9 fa f8 bd b6 b5 06 3d ad f3 db bc
       -0.34530187 -0.12157232 0.032888137 -0.026849592
0002f0 6d 59 e7 3c ae 24 61 be d4 03 f8 3e 02 e0 1c 40
       0.028240884 -0.21986648 0.4844042 2.4511724
000300 c6 01 74 be 0a fa 09 3f 1e 33 33 3e 9c 74 83 be
       -0.23828802 0.53897154 0.17499968 -0.25674903
000310 43 d0 8d 3b 09 39 67 bb 85 5e b0 3d 11 0e af bd
       0.0043278052 -0.0035281798 0.08611778 -0.08547605
000320 62 86 a3 3f 24 42 df bf 4d 06 3d bf f9 3b 19 be
       1.2775385 -1.744206 -0.7383774 -0.14964284
000330 ae e6 00 bf 29 41 a0 bd ff 9d 67 3d 2f 65 1b bc
       -0.5035199 -0.07824928 0.05654716 -0.009484573
000340 e9 12 69 3e 9e 6a 81 bc 6d 04 47 3f 35 df 1b c0
       0.2276112 -0.01579791 0.7774113 -2.4354985
000350 43 b0 b6 3d 4b 9a 3d 3e 2a dc e2 3e 07 19 33 bf
       0.08920338 0.1851589 0.44308597 -0.69960064
000360 c9 19 b6 3c e7 02 eb bd 08 6a 18 3d eb 45 00 bf
       0.022229092 -0.11475163 0.037210494 -0.50106686
000370 62 d5 a2 bf d3 9d 20 3f d3 41 38 3f 90 bc f5 bd
       -1.2721369 0.6274082 0.7197544 -0.11998856
000380 61 cd 43 bd 4a 8f dd 3e c7 67 e1 3c 1e 8d 08 3e
       -0.047803286 0.43273383 0.027515305 0.13335082
000390 8f ac c4 3e ff 8d 00 3f 10 db a0 be 82 3a c6 bf
       0.38412902 0.5021667 -0.3141713 -1.5486605
0003a0 d4 12 82 bc 78 17 b4 bd d9 d6 44 3e 70 f8 6e 3f
       -0.015878119 -0.08793539 0.19222583 0.93347836
0003b0 a6 33 b1 3c 59 62 d3 bd 78 12 ca 3d ec b4 29 be
       0.021631073 -0.10321493 0.09866804 -0.16572922
0003c0 61 21 aa bf 10 2a a7 bf 3d 2b 13 be c0 1a 2f bf
       -1.3291436 -1.3059711 -0.14371963 -0.6840019
0003d0 73 28 34 3f 64 06 12 3e 06 66 e3 3d 50 50 e8 3c
       0.7037422 0.1426025 0.11103444 0.028358608
0003e0 e8 f1 9a 3e 0d 9b 4d 3d 25 ec 84 bf 26 03 5d 3e
       0.30262685 0.050196696 -1.0384566 0.21583232
0003f0 10 42 0b bf cb 98 ac 3d 5d 54 d1 be e9 e1 ce 3d
       -0.5439768 0.084275804 -0.40884677 0.10101683

bias f4 [256]
000000 31 33 17 be b5 20 f9 bd cc 9b 54 be 4c 5b 01 bf
       -0.14765622 -0.121644415 -0.20762557 -0.5052993
000010 1f 6e 0d bf cc c5 36 be 05 0c 97 bc 54 74 b9 be
       -0.55246156 -0.17848891 -0.018438349 -0.36221564
000020 15 2c 66 be 5d 20 0e bf 4d 45 e6 be 7a 47 5c bf
       -0.22477753 -0.5551813 -0.44974747 -0.86046565
000030 33 86 1a bf d3 24 c9 be 3d 38 10 bf 53 5c 52 be
       -0.6036102 -0.39285907 -0.5633581 -0.20543031
000040 c7 1e d1 be bb 92 23 bf fe f7 07 bd 46 58 78 bd
       -0.40843794 -0.6389577 -0.03319549 -0.06063106
000050 c1 52 e0 be 92 9c f8 bd da 0e 06 bf dd eb 84 be
       -0.43813136 -0.121392384 -0.5236641 -0.259612
000060 77 de 22 bf 34 24 22 bf 52 f8 c8 be 7f 12 7c be
       -0.63620704 -0.6333649 -0.39251953 -0.2461643
000070 32 2c a2 3e 31 00 d2 be 10 2b 79 bf ce a1 5f be
       0.31674343 -0.4101577 -0.97331333 -0.21839067
000080 27 ed 32 bf c1 75 85 be b6 a0 b3 bc d4 19 5a bf
       -0.69893116 -0.26066402 -0.021927219 -0.8519566
000090 2f b9 c1 be 65 e2 63 bf a3 40 c7 be 7a 48 74 be
       -0.37836596 -0.89017326 -0.389165 -0.23855773
0000a0 c1 f5 19 bf 92 6b 0c bf 8e 63 d8 be 82 a2 69 be
       -0.60140616 -0.5485164 -0.42263454 -0.22815898
0000b0 fd 14 0f bf 6a f0 4c bf 14 f3 c6 be aa c8 e8 be
       -0.558914 -0.8005434 -0.3885733 -0.45465595
0000c0 d4 24 ea be 0d fa 1b bf a4 f9 9d be 89 36 22 bf
       -0.45731223 -0.6092842 -0.30854523 -0.63364464
0000d0 0d 4a 17 bf 22 26 1b be 7b 03 04 bf 51 cc 7f be
       -0.5909737 -0.15151265 -0.5156781 -0.24980284
0000e0 e9 1d 09 be 80 cb 03 bf 13 56 f8 be be 0f 51 be
       -0.13390316 -0.5148239 -0.4850317 -0.20416161
0000f0 17 9a ba be 49 d1 56 bf 28 01 28 bf 3c d1 1a bf
       -0.36445686 -0.83913094 -0.65626764 -0.60475516
000100 f0 2f d5 be 17 34 fa be 56 f8 08 be ba 20 cc be
       -0.41638136 -0.48867866 -0.13375983 -0.39868718
000110 41 43 85 be 5e 5c 0c bf 6b 08 2a bf b3 ac 1b bf
       -0.26027873 -0.5482844 -0.66419095 -0.60810393
000120 e4 bd 42 bf 55 c5 a9 be 1b 42 03 bf f7 e4 39 be
       -0.76071 -0.33158365 -0.51272744 -0.1815375
000130 8f 2b 43 be 66 39 71 bd 5f 4e 12 be 0d be 83 be
       -0.19059585 -0.05889263 -0.14287709 -0.25730935
000140 af d3 f0 bc 32 84 0e bf 2b 80 24 be 5d ac b8 be
       -0.029397814 -0.55670464 -0.16064517 -0.36069003
000150 50 2c f8 3c 9b ab a9 be b5 13 c2 be 81 03 ec be
       0.030294567 -0.33138737 -0.3790566 -0.46096423
000160 eb 70 cc be f4 4b 1c bf 5b f7 b3 be e8 e3 34 3d
       -0.399299 -0.61053395 -0.35149655 0.04416266
000170 f9 cb a9 be 68 e0 7d be 37 59 12 bf 40 bd f7 be
       -0.3316343 -0.24792635 -0.5716738 -0.48386574
000180 8b 8d 0e bf b0 f0 75 be e5 ac ad be 6e 35 36 be
       -0.5568473 -0.24017596 -0.3392097 -0.1779382
000190 53 d1 b4 be e1 34 15 bf ae cf f7 be a3 90 51 bf
       -0.35315952 -0.5828381 -0.48400635 -0.81861323
0001a0 bb 47 00 bf 63 f4 08 bd 77 7c ac be 60 bc 2f bf
       -0.5010945 -0.03343619 -0.3368871 -0.6864681
0001b0 f5 56 f2 be a9 82 00 bf 14 90 25 bd 53 d4 06 bf
       -0.47331968 -0.5019937 -0.040420607 -0.5266773
0001c0 5f db 12 bf bc 2f fc be 75 5f ff be 20 10 69 bf
       -0.57365984 -0.49255168 -0.49877515 -0.9104023
0001d0 0e 41 64 be 72 6a 3c be 8d 78 06 bf 30 4e 83 be
       -0.22290441 -0.1839998 -0.52527696 -0.2564559
0001e0 2a 08 2d bf 15 5a 7d be e2 ec 0f bf 25 e5 b2 be
       -0.6759058 -0.24741395 -0.5622083 -0.34940448
0001f0 5b 6b 44 bf 30 8d dc be b3 3d ae be 25 0a 2a bf
       -0.7672631 -0.43076468 -0.34031448 -0.6642173
000200 89 24 70 be 47 4b 2c bf f1 da 83 be 73 b9 f9 be
       -0.23451437 -0.67302364 -0.25752977 -0.487743
000210 46 de 50 bf f6 a7 f8 bd 11 47 53 be 49 27 38 bf
       -0.8158916 -0.12141411 -0.20632578 -0.71934944
000220 2e d3 28 bf f2 f7 1d bf 91 57 cc be 59 07 10 bf
       -0.65947235 -0.6170646 -0.39910558 -0.5626121
000230 2b 5d 95 be 6e 41 22 bd f8 fe 20 bf ec c6 40 3e
       -0.29172644 -0.03961318 -0.6288905 0.18825883
000240 49 e4 e9 bd d0 c8 ef be 44 96 34 bd c0 d6 cf be
       -0.11420495 -0.46832895 -0.044088617 -0.4059353
000250 94 20 d9 be fa f0 5a be de 20 5c bf 19 cf 10 bf
       -0.42407668 -0.21380988 -0.8598765 -0.56566006
000260 94 59 cb be 7b b6 75 bf 2e 33 5b bf 58 c5 b6 be
       -0.3971678 -0.9598157 -0.8562497 -0.35697436
000270 53 74 b9 3c 33 1c e1 be 2c 18 4d bf 1e ef cc be
       0.022638476 -0.43966827 -0.8011501 -0.40026182
000280 25 07 e9 be 49 8a 1d bf 83 18 be be 93 39 11 bf
       -0.45513263 -0.6153913 -0.37128076 -0.56728476
000290 ff 3f 37 bd 70 c4 e0 be 9a 92 e0 be b9 2e c8 bd
       -0.044738766 -0.4389987 -0.43861848 -0.09774537
0002a0 78 8b 89 be cf 09 0d be aa 62 ee be 3e 9a b6 be
       -0.2686422 -0.13773273 -0.4655965 -0.35664552
0002b0 2f 02 8e be d0 1b 15 bf 44 40 e6 be d7 8f 34 bf
       -0.2773604 -0.58245564 -0.44970906 -0.7053198
0002c0 ed 06 20 bf 86 ed bc be 2b 57 87 be 8a 1c 12 bf
       -0.6251057 -0.36899966 -0.2643369 -0.570748
0002d0 bd 45 ef be 3e e9 81 be 3d 84 19 bf dd a8 e9 be
       -0.46732894 -0.25373262 -0.59967405 -0.45636645
0002e0 55 22 f6 be 6e a9 88 3c a5 50 fa be 01 b2 4b bf
       -0.48073068 0.016682353 -0.48889652 -0.7956849
0002f0 f9 55 a9 bd 3d 85 71 be 6c 79 01 bf a3 4b fe be
       -0.08268351 -0.23585983 -0.505759 -0.4966708
000300 64 eb 86 be ab 46 34 be d1 ae 30 bf c6 22 26 bf
       -0.26351464 -0.17605083 -0.6901675 -0.6489681
000310 76 e5 d1 be 72 4b 36 bf 8a a8 82 bf 0e 28 22 bf
       -0.40995377 -0.7120887 -1.0207684 -0.6334237
000320 4c 0c 02 3e 02 fd 8a be 0d a3 03 bf 29 f2 d3 be
       0.12700003 -0.27146155 -0.5142067 -0.4139569
000330 44 e8 27 bf ed ca 6b bf 84 5e d4 be b8 18 67 be
       -0.65588784 -0.92106515 -0.4147836 -0.22568023
000340 74 46 a0 be b9 53 02 bf 87 ca 3f be d4 1b a4 be
       -0.3130375 -0.50909 -0.18729602 -0.3205248
000350 92 3e 27 bf 98 08 2e bf 17 cf 67 bf 97 ce 09 bf
       -0.6532985 -0.67981863 -0.9055037 -0.53830856
000360 38 5f 09 bf 5e 1d 22 be 70 f3 11 bd 89 d8 35 bf
       -0.5366092 -0.15831515 -0.03563255 -0.7103353
000370 62 86 38 bf f3 d3 f5 be 98 44 50 be ef 03 d8 be
       -0.7208005 -0.48013267 -0.20338666 -0.421905
000380 4c 7e 87 be 7f 76 09 bf 3d c0 97 be c4 24 77 bf
       -0.26463544 -0.53696436 -0.29638854 -0.96540475
000390 d2 ee a5 be eb 5a f1 be 58 15 1c bf c9 61 e2 be
       -0.32408768 -0.47139677 -0.6097007 -0.4421523
0003a0 c8 64 61 be 7b a9 88 bf bf 32 95 be 87 7a 03 bf
       -0.22011101 -1.0676721 -0.2914028 -0.51358837
0003b0 54 fc b6 3c 0b 84 50 be 06 41 1d bf 29 e9 3f bf
       0.022337116 -0.2036287 -0.6142734 -0.7496515
0003c0 30 2c 4f bf 94 80 88 be 2e 4e 93 be c4 64 1c bf
       -0.809268 -0.26660597 -0.28770584 -0.61091256
0003d0 42 dd 95 be a8 40 3e bf dc bb ed be 24 06 04 bf
       -0.2927037 -0.7431741 -0.46432388 -0.5157187
0003e0 ee 05 9f be a8 78 b5 be b8 69 b3 be 55 35 13 bf
       -0.31059211 -0.35443616 -0.35041595 -0.57503253
0003f0 d7 c5 33 bf 7b 81 18 bf 7a 78 10 bf ce 8e 1a be
       -0.70223755 -0.5957257 -0.5643383 -0.15093538
