result/test/D.pt (torch, 22679 bytes, 5 tensors)

fc.0.weight f4 [64, 14]
0	0xbe72fa64	-0.23728329
1	0xbef150c8	-0.47131944
2	0xbe4a7611	-0.19771601
3	0xbdcf85db	-0.10132953
4	0x3e1fae65	0.1559387
5	0xbea18285	-0.3154489
6	0xbcc06078	-0.0234835
7	0xbfafc416	-1.3731716
8	0x3d074096	0.03302058
9	0xbf07120a	-0.527619
10	0xbe8b02cf	-0.2715058
11	0x3e0f9ac2	0.14023879
12	0xbe2c8892	-0.16848972
13	0x3d29e9fc	0.04148291
14	0xbf64ef99	-0.89428097
15	0x3c1928a5	0.009348069
16	0x3e14f3f3	0.14546184
17	0xbc0a06a1	-0.008424432
18	0x3e0b0768	0.13577044
19	0xbe974f2e	-0.29552597
20	0x3f87ff4f	1.0624789
21	0xbe82d0b6	-0.2554986
22	0xbf6e0033	-0.92969054
23	0x3e9517f8	0.2911985
24	0x3ec82caa	0.39096576
25	0x3e9242b3	0.28566512
26	0xbdc20ea7	-0.09475451
27	0x3e947f76	0.29003495
28	0x3eff9ff4	0.49926722
29	0xbe907c0f	-0.2821965
30	0xbe97723d	-0.29579344
31	0x3ecc5886	0.39911288
32	0x3cf38f19	0.02973132
33	0x3d9ee9d6	0.077594444
34	0xbf434756	-0.76280725
35	0x3f8d1c21	1.1024209
36	0x3ecf3a64	0.40474236
37	0xbd10fe56	-0.035398804
38	0xbee23abf	-0.44185445
39	0x3ea1f351	0.31630948
40	0x3c07f0cc	0.008297157
41	0xbe326a0a	-0.17423263
42	0x3e8866a6	0.26640815
43	0xbe20852c	-0.15675801
44	0xbf0592ea	-0.521773
45	0xbebb79ae	-0.36616272
46	0xbe1f3726	-0.15548381
47	0x3dab9686	0.083783194
48	0xbea4aab3	-0.32161483
49	0xbda30df1	-0.079616435
50	0x3e0e59da	0.13901463
51	0xbd8e1450	-0.06937468
52	0xbf116fef	-0.5681142
53	0xbcfea392	-0.031083856
54	0xbe11f9a6	-0.1425539
55	0x3e075c26	0.13218746
56	0xbd3f7263	-0.046739947
57	0xbd0c4236	-0.03424283
58	0xbde37f01	-0.111082084
59	0x3f161833	0.58630675
60	0x3d200cf8	0.039074868
61	0xbe2a219a	-0.1661438
62	0xbf4605e2	-0.77352726
63	0xbfab6127	-1.3389024
64	0x3dce2fad	0.10067687
65	0x3e9f56f5	0.3112103
66	0xbcd77e44	-0.026305325
67	0x3eb607a5	0.35552707
68	0x3dc0f89c	0.094224185
69	0xbe371443	-0.17878823
70	0xbdfea4fd	-0.12433813
71	0xbf1af246	-0.6052593
72	0x3c8f1022	0.017463747
73	0x3f6fd35f	0.936819
74	0xbda1ba7d	-0.07896898
75	0xbceb48ce	-0.02872124
76	0x3f05be6b	0.5224368
77	0x3fb13a1f	1.3845862
78	0xbeab2e51	-0.33433774
79	0xbf03c16d	-0.5146702
80	0x3ec0c4ec	0.3765024
81	0x3f80aaad	1.0052086
82	0x3d646caa	0.055767693
83	0xbe14896d	-0.14505549
84	0xbec7e5cb	-0.39042506
85	0x3f0377ef	0.5135488
86	0xbf1b05e7	-0.6055588
87	0xbd46d97b	-0.04854725
88	0xbd353c6b	-0.044247072
89	0x3c563dd2	0.013076263
90	0x3ef74b55	0.4829966
91	0xbfb26423	-1.3936809
92	0xbee1c916	-0.4409873
93	0x3f23898f	0.6388177
94	0xbe64abef	-0.22331212
95	0xbf00e6d5	-0.5035222
96	0x3dad7395	0.08469311
97	0x3cf2578f	0.029582767
98	0x3e3ec072	0.186281
99	0xbe2a77e6	-0.166473
100	0xbe823f24	-0.25438797
101	0xbd9fd762	-0.07804753
102	0xbed2bdcc	-0.4116043
103	0x3ee4c523	0.44681653
104	0xbec0999e	-0.376172
105	0x3eb4eb76	0.35335892
106	0x3ea35d4f	0.31907126
107	0xbeddda3a	-0.43330556
108	0x3d4ce359	0.050021503
109	0x3e33a21d	0.1754231
110	0xbdd9d6be	-0.10636662
111	0xbe0df279	-0.13862027
112	0xbd25b818	-0.04045877
113	0x3eaf2e56	0.3421504
114	0x3e630d4e	0.22173044
115	0x3d61c63b	0.055120688
116	0xbd7d263a	-0.061804034
117	0xbd006df7	-0.03135487
118	0x3e1413e1	0.14460708
119	0x3ff19860	1.8874626
120	0x3d7e39ad	0.062066723
121	0x3ddfd41a	0.10929127
122	0x3e612d9a	0.21990052
123	0x3e8c40f3	0.27393302
124	0x3e4e1d46	0.20128354
125	0xbecc142f	-0.3985915
126	0xbf08f94a	-0.53505385
127	0xbe83eb6c	-0.2576555
128	0xbe0d1fbe	-0.1378164
129	0xbe8416f7	-0.2579877
130	0x3e2df3ae	0.16987488
131	0x3d32b043	0.043625128
132	0xbef4daf5	-0.478233
133	0x3e2dcd60	0.16972876
134	0xbddded4f	-0.10836279
135	0xbd918fca	-0.07107504
136	0xbe1774f7	-0.14790712
137	0xbeb08359	-0.3447521
138	0xbeeafe80	-0.45897293
139	0xbdeb9216	-0.11502473
140	0x3ed66faa	0.41882068
141	0xbea2fa42	-0.31831557
142	0xbee78519	-0.45218733
143	0xbe4fae0e	-0.2028124
144	0x3dd1f011	0.10250867
145	0x3e4b2129	0.19836868
146	0x3e878995	0.26472154
147	0x3e2ab24d	0.16669579
148	0x3ed356c0	0.41277122
149	0xbeb07f8f	-0.3447232
150	0xbe1e584d	-0.15463372
151	0xbeab5044	-0.33459675
152	0xbdf35a7c	-0.11882493
153	0xbe1c3fc3	-0.15258698
154	0x3eae769e	0.34074873
155	0x3d30166f	0.042990144
156	0xbd8ee22f	-0.06976735
157	0xbef04bef	-0.46932933
158	0xbe59bdf1	-0.21263863
159	0xbe694ad3	-0.2278245
160	0xbf48e232	-0.78470147
161	0xbeca238f	-0.39480254
162	0xbdc4cd11	-0.09609426
163	0x3df6430c	0.12024507
164	0x3d9e549c	0.07730982
165	0xbed868ee	-0.42267555
166	0xbdb3c102	-0.08777048
167	0x3ca40c06	0.020025264
168	0xbd8b5aa4	-0.06804398
169	0xbc1a0da5	-0.009402667
170	0xbe9e9aea	-0.30977565
171	0xbe6f4d70	-0.23369384
172	0xbe80b5a5	-0.25138584
173	0xbe9dced3	-0.30821857
174	0x3f0d6a04	0.5523989
175	0x3fcf2bf7	1.6185292
176	0xbdde9774	-0.10868731
177	0xbe62b811	-0.22140528
178	0x3e2b4fe4	0.16729695
179	0xbddd1a33	-0.10796013
180	0x3ea38d9e	0.31943983
181	0x3ea9969a	0.33122712
182	0x3d6163d9	0.055026863
183	0xbd98cf2c	-0.0746139
184	0xbe31934c	-0.17341346
185	0xbeee5734	-0.46550906
186	0xbd1e36e3	-0.038626563
187	0xbd66ea74	-0.056375936
188	0xbfe58706	-1.7931831
189	0x3f3db366	0.74101865
190	0xbe33e728	-0.17568648
191	0x3d9c53a4	0.07633141
192	0xbd306944	-0.04306914
193	0xbec8d0aa	-0.39221698
194	0xbb8ea890	-0.0043535903
195	0x3d962036	0.073303625
196	0x3e48705c	0.19574112
197	0x3f09bd58	0.5380454
198	0xbec24bb4	-0.37948382
199	0xbd8d0d6e	-0.06887327
200	0xbdbcc1ab	-0.09216627
201	0xbeab3ae2	-0.33443362
202	0x3ebc14b0	0.36734533
203	0x3f4cdee6	0.80027616
204	0x3ec8f3d2	0.3924852
205	0x3f01919f	0.50612825
206	0xbeb2d9ca	-0.34931785
207	0x3c6d8660	0.0144973695
208	0x3d19f2ed	0.037585188
209	0x3e917088	0.28406167
210	0xbeb65c8b	-0.3561748
211	0x3f43ca2b	0.7648036
212	0x3e68f225	0.22748621
213	0x3e11da27	0.14243375
214	0x3e328dd2	0.17436913
215	0xbd4ebfde	-0.050475948
216	0xbe20f221	-0.15717365
217	0xbfb88574	-1.4415727
218	0xbef38666	-0.47563475
219	0x3ebb090c	0.3653034
220	0x3f033d04	0.5126498
221	0xbd18f40a	-0.03734211
222	0xbdcd7058	-0.100311935
223	0xbd7c69c7	-0.061624315
224	0x3d4a88f6	0.049447022
225	0xbdbb0faf	-0.09133851
226	0x3f698645	0.91220504
227	0x3e17c2f7	0.14820467
228	0xbc7fdf46	-0.015617197
229	0xbdceed61	-0.1010387
230	0xbe19d9d9	-0.15024509
231	0xbea32be5	-0.31869426
232	0x3e78fadb	0.24314444
233	0x3d5b2228	0.05349937
234	0x3f832d85	1.0248266
235	0xbaa2e092	-0.0012426546
236	0x3d5b160a	0.053487815
237	0x3dc3f1c4	0.095675975
238	0xbf4164f2	-0.75544655
239	0x3a318127	0.00067712594
240	0xbf386f7c	-0.7204511
241	0x3dee58df	0.116380446
242	0x3dd68d1e	0.10476135
243	0x3c9fa383	0.019487148
244	0x3f044a12	0.5167552
245	0x3ec4cf28	0.38439298
246	0xbf168b7d	-0.5880659
247	0xbde227b1	-0.11042727
248	0xbf06473f	-0.5245246
249	0xbca0fe98	-0.01965265
250	0xbd8b4a65	-0.06801299
251	0x3d3f8f74	0.046767667
252	0x3ef68106	0.48145312
253	0x3c042b49	0.008066961
254	0x3f0f4c44	0.5597575
255	0x3e8e68c5	0.27814308

fc.0.bias f4 [64]
0	0xbf373d9f	-0.715784
1	0xbe840e99	-0.25792387
2	0x3e4ef195	0.20209344
3	0xbe987f16	-0.2978446
4	0xbda4114f	-0.08011114
5	0x3f1350c0	0.5754509
6	0xbf015e5b	-0.505346
7	0x3cc04edd	0.023475105
8	0x3ef5dde9	0.48020867
9	0xbe9e9c2c	-0.30978525
10	0xbe06e2ae	-0.13172409
11	0x3d31006c	0.043213293
12	0x3f0ad26e	0.5422734
13	0x3e5c58df	0.21518277
14	0x3ca52ac7	0.020162
15	0xbf22b517	-0.6355757
16	0xbf144ba2	-0.57927907
17	0xbf0cceab	-0.5500285
18	0xbf21e1a2	-0.63234913
19	0xbe6e8799	-0.23293914
20	0x3e82d0f6	0.2555005
21	0xbe6d5734	-0.23177797
22	0xbf01d992	-0.5072261
23	0xbf3d9ef3	-0.7407066
24	0xbf1693eb	-0.58819455
25	0xbe2c19ee	-0.16806766
26	0xbf3b112b	-0.7307307
27	0xbe9fa3aa	-0.31179553
28	0xbec508e5	-0.38483348
29	0xbe867b81	-0.262661
30	0xbe6ef393	-0.23335104
31	0xbea6ef69	-0.3260453
32	0xbed79377	-0.42104694
33	0xbe3f21cf	-0.1866524
34	0xbedbb722	-0.42913157
35	0xbdeadde2	-0.11468102
36	0xbed70fdc	-0.42004287
37	0xbef22bd7	-0.47299072
38	0xbf0201d9	-0.5078407
39	0xbf105a31	-0.5638762
40	0xbf1d691e	-0.6148852
41	0xbe973967	-0.29535982
42	0xbe327d83	-0.17430691
43	0x3df236e6	0.11826877
44	0xbe9f49df	-0.31111047
45	0x3f2892fd	0.65849286
46	0xbeb719b4	-0.35761797
47	0x3f81f554	1.0152993
48	0xbbe60686	-0.0070198206
49	0xbd88bbd3	-0.066764496
50	0x3f7f770b	0.9979102
51	0xbc89aa0e	-0.016804721
52	0xbb1a6bdc	-0.0023562824
53	0xbeb4f582	-0.35343558
54	0x3db8aab2	0.090169325
55	0xbe33ff8b	-0.1757795
56	0xbf36d156	-0.7141317
57	0x3de02169	0.109438725
58	0x3eb95b9f	0.36202714
59	0xbd863515	-0.06553093
60	0xbed8eca8	-0.42368054
61	0xbd5b2868	-0.05350533
62	0x3f28b281	0.65897375
63	0x3f8e35d9	1.1110183

fc.1.weight f4 [64, 64]
0	0x3d8080d6	0.062745735
1	0x3dcc8bea	0.09987624
2	0xbde00f24	-0.10940388
3	0xbe41d36a	-0.18928304
4	0xbd1a6590	-0.037694514
5	0xbdb324b3	-0.08747234
6	0xbd473236	-0.04863187
7	0xbc637967	-0.013883925
8	0xbdba6bb7	-0.09102576
9	0x3d90034f	0.07031881
10	0x3db658e5	0.08903674
11	0x3c9191d8	0.017769739
12	0xbdaa7d0f	-0.08324634
13	0xbdfd8297	-0.12378424
14	0xbd30ee7f	-0.043196198
15	0xbda2217e	-0.079165444
16	0x3dcad988	0.09904772
17	0xbd08f157	-0.033433285
18	0xbde7cdbc	-0.113185376
19	0xbd5f0608	-0.05444911
20	0x3d36b8ff	0.04461002
21	0x3dbc2b53	0.09187951
22	0x3dc35134	0.09536973
23	0xbc32870b	-0.010896455
24	0x3dca2ac2	0.09871437
25	0xbddad915	-0.10685936
26	0xbc00410a	-0.0078280065
27	0xbc9814f2	-0.018564675
28	0xbe031dab	-0.12804286
29	0xbd736b25	-0.059428353
30	0x3dae9bbf	0.085258
31	0x3c96fa80	0.018429995
32	0x3d878d04	0.066186935
33	0x3ae7699e	0.0017655378
34	0xbde7b4b9	-0.11313767
35	0x3c8af20d	0.016961122
36	0xbe060b44	-0.13090235
37	0x3d87b7fd	0.0662689
38	0x3da56d64	0.08077505
39	0xbddae3b8	-0.10687965
40	0xbdae3afd	-0.08507345
41	0xbdb217a0	-0.08695912
42	0x3d6a0acc	0.057139203
43	0xbe078f2f	-0.13238214
44	0xbe3416fb	-0.17586891
45	0xbdb784cd	-0.089608766
46	0xbd29b236	-0.04142972
47	0x3d97d520	0.07413697
48	0xbdd3fc4a	-0.10350855
49	0xbe2851f2	-0.1643751
50	0xbdb0ccc2	-0.086328045
51	0x3d871885	0.065964736
52	0xbd937cb1	-0.072015174
53	0x3cfd670d	0.030932928
54	0xbdf0225f	-0.11725306
55	0x3dd9d554	0.10636392
56	0x3cdcc0d3	0.026947415
57	0xbdd1d8a4	-0.10246399
58	0xbe098356	-0.13429007
59	0xbc7c4d75	-0.015399327
60	0x3ce904d7	0.02844469
61	0xbdc97554	-0.09836832
62	0xbd835e05	-0.06414417
63	0xbdb9e698	-0.090771854
64	0xbd9304c2	-0.07178642
65	0x3e90d27a	0.2828558
66	0xbf3f8888	-0.74817705
67	0x3c0c9764	0.008581016
68	0x3ecf4436	0.40481728
69	0xbf33887a	-0.7013012
70	0x3e52e332	0.2059448
71	0xbe0267be	-0.12734887
72	0x3e2e1ac8	0.17002404
73	0x3d4ed25a	0.050493576
74	0xbd793812	-0.06084449
75	0x3ebdd621	0.3707743
76	0x3de1c54c	0.110239595
77	0x3ec5a5a9	0.3860295
78	0x3e1b6fb4	0.1517933
79	0x3ef6acbf	0.4817867
80	0x3e8f6307	0.2800524
81	0xbe81c189	-0.25342968
82	0x3e3b354e	0.18282053
83	0xbeb47600	-0.35246277
84	0x3e9b2c25	0.30307117
85	0xbd36a51e	-0.04459106
86	0xbe0f10cf	-0.13971256
87	0xbef40807	-0.47662374
88	0x3dd10b95	0.10207287
89	0xbeba8490	-0.36429262
90	0xbee28f25	-0.44249836
91	0xbe5a33ad	-0.21308775
92	0x3f159c17	0.584413
93	0xbe897e6e	-0.2685427
94	0x3eea5ade	0.4577245
95	0xbd9075a5	-0.07053689
96	0xbe100f72	-0.14068392
97	0x3cdf614a	0.02726807
98	0x3eb007ff	0.343811
99	0x3d14420e	0.036195807
100	0x3edb58f3	0.428413
101	0x3e6e6b4e	0.23283121
102	0xbf5dacc5	-0.8659175
103	0xbe291d3d	-0.1651506
104	0xbca97f8a	-0.020690698
105	0xbf221944	-0.633198
106	0x3eb20eb4	0.34776843
107	0x3dffa55e	0.12482713
108	0xbe1eea01	-0.15518953
109	0x3e4cfafe	0.20017621
110	0xbe08e4ab	-0.1336848
111	0x3ebee50e	0.3728413
112	0xbe04a454	-0.12953311
113	0xbde4a44b	-0.11164149
114	0xbf3fe90c	-0.74964976
115	0x3e8e14b6	0.27750176
116	0xbf661b2d	-0.89885217
117	0x3d935f05	0.07195858
118	0xbda9ad02	-0.08284952
119	0xbfa36806	-1.276612
120	0xbe83e509	-0.25760677
121	0xbeaf70e4	-0.34265816
122	0x3d75d5f0	0.06001848
123	0x3e8e0ede	0.27745718
124	0x3e6b8791	0.23000933
125	0xbe824deb	-0.25450072
126	0xbdcdc091	-0.10046495
127	0x3ecff3cf	0.406157
128	0xbf5187a7	-0.81847614
129	0xbf474854	-0.7784474
130	0x3ea0c27c	0.3139838
131	0xbe9d5207	-0.30726644
132	0x3de40fcd	0.11135826
133	0x3e367f9d	0.17822118
134	0xbf2175e6	-0.63070524
135	0x3e59c2de	0.21265742
136	0x3eaee792	0.3416105
137	0x3d0d0a4f	0.03443366
138	0x3b4b1b51	0.0030991624
139	0xbe96e328	-0.2947018
140	0x3dedb972	0.116076365
141	0x3d4e51f7	0.050371137
142	0xbe8f0ffc	-0.27941883
143	0xbf0731d5	-0.5281041
144	0xbf8346f9	-1.0256034
145	0xbf56e7a1	-0.8394719
146	0xbf74119e	-0.9533938
147	0xbe014ea0	-0.1262765
148	0x3d474462	0.0486492
149	0xbd4b6dae	-0.049665146
150	0xbf3c7da3	-0.73629206
151	0x3e2bed55	0.16789754
152	0xbf61b9c8	-0.88174105
153	0x3d4db360	0.050219893
154	0xbefe4b17	-0.49666664
155	0xbdd7e93a	-0.10542531
156	0xbefdcc27	-0.49569818
157	0xbcc98185	-0.024597893
158	0xbe2772e5	-0.16352423
159	0xbf3146fc	-0.6924894
160	0xbfac0d6f	-1.34416
161	0x3d3709dd	0.04468714
162	0xbf271b66	-0.6527618
163	0xbfaa8ceb	-1.3324255
164	0xbe073127	-0.13202344
165	0x3db1ecdb	0.08687755
166	0x3c893cb8	0.016752586
167	0xbed9bd1e	-0.42527097
168	0xbf9ee460	-1.2413445
169	0xbe2018f4	-0.15634519
170	0xbe31ca41	-0.1736231
171	0xbe18a02e	-0.14904854
172	0x3e049ef3	0.1295126
173	0x3eb9acc9	0.36264637
174	0xbe5c951e	-0.21541259
175	0x3f490454	0.7852223
176	0xbe4fd8a3	-0.20297484
177	0x3e334b2a	0.17509142
178	0x3f81d8b8	1.0144262
179	0xbe0080e4	-0.12549168
180	0x3fd1b18c	1.6382308
181	0xbf54448b	-0.8291709
182	0x3ea0adf3	0.31382713
183	0xbee5af5f	-0.4486036
184	0xbfa2387f	-1.2673491
185	0x3e33bd15	0.17552598
186	0x3f28dc04	0.6596072
187	0x3e792345	0.2432986
188	0xbebb5a5b	-0.36592373
189	0xbeeeede1	-0.46665862
190	0x3f159ad4	0.58439374
191	0x3f4ab659	0.7918449
192	0xbeb033c7	-0.34414503
193	0xbf94181e	-1.156986
194	0xbd63718a	-0.0555282
195	0x3e7c3cb8	0.24632537
196	0xbe3ef627	-0.18648587
197	0xbf031dbf	-0.51217264
198	0x3e1d2b56	0.15348563
199	0x3d0c0a19	0.034189317
200	0x3e5cd8d1	0.21567084
201	0x3da371d2	0.07980694
202	0x3e35a4fd	0.1773872
203	0xbf21a026	-0.6313499
204	0xbea5d4b4	-0.32388842
205	0xbee8c051	-0.45459226
206	0x3eb06cae	0.34457916
207	0xbd8e9953	-0.06962838
208	0x3ec11ac6	0.3771574
209	0x3e811c8d	0.25217095
210	0x3f2f3026	0.68432844
211	0x3e1c2cf1	0.15251519
212	0x3e31fced	0.1738164
213	0x3c424c2a	0.011858979
214	0xbc5fdf00	-0.013664007
215	0xbdb5b737	-0.08872836
216	0xbf64dfec	-0.8940418
217	0x3d58e8f2	0.05295653
218	0xbe08ed39	-0.13371743
219	0x3c9fd13f	0.019508956
220	0x3e72d624	0.237145
221	0xbd9ff569	-0.0781048
222	0x3ea46de4	0.3211509
223	0xbd01d252	-0.031694718
224	0xbe34f3bf	-0.17671107
225	0x3dba9302	0.09110071
226	0x3ed20b96	0.41024464
227	0x3e57662a	0.21035066
228	0x3e9ad944	0.30243886
229	0xbe505043	-0.20343117
230	0x3ea5f909	0.3241656
231	0x3e57a26f	0.21058057
232	0xbe4d10e0	-0.20025969
233	0xbdc489f1	-0.09596623
234	0xbebbbec5	-0.36668983
235	0x3ea1d71a	0.31609422
236	0x3efb69d0	0.49104166
237	0x3e6b0496	0.22950968
238	0xbe1ff60b	-0.15621202
239	0x3e6e5e45	0.23278148
240	0x3d9914f5	0.074747
241	0x3e1a781a	0.15084878
242	0xbe9e6b61	-0.309413
243	0xbd8158a0	-0.06315732
244	0x3ed320ba	0.41235906
245	0x3ef96cc5	0.48715797
246	0xbeaaa3d9	-0.3332813
247	0xbcebcd5a	-0.028784443
248	0xbd6e8439	-0.058231566
249	0x3e2f0a11	0.17093684
250	0x3ea3c714	0.31987822
251	0x3eb8d5a2	0.3610049
252	0xbea408b2	-0.32037884
253	0x3e7a36a6	0.24434909
254	0xbe79ea8a	-0.24405876
255	0xbd56e9d2	-0.052469082

fc.1.bias f4 [64]
0	0xbdc992ef	-0.098424785
1	0x3e4eda51	0.20200469
2	0x3fa55538	1.2916632
3	0xbe4d221b	-0.20032541
4	0xbea048b0	-0.31305456
5	0xbf0096ab	-0.502299
6	0x3dc06ca6	0.09395723
7	0xbf107604	-0.5643008
8	0xbf44031f	-0.7656726
9	0x3dc03cda	0.093866065
10	0x3d99ddae	0.07512985
11	0x3db3bda9	0.08776409
12	0xbe4d39b9	-0.2004155
13	0xbe703247	-0.2345668
14	0xbcd5a8ac	-0.026081406
15	0x3ea3fef8	0.32030463
16	0x3dee5eab	0.1163915
17	0xbea56e77	-0.3231084
18	0xbeb669b6	-0.35627526
19	0xbdb47e54	-0.08813158
20	0xbe1412d3	-0.14460306
21	0xbdd84545	-0.10560087
22	0xbef4a6b9	-0.4778345
23	0xbce60be1	-0.028081836
24	0xbe857430	-0.26065207
25	0x3ece31b0	0.40272284
26	0xbf000314	-0.50004697
27	0x3cb511cc	0.022103213
28	0xbe0bccda	-0.13652363
29	0x3e4ddd7d	0.20104022
30	0xbe27b993	-0.16379385
31	0xbe34e8d5	-0.17666943
32	0xbf3c5c61	-0.7357846
33	0x3e5426a9	0.20717873
34	0xbee5c162	-0.44874102
35	0xbf789655	-0.9710439
36	0xbe800282	-0.25001913
37	0xbdb61cba	-0.08892198
38	0xbe034f28	-0.12823164
39	0xbe0efeec	-0.13964432
40	0xbf4fb1a7	-0.8113045
41	0x3d1b7d6e	0.037961416
42	0x3e84a290	0.25905275
43	0x3d2ae410	0.041721404
44	0xbf04ffcf	-0.5195283
45	0xbe5fbada	-0.21848622
46	0xbddc64eb	-0.10761436
47	0xbe9cf8b4	-0.30658495
48	0xbed9fcca	-0.42575675
49	0x3d14c154	0.036317185
50	0xbe956822	-0.2918101
51	0xbc47bc6c	-0.012190919
52	0xbdca3b06	-0.09874539
53	0x3e645f25	0.2230192
54	0xbd965b47	-0.073416285
55	0x3e8f1ee3	0.27953252
56	0xbda51fe9	-0.08062727
57	0x3cdbe7b5	0.026843885
58	0xbee374cf	-0.44425055
59	0xbf001ba0	-0.5004215
60	0x3da2aae8	0.07942754
61	0xbd1c5f1a	-0.038176633
62	0xbdf140e2	-0.117799535
63	0x3ed9abdf	0.4251394

fc.2.weight f4 [1, 64]
0	0xbc53eadf	-0.012934416
1	0x3f1b7587	0.6072621
2	0xc0844409	-4.133305
3	0xbf10b861	-0.5653134
4	0x3deb469c	0.11488077
5	0xbf4e08ab	-0.80481976
6	0xbf30d503	-0.6907503
7	0xbf1743d4	-0.5908787
8	0xbf78ed2f	-0.97236913
9	0xbf24bf48	-0.6435437
10	0x3e9cff06	0.30663317
11	0x3f311835	0.6917756
12	0xbf04db5d	-0.5189722
13	0x3db59203	0.0886574
14	0x3d7d22dd	0.061800826
15	0x3f1bc210	0.6084299
16	0x3f98ff21	1.1952859
17	0xbee90622	-0.4551249
18	0xbf3b184e	-0.7308396
19	0x3dbdad25	0.0926154
20	0x3e938309	0.2881091
21	0xbf6bf5c6	-0.92171896
22	0xbf2fd2a4	-0.6868079
23	0xbff2869f	-1.8947333
24	0xbe77d248	-0.2420131
25	0xbf41839c	-0.75591445
26	0x3f7e7d64	0.9941008
27	0x3f328045	0.69726974
28	0xbe93844c	-0.28811872
29	0x3f743310	0.95390415
30	0x3dbbbb0e	0.09166537
31	0x3f64d81e	0.8939227
32	0xc001cc37	-2.0280893
33	0x3ed68af6	0.41902894
34	0xbf07f9b7	-0.5311541
35	0xbfd22cd4	-1.641993
36	0x3f016da3	0.5055792
37	0x3c58c676	0.0132309105
38	0x3f824525	1.0177351
39	0x3f67cc7b	0.9054639
40	0xbf6abe45	-0.9169658
41	0x3f73487b	0.9503247
42	0x3f90d7a8	1.1315813
43	0x3ef3d686	0.47624606
44	0xbe8f08d0	-0.2793641
45	0x3e229b39	0.15879525
46	0x3c8ace89	0.016944187
47	0x3e521e4a	0.20519367
48	0xbe8ed798	-0.2789886
49	0xbdbc821d	-0.09204505
50	0xbed9c664	-0.42534173
51	0x3ec22069	0.37915352
52	0x3f10a592	0.5650264
53	0x3f1dd962	0.61659825
54	0xbf5deade	-0.86686504
55	0x3f2624d8	0.6489997
56	0xbdc6a3e4	-0.096992284
57	0x3f0959f7	0.536529
58	0x3ecf7954	0.40522254
59	0xbfc31cf3	-1.524321
60	0x3d8db52f	0.06919324
61	0x3dd33c47	0.10314231
62	0x3da73a23	0.081653856
63	0x3f77ebca	0.9684416
