result/test/f.pt (torch, 173207 bytes, 6 tensors)

fc.0.weight f4 [200, 6]
-0.013459975 -0.033895925 -0.021138469 -0.012288937 -0.0029183284 0.00071565004 0.016364092 0.0005333624
-0.007443779 0.011239075 -0.0034422763 -0.0020485967 0.4684704 -0.2049172 -0.20292203 0.28271315
0.022356791 -0.05372715 0.16117644 -0.5164593 -0.3217475 0.31451058 -0.12761986 -0.010213924
-0.16132827 -0.2677941 -0.1206517 0.28572842 0.0056634364 -0.09303669 -0.41490287 -0.14968923
0.53298676 -0.43565917 -0.2195695 -0.034938578 -0.0003901693 0.01372327 -0.012767165 -0.0068267817
-0.0005938721 0.0010145673 -0.013838853 0.002906246 -0.078642204 -0.21012104 0.0024268318 0.034025375
-0.0021898902 -0.0028392728 0.00277049 -0.012452405 0.00025814422 0.0046792156 -0.5626408 0.3850275
0.057026997 -0.3518222 0.102692835 -0.07361785 0.2761191 -0.48764503 -0.10927654 0.09924446
-0.20563233 0.028349226 -1.5611184e-05 -0.096808665 0.012865406 -0.06796622 0.007944424 0.0029280628
-0.080087505 0.063250616 -0.18573485 0.12993184 -0.041622642 0.012465291 0.07141789 0.11242825
0.08075716 0.1560783 -0.033210985 0.0056635165 -0.29686987 0.16779454 0.4232595 -0.09558763
0.0183546 0.15935686 -0.40595138 0.10114652 -0.52917945 0.28496468 -0.12154866 -0.091671705
-0.003000317 -0.012080735 -0.05091359 0.07045689 -0.010575138 -0.010625747 0.36256924 -0.37081486
-0.070605956 -0.05782007 -0.11227524 0.11253027 -0.59783494 -0.24916628 -0.26523268 0.0230308
-0.003205943 0.07297824 0.010431235 0.31165022 0.5538246 0.6103571 -0.07340604 0.013157267
0.0009029451 -0.0026974953 0.010617528 0.00047825885 0.0017808971 -0.0038840382 -0.019926738 -0.1419781
-0.0070172483 -0.04786631 -0.018749362 0.011527272 0.653434 -0.10417814 -0.3604196 0.8607808
-0.12706658 0.022475284 -0.41489127 0.117795505 -0.04444936 -0.051740192 0.11204465 0.16888443
-0.0015534384 -0.014089898 -0.01143305 0.0320533 -0.0076408912 -0.004864158 -0.124261215 -0.025706021
0.06661391 -0.014972581 0.004443581 -0.0006168443 0.038393214 0.03055735 -0.072427906 0.13088101
-0.015345223 -0.011969478 0.0024967443 -0.045497887 -0.08618245 -0.12711509 0.004241426 0.016951395
-0.00026491316 0.002343009 0.012199395 -0.01342921 0.0012029194 0.0030633947 -0.009245624 -0.019243373
-0.012900128 0.022897534 -0.001171098 -0.009460548 -0.018227486 -0.26139393 0.14533903 -0.022989659
-0.01891824 -0.010006872 -0.020650981 -0.15683253 -0.038935028 -0.030824363 0.0060574617 0.0034646653
-0.062286768 -0.390324 -0.038264107 0.0007960635 0.04636471 -0.008540959 0.0012994846 0.0022248076
-0.0007720341 -0.010284647 -5.038155e-05 0.0010235412 0.0038886908 -0.025613945 -0.0069418005 -0.011470777
-0.0013787352 -0.0020236555 0.024941754 -0.008684197 0.052259866 0.13283235 -0.013360937 -0.010507591
0.0010887962 -0.03697304 -0.015107699 -0.018126795 -0.008076198 0.001172813 -0.25900635 -0.53626305
-0.25138927 0.21431361 -0.040458884 0.097707324 0.14954631 0.0686153 0.11924332 -0.061719798
0.00041457315 -0.0015867659 -0.09539929 0.5738031 -0.387031 0.44209203 0.056051914 0.10098278
0.20676327 -0.26854098 0.62225455 0.49090952 -0.20875219 -0.2573396 -0.14280704 -0.36489725
0.001953695 0.07257254 -0.05865201 0.004868126 -0.030319706 -0.22247468 0.0014425836 -0.09190762
00000000: 3a87 5cbc 74d6 0abd 952a adbc 8a57 49bc
00000010: 6d41 3fbb 769a 3b3a fd0d 863c 58d1 0b3a
00000020: f2ea f3bb 1924 383c d097 61bb c041 06bb
00000030: 5adb ef3e d1d5 51be cbca 4fbe c7bf 903e
00000040: 9725 b73c 0011 5cbd 700b 253e ad36 04bf
00000050: 17bc a4be 8807 a13e c8ae 02be 4d58 27bc
00000060: 3d33 25be 4f1c 89be 3d18 f7bd ff4a 923e
00000070: 5994 b93b 058a bebd 266e d4be 2248 19be
00000080: d271 083f b80e dfbe d4d6 60be c11b 0fbd
00000090: a38f ccb9 91d7 603c 5f2d 51bc 32b3 dfbb
000000a0: 15ae 1bba 3bfb 843a 5bbc 62bc b876 3e3b
000000b0: 2a0f a1bd f829 57be 7b0b 1f3b 315e 0b3d
000000c0: 4384 0fbb 1813 3abb 1c91 353b 2c05 4cbc
000000d0: 8857 8739 1b54 993b 3a09 10bf 5322 c53e
000000e0: 2495 693d 0a22 b4be 9f50 d23d f5c4 96bd
000000f0: 7c5f 8d3e 9cac f9be 61cc dfbd ae40 cb3d
00000100: 4891 52be a33c e83c c3f4 82b7 9f43 c6bd
00000110: 6dc9 523c e031 8bbd 5429 023c bee4 3f3b
00000120: eb04 a4bd 8a89 813d 4731 3ebe da0c 053e
00000130: 817c 2abd 383b 4c3c 8b43 923d c840 e63d
00000140: 0364 a53d fdd2 1f3e 3e08 08bd 0595 b93b
00000150: 54ff 97be 55d2 2b3e 78b5 d83e 73c3 c3bd
00000160: 635c 963c 722e 233e dcd8 cfbe e825 cf3d
00000170: 4e78 07bf e4e6 913e 81ee f8bd 60be bbbd
00000180: f7a0 44bb 46ee 45bc c58a 50bd b44b 903d
00000190: 5843 2dbc 9d17 2ebc ada2 b93e 72db bdbe
000001a0: db99 90bd bdd4 6cbd 90f0 e5bd 4576 e63d
000001b0: b60b 19bf 7225 7fbe 94cc 87be 17ab bc3c
000001c0: cc1a 52bb 9e75 953d c5e7 2a3c 9e90 9f3e
000001d0: 73c7 0d3f 5d40 1c3f e855 96bd 9491 573c
000001e0: 9fb3 6c3a 76c8 30bb 24f5 2d3c d1be fa39
000001f0: fe6c e93a 598b 7ebb 663d a3bc b562 11be
00000200: f2f0 e5bb 770f 44bd 4398 99bc e2dc 3c3c
00000210: 7347 273f 595b d5bd eb88 b8be 215c 5c3f
00000220: be1d 02be 161e b83c a16c d4be c53e f13d
00000230: 8810 36bd 86ed 53bd aa77 e53d 0af0 2c3e
00000240: be9c cbba 51d9 66bc b051 3bbc 524a 033d
00000250: 7160 fabb 8463 9fbb aa7c febd 6f95 d2bc
00000260: e06c 883d 8e4f 75bc 769b 913b b8b3 21ba
00000270: 3442 1d3d 6853 fa3c 1555 94bd ac05 063e
00000280: 886a 7bbc a11b 44bc 6ba0 233b fe5b 3abd
00000290: 6d80 b0bd 752a 02be a9fb 8a3b a7dd 8a3c
000002a0: 0be4 8ab9 2b8d 193b f9df 473c 3006 5cbc
000002b0: 47ab 9d3a 3cc3 483b f57a 17bc 47a4 9dbc
000002c0: 0f5b 53bc 9c93 bb3c 877f 99ba 6a00 1bbc
000002d0: cf51 95bc 6dd5 85be c1d3 143e cf54 bcbc
000002e0: 6dfa 9abc ddf3 23bc 3f2c a9bc b598 20be
000002f0: 567a 1fbd 6083 fcbc ac7d c63b 700f 633b
00000300: 6920 7fbd 8cd8 c7be d3ba 1cbd ebae 503a
00000310: ece8 3d3d 61ef 0bbc 7853 aa3a 14ce 113b
00000320: 5562 4aba f080 28bc c750 53b8 5828 863a
00000330: 68d9 7e3b 56d4 d1bc 0b78 e3bb edef 3bbc
00000340: adb6 b4ba 4e9f 04bb a652 cc3c 2a48 0ebc
00000350: 710e 563d 3405 083e d5e7 5abc 0828 2cbc
00000360: f0b5 8e3a 0b71 17bd 4886 77bc a57e 94bc
00000370: 0852 04bc 13b9 993a 7b9c 84be 8948 09bf
00000380: 18b6 80be 0775 5b3e 37b8 25bd c71a c83d
00000390: ab22 193e 2e86 8c3d d735 f43d e6cd 7cbd
000003a0: 115b d939 07fb cfba b460 c3bd c3e4 123f
000003b0: ed28 c6be e359 e23e b196 653d 0fd0 ce3d
000003c0: c0b9 533e 347e 89be 134c 1f3f 7e58 fb3e
000003d0: 22c3 55be 04c2 83be 023c 12be d0d3 babe
000003e0: 9009 003b e9a0 943d 173d 70bd cd84 9f3b
000003f0: 0861 f8bc 67d0 63be 1315 bd3a 103a bcbd

fc.0.bias f4 [200]
-0.09155905 -0.05611666 -0.05822558 -0.13660562 -0.6360944 -0.3581685 -0.03302458 -0.37088215
-0.040479224 -0.13859488 -0.10110979 -0.1467457 -0.5044401 -0.5645671 -0.34162402 -0.15130787
-0.14407028 -0.027853046 -0.27232116 -0.5955705 -0.04655937 -0.20444773 -0.2753595 -0.17969017
-0.09596717 -0.18140703 -0.22846319 -0.27646568 -0.044570833 -0.064550936 -0.31027773 -0.19927745
-0.40466 -0.022401368 -0.04647477 -0.20319544 -0.077023074 0.0136411125 -0.3442055 -0.19745302
-0.20738624 -0.5927235 -0.44681862 -0.45233706 -0.11391052 -0.6443005 -0.20708084 -0.36669618
-0.02517518 -0.021882888 -0.23050617 -0.05998308 -0.112395994 -0.32147107 -0.04604408 -0.36003777
-0.05617729 -0.25232995 -0.041415088 -0.31780297 -0.044553418 -0.13991559 -0.5737469 -0.020600388
-0.14675346 -0.1337182 -0.15028493 -0.45261016 -0.056775134 -0.26396757 -0.15409131 -0.18375833
-0.13814181 -0.062358294 -0.11167948 -0.022407912 -0.45564592 -0.4445366 -0.39466935 -0.05756841
-0.22785181 -0.72991383 -0.18205406 -0.17032816 -0.034637343 -0.08719541 -0.12969674 -0.046788808
-0.22687203 -0.05009214 -0.3561669 -0.0037601802 -0.38063136 -0.08400128 -0.32902327 -0.2906104
-0.06431784 -0.05938514 -0.10631803 -0.5299226 -0.07733821 -0.09735073 -0.074356 -0.5884975
-0.12122062 -0.028554797 -0.15785736 -0.028267166 -0.08128724 0.042434506 -0.027363643 -0.388883
-0.26820272 -0.2232617 -0.41572255 -0.047158387 -0.13186611 -0.30498424 -0.24252596 -0.5323997
-0.3748371 -0.11786263 -0.03371832 -0.2960046 -0.42622948 -0.38243446 -0.07218537 -0.09391853
-0.10935188 -0.13045898 -0.10852395 -0.7276299 -0.42557868 -0.09012109 -0.49037322 -0.15501778
-0.0686173 -0.03283621 -0.42630926 -0.1635372 -0.02115806 -0.12863524 -0.16266207 -0.065221265
-0.35530525 -0.033560336 -0.06951309 -0.048819557 -0.1777455 -0.60183454 -0.2667289 -0.48078084
-0.07112532 -0.41826364 -0.17366982 -0.35569468 -0.4960241 -0.082307465 -0.19652617 -0.30722296
-0.6403176 -0.023063542 -0.09495426 -0.5881302 -0.30771267 -0.37379178 -0.31551906 -0.3110922
-0.23338577 -0.023393877 -0.11452405 -0.124647625 -0.018959912 -0.57895476 -0.23374589 -0.2435629
-0.15375835 -0.4519756 -0.26940322 -0.3149357 -0.05430821 -0.43174368 -0.10517328 -0.113233335
-0.24570972 -0.16137122 -0.060890783 -0.3027257 -0.31254524 -0.18704475 -0.19386558 -0.21384932
-0.30221015 -0.32750154 -0.14840047 -0.494631 -0.2241901 -0.08665919 -0.025835654 -0.027104614
00000000: 5083 bbbd 95da 65bd f27d 6ebd 58e2 0bbe
00000010: 15d7 22bf dd61 b7be c844 07bd 44e4 bdbe
00000020: 8bcd 25bd d1eb 0dbe a612 cfbd 8144 16be
00000030: fd22 01bf 7887 10bf 58e9 aebe 73f0 1abe
00000040: 2987 13be 122c e4bc ae6d 8bbe 4f77 18bf
00000050: 0ab5 3ebd bf5a 51be ecfb 8cbe b300 38be
00000060: 708a c4bd c4c2 39be 41f2 69be e98c 8dbe
00000070: e88f 36bd 4833 84bd b9dc 9ebe 630f 4cbe
00000080: 982f cfbe 1383 b7bc 545c 3ebd 7712 50be
00000090: 46be 9dbd f97e 5f3c b43b b0be 2031 4abe
000000a0: 0f5d 54be babc 17bf 69c5 e4be b998 e7be
000000b0: eb49 e9bd e1f0 24bf 000d 54be 9abf bbbe
000000c0: 2e3c cebc be43 b3bc cf09 6cbe d1b0 75bd
000000d0: df2f e6bd db97 a4be b898 3cbd df56 b8be
000000e0: 281a 66bd 6431 81be dea2 29bd 12b7 a2be
000000f0: a57d 36bd 0846 0fbe 14e1 12bf 25c2 a8bc
00000100: 8a46 16be 6ced 08be 4be4 19be 85bc e7be
00000110: 0b8d 68bd c226 87be 1dca 1dbe 252b 3cbe
00000120: 0c75 0dbe 696b 7fbd 36b8 e4bd cc90 b7bc
00000130: 6c4a e9be 4d9a e3be 1a12 cabe dacc 6bbd
00000140: fc51 69be a2db 3abf 616c 3abe 816a 2ebe
00000150: e3df 0dbd 8293 b2bd 39cf 04be 9fa5 3fbd
00000160: 2451 68be 6a2d 4dbd 825b b6be 5b6d 76bb
00000170: 1de2 c2be dd08 acbd bd75 a8be e3ca 94be
00000180: 12b9 83bd d53d 73bd 44bd d9bd 02a9 07bf
00000190: 7f63 9ebd d25f c7bd f547 98bd c6a7 16bf
000001a0: 8442 f8bd c0eb e9bc 5ca5 21be 8b90 e7bc
000001b0: ed79 a6bd cecf 2d3d b829 e0bc ac1b c7be
000001c0: de51 89be b79e 64be 96d9 d4be 2729 41bd
000001d0: e907 07be e526 9cbe ba58 78be 594b 08bf
000001e0: a6ea bfbe f661 f1bd 391c 0abd ea8d 97be
000001f0: c03a dabe 73ce c3be ecd5 93bd 5c58 c0bd
00000200: e1f3 dfbd 0a97 05be ce41 debd f445 3abf
00000210: 73e5 d9be 6891 b8bd 3312 fbbe fbbc 1ebe
00000220: 3a87 8cbd 437f 06bd 3545 dabe 4c76 27be
00000230: ab53 adbc f5b8 03be e390 26be ba92 85bd
00000240: 92ea b5be 9076 09bd e15c 8ebd 04f7 47bd
00000250: eb02 36be d411 1abf b190 88be e828 f6be
00000260: 27aa 91bd a726 d6be 80d6 31be 9d1d b6be
00000270: dff6 fdbe d190 a8bd 283e 49be 544c 9dbe
00000280: dbeb 23bf c1ef bcbc 6177 c2bd b38f 16bf
00000290: 848c 9dbe a361 bfbe b78b a1be 7a47 9fbe
000002a0: aefc 6ebe 84a4 bfbc 968b eabd 4147 ffbd
000002b0: d151 9bbc 6136 14bf 155b 6fbe 8e68 79be
000002c0: d472 1dbe 5969 e7be 38ef 89be 413f a1be
000002d0: 4972 5ebd 820d ddbe 1765 d7bd e1e6 e7bd
000002e0: 549b 7bbe 7f3e 25be 9d68 79bd ddfe 9abe
000002f0: ee05 a0be a988 3fbe b384 46be 51fb 5abe
00000300: 4abb 9abe 48ae a7be 4bf6 17be 4640 fdbe
00000310: 1792 65be 607a b1bd 4ba5 d3bc 7f0a debc

fc.1.weight f4 [200, 200]
-0.060487475 0.04867799 -0.047866188 0.5051358 0.05856319 -0.167485 0.027704794 -0.005476157
0.030420644 -0.18300907 -0.39139172 0.032208964 0.032498613 -0.0827527 0.1277181 -0.5179586
0.06710266 -0.96822804 -0.23574278 -0.10764411 -0.042714253 -0.0463782 -0.23733407 0.201452
-0.070031784 0.06091353 -0.0063839694 -0.019963965 -0.02648588 -0.049521614 -0.057343498 0.026884044
0.033556137 0.0024940956 -0.03207447 -0.02234457 -0.05319163 -0.1754387 -0.055623285 0.20219758
0.100500114 -0.16134681 -0.10087493 0.018338945 0.33416978 0.09288348 -0.040139172 -0.06900868
-0.045096062 -0.013917259 -0.034282666 -0.06830802 0.036384713 0.156719 -0.05836184 -0.17299074
0.15478863 -0.062435508 -0.051208735 -0.05046565 -0.046560474 -0.27004611 -0.082529835 -0.050386276
0.04687171 0.04983822 -0.0777234 0.0788487 -0.031019125 0.16973133 -0.044442322 0.42181644
-0.046378847 0.03309565 -0.045468405 -0.020018196 0.00581491 0.026983097 0.037886575 -0.06409908
-0.6560071 -0.15218557 -0.039886873 -0.079750404 0.02055682 0.017609207 -0.019454785 -0.023588035
0.25003737 -0.049231425 0.23446715 -0.028686272 0.2304367 -0.055147976 -0.40686065 -0.74396497
0.0011140361 -0.081907354 -0.069093965 0.106158674 -0.036401115 0.028652214 0.031022184 -0.014661996
-0.34390134 0.02524475 -0.26003116 -0.034693643 -0.11478408 -0.4447745 -0.038308255 -0.17624442
0.02170241 -0.17563005 0.15117136 -0.07224406 -0.023377253 -0.6734674 -0.06473284 -0.5301762
-0.23549941 -0.07006407 0.14961655 0.031053921 -0.05893141 0.40205264 -0.034571987 0.050060164
0.02803645 0.19502291 -0.049432896 0.062539116 -0.18260461 -0.0037382438 0.06568925 0.047966853
0.014279098 0.009865328 -0.23113966 0.059428282 -0.27683344 -0.3983686 -0.07052533 -0.05786132
-0.13393775 0.02155757 -0.06333267 -0.010821357 -0.22551069 -0.055932097 0.11054246 0.06853044
-0.056111973 -0.13423751 -0.6947399 -0.41912812 -0.20220459 -0.2455433 -0.006860416 -0.041450724
-0.07334795 -0.011514993 -0.01772635 -0.00072092476 0.015411374 -0.06121237 -0.085403085 -0.011186251
0.06882348 -0.055331677 -0.060966946 -0.03869581 -0.05283521 -0.07366235 -0.029344147 -0.35983926
0.0073252995 -0.07776821 -0.05994872 0.019989127 0.045947663 -0.02644375 -0.07083912 -0.45282686
-0.35959056 -0.07042695 -0.07853575 0.64598715 -0.26825136 -0.50589836 0.052494053 -0.09423506
-0.017966144 0.023755865 -0.037622795 -0.0030930382 -0.00097534736 -0.023895765 -0.056806322 0.008459303
-0.07268057 -0.07027835 -0.12823737 0.15205824 8.272486e-05 0.2638038 -0.05559289 0.021616716
0.008475209 -0.022103032 0.23184991 0.0079359105 0.04332656 -0.008658832 0.09103954 -0.039905153
0.04790965 -0.053839915 -0.12226515 0.06377231 -0.0031479285 -0.036698803 0.529306 -0.19697636
0.014136366 -0.052636355 0.037830383 0.032742232 0.050124817 -0.01771397 -0.021481488 0.030377977
0.035901368 -0.016207594 0.025761308 0.14974962 0.032557055 -0.050473563 -0.015051408 -1.003639
0.64975154 -0.0108898375 0.112613074 0.059969548 -0.02172873 -0.08887352 0.02241399 -0.1538932
-0.03342198 -0.051001683 -0.08066013 0.16506305 -0.05369088 -0.27157754 0.053579357 -0.50337416
00000000: b7c1 77bd 9262 473d 560f 44bd 9450 013f
00000010: f5df 6f3d 3081 2bbe 2af5 e23c 5671 b3bb
00000020: b734 f93c bb66 3bbe 7f64 c8be 8ced 033d
00000030: 441d 053d 3f7a a9bd 89c8 023e ef98 04bf
00000040: 1f6d 893d cbdd 77bf 8e66 71be 8474 dcbd
00000050: 24f5 2ebd 11f7 3dbd b407 73be 6f49 4e3e
00000060: d36c 8fbd 7780 793d 9e30 d1bb 788b a3bc
00000070: ebf8 d8bc 2dd7 4abd 04e1 6abd ed3b dc3c
00000080: 2972 093d fb73 233b 8560 03bd f60b b7bc
00000090: 77df 59bd 34a6 33be 3ed5 63bd e20c 4f3e
000000a0: 01d3 cd3d 1938 25be 8497 cebd 8e3b 963c
000000b0: 4d18 ab3e b239 be3d f968 24bd 6c54 8dbd
000000c0: a6b6 38bd 3705 64bc fb6b 0cbd 13e5 8bbd
000000d0: 2308 153d f27a 203e d30c 6fbd 7c24 31be
000000e0: e980 1e3e 60bc 7fbd 40c0 51bd 12b5 4ebd
000000f0: 32b6 3ebd 7c43 8abe 6705 a9bd d761 4ebd
00000100: 8dfc 3f3d 2923 4c3d 722d 9fbd 6d7b a13d
00000110: d21b febc 0dce 2d3e 2709 36bd 53f8 d73e
00000120: bff7 3dbd 4e8f 073d 143d 3abd 33fd a3bc
00000130: 008b be3b a80b dd3c f42e 1b3d 6146 83bd
00000140: 15f0 27bf 89d6 1bbe 6b60 23bd 2e54 a3bd
00000150: c766 a83c 2f41 903c a45f 9fbc b23b c1bc
00000160: e604 803e e4a6 49bd 2818 703e 79ff eabc
00000170: 99f7 6b3e d8e2 61bd 0a50 d0be 7d74 3ebf
00000180: d904 923a 0bbf a7bd 2381 8dbd b869 d93d
00000190: 5619 15bd 0cb8 ea3c 3c22 fe3c de38 70bc
000001a0: d613 b0be 14ce ce3c ce22 85be ec1a 0ebd
000001b0: ea13 ebbd 7cb9 e3be 1ee9 1cbd 6b79 34be
000001c0: 41c9 b13c 5dd8 33be aacc 1a3e b2f4 93bd
000001d0: a781 bfbc 5c68 2cbf a792 84bd a1b9 07bf
000001e0: c226 71be c07d 8fbd 1535 193e cb64 fe3c
000001f0: 1062 71bd d8d9 cd3e 5b9b 0dbd e30b 4d3d
00000200: b2ac e53c 16b4 473e 267a 4abd 8214 803d
00000210: b4fc 3abe 53fd 74bb 1688 863d e478 443d
00000220: e1f2 693c 2fa2 213c e0af 6cbe 126b 733d
00000230: 1dbd 8dbe f8f6 cbbe 966f 90bd feff 6cbd
00000240: fa26 09be 8099 b03c 8fb4 81bd 104c 31bc
00000250: 46ec 66be 0e19 65bd 1664 e23d b059 8c3d
00000260: abd5 65bd 8f75 09be 79da 31bf f697 d6be
00000270: b80e 4fbe b46f 7bbe 57cd e0bb 3cc8 29bd
00000280: 7337 96bd 62a9 3cbc da36 91bc 71fc 3cba
00000290: fd7f 7c3c d2b9 7abd d0e7 aebd 8a46 37bc
000002a0: 53f3 8c3d 78a3 62bd 7ab8 79bd 7f7f 1ebd
000002b0: bc69 58bd 49dc 96bd 2363 f0bc da3c b8be
000002c0: 1109 f03b f044 9fbd ca8c 75bd 3dc0 a33c
000002d0: 9e33 3c3d 90a0 d8bc 1a14 91bd ecd8 e7be
000002e0: 411c b8be 013c 90bd 5ad7 a0bd 6a5f 253f
000002f0: 3e58 89be 8e82 01bf 0104 573d 50fe c0bd
00000300: bc2d 93bc a99b c23c 5c1a 1abd 92b4 4abb
00000310: 74ae 7fba 0dc1 c3bc bfad 68bd e398 0a3c
00000320: 8dd9 94bd 18ee 8fbd a850 03be 28b5 1b3e
00000330: 927c ad38 4b11 873e 5fb5 63bd 8a15 b13c
00000340: 9adb 0a3c 6b11 b5bc 106a 6d3e 9f05 023c
00000350: 3177 313d c6dd 0dbc f072 ba3d 9673 23bd
00000360: e93c 443d 3e87 5cbd 2766 fabd 0f9b 823d
00000370: 7a4d 4ebb 7c51 16bd 9980 073f 2cb4 49be
00000380: 379c 673c 3899 57bd 08f4 1a3d b81c 063d
00000390: ae4f 4d3d e31c 91bc f2f9 afbc 3cdb f83c
000003a0: 500d 133d cac5 84bc 6109 d33c f757 193e
000003b0: 8c5a 053d 5ebd 4ebd 2e9a 76bc 3e77 80bf
000003c0: 1e56 263f 4a6b 32bc afa1 e63d a1a2 753d
000003d0: 7300 b2bc 5203 b6bd 8b9d b73c 2e96 1dbe
000003e0: 7ce5 08bd 24e7 50bd 2331 a5bd 4a06 293e
000003f0: f8ea 5bbd 360c 8bbe 0776 5b3d 21dd 00bf

fc.1.bias f4 [200]
0.10288873 -0.04121006 -0.09589301 0.0021451472 -0.10927837 0.16970123 -0.08598391 0.12670828
-0.13414171 0.040167734 0.1303279 -0.15227968 0.053356025 -0.14736076 -0.031650156 0.021899408
0.008957071 0.0140090985 -0.29476225 0.01251312 0.006535399 0.010899449 -0.09262158 0.15497996
-0.1344516 -0.00011230836 -0.1916957 0.034864906 -0.08734628 -0.057529632 -0.042594135 -0.043017313
-0.2321155 0.1596514 -0.10658239 0.0076147662 -0.14519887 -0.012695769 0.029945042 -0.013063408
0.02074174 0.05538556 0.17451687 -0.07017216 -0.010275121 -0.046305105 0.18467146 0.16392958
0.031802945 -0.06245562 -0.088359855 -0.13968657 0.21215324 0.039043218 -0.17938368 -0.19780643
0.20796274 3.657989e-06 0.16980387 0.09234975 -0.020010121 0.16965033 -0.10955267 0.14759716
0.118357755 0.084863 -0.11661193 -0.055748153 0.17682652 -0.018698271 -0.025553878 0.12034495
-0.030490272 -0.1581552 -0.0832445 -0.021248104 0.10873775 0.040145606 0.0039898977 0.037887454
0.1426048 0.08162132 -0.07332394 -0.18359919 -0.002677134 0.018784568 0.07610364 0.23960774
-0.03458128 0.07285863 -0.04474765 0.0015544626 0.18001801 -0.10336174 -0.05827925 -0.12506789
-0.050928574 -0.067586586 -0.017752053 0.06896825 0.024221653 -0.06758275 -0.025226422 -0.073571876
-0.05005329 0.14791755 -0.033531345 -0.0042206156 -0.16698737 0.19093361 -0.030307999 0.019538382
-0.09332394 0.06720566 0.061211195 -0.087690406 -0.060678493 0.007780181 -0.11470686 0.14548375
0.08703582 0.011079385 -0.008921003 0.064339474 -0.20568258 -0.004847389 -0.1262499 0.019551657
0.030905602 -0.020462535 0.08313979 -0.005734511 0.0883426 0.08024126 0.16932705 0.098491296
-0.069388635 -0.029508056 0.12247922 0.15206319 -0.13665475 0.12938553 -0.16244854 -0.06306306
0.10492603 0.27257678 0.12585995 0.14852174 0.113865696 0.11670163 0.07103919 -0.07153047
-0.0059682513 0.036873948 -0.0596025 0.014430693 -0.118292116 0.20873299 -0.014233849 -0.07721031
0.11701786 0.08273107 -0.3443363 -0.08906288 -0.05068823 0.14498033 -0.23788925 -0.13893582
-0.11183359 0.2625517 -0.028281873 -0.05354803 -0.08888833 -0.15392475 -0.13144492 -0.14187188
-0.107588015 -0.21250674 -0.14772017 0.080038086 0.055453595 -0.070095755 0.21071547 -0.0031505367
0.024768807 -0.081548296 0.0718825 -0.11274149 0.028265502 -0.1141279 0.10263198 0.031482972
-0.15168814 -0.085695334 -0.29180124 0.122521274 -0.08215802 0.05025934 -0.050012015 0.15068802
00000000: 54b7 d23d e1cb 28bd 8e63 c4bd 9995 0c3b
00000010: 57cd dfbd 29c6 2d3e 5518 b0bd d1bf 013e
00000020: 725c 09be ec86 243d ad74 053e 34ef 1bbe
00000030: d98b 5a3d bde5 16be 98a3 01bd 6366 b33c
00000040: aec0 123c 6b86 653c 14eb 96be d403 4d3c
00000050: e626 d63b 9a93 323c 62b0 bdbd 11b3 1e3e
00000060: aead 09be 1787 ebb8 e14b 44be 81ce 0e3d
00000070: 9be2 b2bd 31a4 6bbd 3077 2ebd ec32 30bd
00000080: b0af 6dbe a87b 233e de47 dabd 4a85 f93b
00000090: 03af 14be ea01 50bc 4e4f f53c e807 56bc
000000a0: 95ea a93c f8db 623d 8db4 323e 6cb6 8fbd
000000b0: fb58 28bc 6caa 3dbd 841a 3d3e 28dd 273e
000000c0: ce43 023d 77d1 7fbd 03f6 b4bd ff09 0fbe
000000d0: b33e 593e c8eb 1f3d 5bb0 37be c58d 4abe
000000e0: 2ff4 543e c67b 7536 11e1 2d3e de21 bd3d
000000f0: 44ec a3bc d1b8 2d3e 265d e0bd b623 173e
00000100: 8d65 f23d a7cc ad3d 3cd2 eebd 2d58 64bd
00000110: 0312 353e 1e2d 99bc 5e56 d1bc 6a77 f63d
00000120: bcc6 f9bc 70f3 21be 187c aabd 8110 aebc
00000130: e6b1 de3d b86f 243d b0bd 823b e02f 1b3d
00000140: fe06 123e 1429 a73d dd2a 96bd 6d01 3cbe
00000150: db72 2fbb 18e2 993c 3adc 9b3d bb5b 753e
00000160: 1aa5 0dbd e836 953d 5049 37bd 1cbf cb3a
00000170: a456 383e 52af d3bd 39b6 6ebd cc11 00be
00000180: 7b9a 50bd d66a 8abd c16c 91bc 3a3f 8d3d
00000190: 7d6c c63c d368 8abd a4a7 cebc daac 96bd
000001a0: ae04 4dbd b377 173e 2a58 09bd 174d 8abb
000001b0: bdfe 2abe 1a84 433e 7b48 f8bc f50e a03c
000001c0: 9f20 bfbd 1fa3 893d 97b8 7a3d 0797 b3bd
000001d0: 038a 78bd e3f0 fe3b 6eeb eabd b1f9 143e
000001e0: d63f b23d 4f86 353c 6629 12bc 6ac4 833d
000001f0: 749e 52be d9d6 9ebb a747 01be cc2a a03c
00000200: bf2d fd3c 0ca1 a7bc 3245 aa3d 91e8 bbbb
00000210: f7ec b43d 8855 a43d 1264 2d3e ceb5 c93d
00000220: a11b 8ebd e1ba f1bc 63d6 fa3d 74b6 1b3e
00000230: 39ef 0bbe a47d 043e e958 26be 3527 81bd
00000240: 75e3 d63d 2f8f 8b3e 6ee1 003e 1516 183e
00000250: 6b32 e93d 4401 ef3d ff7c 913d 917e 92bd
00000260: 5291 c3bb 2309 173d c021 74bd b76e 6c3c
00000270: 2343 f2bd 1abe 553e 1735 69bc 7020 9ebd
00000280: 0fa7 ef3d e86e a93d d94c b0be 9966 b6bd
00000290: 769e 4fbd b975 143e 3d99 73be 3145 0ebe
000002a0: 0209 e5bd 2d6d 863e 63af e7bc 2e55 5bbd
000002b0: 160b b6bd 739e 1dbe 7f99 06be dd46 11be
000002c0: 1b57 dcbd 5e9b 59be f543 17be 02eb a33d
000002d0: 4f23 633d 5d8e 8fbd ccc5 573e 3c79 4ebb
000002e0: f4e7 ca3c cb02 a7bd 2237 933d 03e5 e6bd
000002f0: 0e8d e73c e3bb e9bd b730 d23d 4af4 003d
00000300: 2354 1bbe 0981 afbd f966 95be 6fec fa3d
00000310: 7742 a8bd bddc 4d3d 66d9 4cbd f64d 1a3e

fc.2.weight f4 [6, 200]
0.20853867 -0.00061742065 0.028132318 0.19739911 -0.036574975 0.14221998 0.13666189 0.1006044
-0.07625537 0.07255998 0.072043605 -0.05808028 -0.37258956 0.07371833 -0.25691432 -0.10227908
-0.21469186 0.038310744 -0.26114613 -0.008790861 -0.09819349 0.29756248 0.03380481 0.00091547705
-0.14878291 -0.102625914 -0.008959317 -0.10278776 0.07389551 0.026627017 -0.044402488 -0.29430115
-0.093923844 0.36594704 -0.031976577 0.35549182 -0.008965365 0.06753732 -0.04592629 0.035313394
0.09147507 -0.2890596 0.013514266 0.04082477 -0.3098537 0.079652056 -0.14832702 -0.009935995
0.064520426 -0.33243704 0.048334084 -0.081969716 0.24341272 0.20213899 0.003040549 -0.27283207
0.0850487 -0.08354688 -0.30965275 -0.009780317 0.23388672 -0.06404054 0.089585476 0.20109518
0.015544123 0.031965196 -0.044722404 -0.050240267 0.10071284 -0.13287643 0.037472595 0.16779216
-0.099156 -0.034896784 0.28977874 -0.3701145 -0.055704106 0.4302192 -0.1290502 -0.027862236
0.15882042 0.20486642 -0.14930958 0.024798427 0.20561373 0.071989946 -0.3962107 0.12024149
-0.14937435 -0.11646353 0.007688474 -0.0864422 -0.042427443 0.02634878 -0.0682994 0.073556975
0.0015719252 0.117754065 -0.32193017 -0.1678206 0.13563783 -0.034694824 -0.16107304 -0.07350509
-0.08093344 0.44165406 0.026054602 0.07788601 -0.36636704 -0.10452009 0.2642012 -0.12815122
0.089194044 -0.21693797 -0.19749774 0.03980603 0.122582905 -0.114463694 -0.08380657 0.054342993
-0.1739372 0.14662746 -0.19505714 -0.32560512 -0.2883142 -0.17443949 -0.017136984 0.0010271217
-0.19339593 0.052503902 -0.23476458 0.0745504 0.10557093 0.07218111 -0.09496285 -0.21986611
-0.024537869 0.06840032 -0.031692576 0.10522077 0.027088115 -0.11852302 -0.05557266 -0.078704126
0.14763 0.11605549 -0.05422277 0.054985486 0.2480524 0.052020583 -0.099832214 -0.026994666
-0.279587 -0.3488498 -0.16131406 -0.44781476 0.07701229 -0.057932183 0.11555135 0.0124205025
0.15861814 0.02042019 -0.32700476 -0.028271357 -0.11288301 0.078603655 -0.26325822 -0.10146271
0.035731014 0.048101116 0.048365306 -0.0854427 0.049964003 -0.22187802 -0.11556947 0.005641654
0.19524097 -0.15966403 0.14650996 -0.0017180961 0.28354508 -0.0146387 0.12408855 0.10303317
-0.1981711 0.06649575 0.06863472 -0.071545005 0.010303949 0.08984546 0.13116615 0.19097035
0.08664723 0.16310664 -0.04947426 0.2148607 -0.031007735 -0.04099499 -0.1548353 0.058440004
0.96468675 0.1756704 -0.12970872 -0.06439006 -0.019894347 0.0731512 -0.2561951 0.42726022
0.13354753 -0.04244921 0.017571205 -0.041889034 0.110507 0.044547345 -0.45404053 -0.44352323
0.24021259 0.16918482 0.12994617 0.22354792 0.15395053 0.05189453 0.033947617 -0.16708218
0.119378924 0.051002398 -0.06621724 0.066013575 0.016720008 -0.11176395 0.033104334 0.10242939
-0.077991255 -0.40400058 -0.09587408 -0.31167328 -0.0374653 0.04509861 -0.16000251 -0.061640613
0.15467903 -0.08985718 -0.0052976315 0.023240248 0.16491646 0.10764132 -0.035864726 -0.030307604
0.02065697 -0.1609877 0.07779739 -0.09119631 0.033247717 -0.10964584 -0.04921412 -0.02945248
00000000: 298b 553e 66da 21ba bf75 e63c fe22 4a3e
00000010: a4cf 15bd 1da2 113e 18f1 0b3e ae09 ce3d
00000020: c72b 9cbd 549a 943d 998b 933d 96e5 6dbd
00000030: 0fc4 bebe a3f9 963d 468a 83be b277 d1bd
00000040: 2fd8 5bbe baeb 1c3d f2b4 85be 8b07 10bc
00000050: ab19 c9bd 1c5a 983e ea76 0a3d a0fc 6f3a
00000060: 8c5a 18be 892d d2bd 19ca 12bc 6482 d2bd
00000070: 8756 973d e720 da3c 62df 35bd a4ae 96be
00000080: 255b c0bd 695d bb3e dff9 02bd 0603 b63e
00000090: 77e3 12bc 0251 8a3d 351d 3cbd c7a4 103d
000000a0: 4857 bb3d 9fff 93be f16a 5d3c e037 273d
000000b0: 25a5 9ebe 9e20 a33d 0ae3 17be 95ca 22bc
000000c0: 4923 843d 3035 aabe f6f9 453d bddf a7bd
000000d0: 2f41 793e 86fd 4e3e f343 473b a5b0 8bbe
000000e0: 032e ae3d a01a abbd ce8a 9ebe 9f3d 20bc
000000f0: 0080 6f3e b027 83bd 9778 b73d e5eb 4d3e
00000100: c7ac 7e3c f0ed 023d d72e 37bd bdc8 4dbd
00000110: 8942 ce3d c210 08be dd7c 193d b5d1 2b3e
00000120: 4d12 cbbd eeef 0ebd e15d 943e a67f bdbe
00000130: fd29 64bd b145 dc3e bc25 04be 583f e4bc
00000140: d2a1 223e 81c8 513e 9ce4 18be 1226 cb3c
00000150: 688c 523e 776f 933d 21dc cabe 2c41 f63d
00000160: 97f5 18be 6e84 eebd 98ef fb3b 9c08 b1bd
00000170: 66c8 2dbd 66d9 d73c 8ee0 8bbd 0aa5 963d
00000180: 0f09 ce3a 0b29 f13d 08d4 a4be 2ad9 2bbe
00000190: a5e4 0a3e 291c 0ebd 55f0 24be d689 96bd
000001a0: 6ec0 a5bd 7b20 e23e 7670 d53c b382 9f3d
000001b0: 7694 bbbe a10e d6bd 6145 873e 133a 03be
000001c0: 5eab b63d fd24 5ebe d93c 4abe a60b 233d
000001d0: bf0c fb3d f16b eabd c7a2 abbd c296 5e3d
000001e0: 981c 32be 8225 163e 0fbd 47be b7b5 a6be
000001f0: eb9d 93be 44a0 32be dc62 8cbc 7ca0 863a
00000200: 9509 46be 550e 573d 2066 70be e1ad 983d
00000210: 9235 d83d b1d3 933d e27b c2bd 9524 61be
00000220: a403 c9bc 7815 8c3d 13d0 01bd fd7d d73d
00000230: e5e7 dd3c 32bc f2bd 28a0 63bd a12f a1bd
00000240: 522c 173e 80ae ed3d b218 5ebd 7638 613d
00000250: 7301 7e3e 8913 553d d574 ccbd eb23 ddbc
00000260: 0726 8fbe 719c b2be 832f 25be fa47 e5be
00000270: 9fb8 9d3d 4c4a 6dbd 30a6 ec3d 5d7f 4b3c
00000280: cb6c 223e 3e48 a73c 2b6d a7be 5599 e7bc
00000290: 352f e7bd f4fa a03d c8c9 86be aecb cfbd
000002a0: af5a 123d ad05 453d b31a 463d 95fc aebd
000002b0: 0ea7 4c3d fe33 63be b0af ecbd a0dd b83b
000002c0: 40ed 473e f87e 23be b506 163e bd31 e1ba
000002d0: d22c 913e 28d7 6fbc 2322 fe3d 0e03 d33d
000002e0: 5ded 4abe ec2e 883d 5c90 8c3d 3086 92bd
000002f0: e5d1 283c e600 b83d 6b50 063e bb8d 433e
00000300: 1a74 b13d 6d05 273e 86a5 4abd 7104 5c3e
00000310: ef03 febc 5dea 27bd 258d 1ebe c95e 6f3d
00000320: b6f5 763f f1e2 333e 5dd2 04be f0de 83bd
00000330: 78f9 a2bc 4cd0 953d 012c 83be dac1 da3e
00000340: afc0 083e 39df 2dbd 7df1 8f3c d693 2bbd
00000350: 7e51 e23d 4777 363d 0078 e8be 7a15 e3be
00000360: 4afa 753e c93e 2d3e 9c10 053e bfe9 643e
00000370: 35a5 1d3e 5c8f 543d a80c 0b3d 9717 2bbe
00000380: f07c f43d e4e7 503d e89c 87bd 2032 873d
00000390: 66f8 883c 7fe4 e4bd 6998 073d 80c6 d13d
000003a0: e1b9 9fbd 2ad9 cebe a159 c4bd a493 9fbe
000003b0: 3775 19bd 52b9 383d b3d7 23be de7a 7cbd
000003c0: 2e64 1e3e 0b07 b8bd c197 adbb 5562 be3c
000003d0: dcdf 283e 0d73 dc3d e4e6 12bd a747 f8bc
000003e0: ce38 a93c f6d9 24be 3d54 9f3d 22c5 babd
000003f0: c22e 083d 008e e0bd bf94 49bd 5446 f1bc

fc.2.bias f4 [6]
0.03912129 -0.11087619 0.07867185 -0.14423753 -0.02426004 -0.049173836
00000000: a53d 203d 0e13 e3bd b51e a13d 01b3 13be
00000010: febc c6bc 816a 49bd
