result/test/g.pt (torch, 166807 bytes, 6 tensors)

fc.0.weight f4 [200, 2]
00000000: 9dfb 773d 7e0c 983e 5338 c2be c891 f23e
00000010: 1b0e cdbe 050b 903d 6342 74be aa64 38bf
00000020: 2759 ad3e eca6 a93e a621 413f 3023 97be
00000030: 4456 ca3e 583a f9be 31d9 ea3e 9e43 113f
00000040: 22d5 283f a6e7 1e3e 744e 49be 110d 72bf
00000050: dfea 00bf 3f2d 9bbe 70d5 633f eb0c fdbd
00000060: 7a8f d6be ae04 58bf 9051 0f3f 4d4f 91be
00000070: b584 963e 89f0 3b3f 36d4 2ebe c653 dabe
00000080: d60d afbe 4b8c c53e 37d7 fc3e 7f4e 8fbe
00000090: 7620 1e3f 90ea b4be 5382 093e 7a09 e33e
000000a0: 8df9 173f 6c0d 513f 53fb 4b3f 3d34 1b3f
000000b0: b44c 0b3f b29f 5ebf 4e40 673f b829 c13e
000000c0: b089 dcbe c21f a3be 1719 483e a34f 213f
000000d0: d622 913d 2ac4 443c 124e c1be c552 65be
000000e0: 2ebc 0fbf b55f 103f 8a62 14bf a01f 493c
000000f0: 1010 c03e 774a 04bf cd02 1cbf b2f0 753e
00000100: e186 b3bd de03 0f3f 6edf 683f 4af2 37be
00000110: e15e 4c3e 3620 8a3c 5182 0fbf 9867 12bf
00000120: 099e 81be e548 e3bd b787 d5be d77d 543e
00000130: 7bdf 76be 9b9a c1be b38c a73e cdca a53e
00000140: 7b09 a13e 9606 8bbe 32ce 0e3f 97a4 d03e
00000150: 95db 5e3e 6daf d5be a188 0fbf 0510 1abe
00000160: 3bb3 1dbf 3611 a23e 47e7 f4be 9a48 233f
00000170: 1316 20be 3e44 23be 5bfb a9be b2f4 34bf
00000180: 5ab2 46bf edf4 113d 1101 e13e d37e 053f
00000190: a706 133f 4167 3d3f 2b6a 783f 826c 373f
000001a0: 32d5 f83e 9f1d 083a 708e 5e3d 5eeb 3a3e
000001b0: 4a96 483f d30b 2ebf ba4b 00bf 652a 7abd
000001c0: 53d8 4c3f 16a2 a43e c41b 14bf ae1b 5dbf
000001d0: 4d05 5fbf 088d f63e 99e7 ad3e 39c2 a2be
000001e0: 0e4d b43e 2204 4d3f 33ed cbbe 1e64 1a3e
000001f0: 206d 41bd ef32 ec3d 5234 23bf 7618 4bbe
00000200: ff23 183f 38fd 0c3e 3d91 443e 467b 40be
00000210: 3b1e 9f3e dc57 483f cf47 86be 63de bd3e
00000220: b185 123f f078 42be 59ca 6a3e 06fe 68be
00000230: 0596 383e 7e5b 213e d845 79be 4ccc b53e
00000240: 6834 4a3f 0aca 233f 078f 213d 10e9 133f
00000250: 0bce 383f e820 e9be aa80 4dbf 8652 343f
00000260: 793f 213f 2580 bbbe f41f 033f d6c4 a1be
00000270: 064d 693e 3b4b e13e 3f24 9f3d 2267 2e3f
00000280: 45bf 7d3e a6c4 01be 94c9 e4be 4438 10bf
00000290: a1b7 133d e385 013f 6767 b43d 8c15 b4be
000002a0: 6355 2bbf 3ab7 f73d 4218 423e 82a8 a13e
000002b0: 470f 2cbe 6ec6 7abe 6b3f ea3e 6ebb 0fbe
000002c0: 132e 583f fe4a 67be 1275 e53e 2d9a 5bbf
000002d0: 76ac fb3e 27b4 bf3d 1398 e23d 32af 0cbf
000002e0: ce64 0b3e 3534 bb3d 7d99 0fbf d670 81bd
000002f0: 29d5 7abf 15e9 0d3f a45a 783e 4073 773e
00000300: fa55 16bf d880 a73e 51a5 013f 887f 053d
00000310: 6005 ef3e 49d0 ab3e 6f98 cdbd cdec 9e3e
00000320: ea2a fbbd 2119 503f 7214 073f a74e cabe
00000330: 4b93 273f dcc5 bdbd ff92 a9be aaae 443e
00000340: 6bb8 8ebe 6b10 ee3e 36b3 4c3f 7707 c7be
00000350: 9c14 fbbe fa45 c1be e56d 223e 067a 7dbe
00000360: f5be c9be acb9 283f 87f8 17bf 9f67 4e3e
00000370: 8645 a8be f1a5 27bd 86e1 2e3f 2c72 773e
00000380: 6d97 0cbe 30af c13e 8c07 5f3f dc17 d2be
00000390: f928 f53e dd59 d1be 3784 88be b3a1 993c
000003a0: 10a4 053f 9172 dabe 530a 7a3e 41e4 b33e
000003b0: 2a5c 2c3f 1be1 14bf 53e8 443f 16a9 07be
000003c0: 9d26 093f 3ee9 bfbe d3f9 453f 7dc7 ecbe
000003d0: d441 d03e 6f07 813d 823d 24bf 99b8 4b3e
000003e0: 99a1 8d3e 5b76 d9be 21eb 2f3f e055 643f
000003f0: 1c58 c5be d7ea a03e 0d92 1abf a47e 8fbe
0.06054269 0.2969703 -0.37933597 0.47376847 -0.40049824 0.07033352 -0.2385345 -0.720286
0.3385708 0.33135164 0.7544197 -0.29519033 0.3951894 -0.48677325 0.4586883 0.567438
0.65950215 0.15518054 -0.19658834 -0.9455119 -0.50358385 -0.30307958 0.88997555 -0.123559795
-0.4190634 -0.8438214 0.5598383 -0.28380814 0.29398122 0.734139 -0.1707314 -0.4264204
-0.34190243 0.38583598 0.49382946 -0.27989575 0.6176828 -0.35335207 0.13428621 0.44343168
0.5936516 0.81661105 0.79680365 0.60626584 0.54413915 -0.86962426 0.90332496 0.3772714
-0.43073797 -0.31860167 0.19540821 0.6301214 0.070867226 0.01200966 -0.37754875 -0.22394855
-0.56146514 0.5639604 -0.5796286 0.012275606 0.37512255 -0.51676124 -0.60941774 0.24017599
-0.087659605 0.55865276 0.90965927 -0.1796352 0.19958068 0.016861062 -0.5605822 -0.5718932
-0.25315884 -0.11097888 -0.41705105 0.20751129 -0.24108689 -0.37813267 0.32724532 0.32381287
0.31452546 -0.27153462 0.5578338 0.40750572 0.21763451 -0.41735402 -0.56067854 -0.15045173
-0.6160161 0.31653756 -0.478327 0.63782656 -0.1563342 -0.15944001 -0.33199582 -0.70685875
-0.7761589 0.03563397 0.43946126 0.52146643 0.57432026 0.7398568 0.97037 0.71649945
0.48600155 0.0005192402 0.054335058 0.18253848 0.7835432 -0.6798679 -0.5011555 -0.061075587
0.80017585 0.32154912 -0.57854867 -0.8637036 -0.87117463 0.48154473 0.33965757 -0.31788805
0.35215038 0.8008443 -0.39829406 0.15077254 -0.04722321 0.11533152 -0.6375171 -0.1983355
0.59429926 0.1376847 0.19196029 -0.18797025 0.31077752 0.7825906 -0.2622666 0.3708373
0.57235247 -0.18991446 0.22928752 -0.22753152 0.18025978 0.15757558 -0.2434305 0.3550743
0.78986216 0.6398016 0.039443042 0.577775 0.72189397 -0.45532918 -0.8027445 0.7043842
0.62987477 -0.36621204 0.5122063 -0.31595486 0.22783288 0.4400271 0.07770585 0.6812612
0.24779995 -0.12672672 -0.44685042 -0.56335855 0.036063794 0.5059492 0.08808785 -0.3517269
-0.66927165 0.120954946 0.18954566 0.31573874 -0.16802703 -0.24489757 0.4575151 -0.14036343
0.84445304 -0.22587201 0.4481588 -0.8578213 0.49155015 0.09360533 0.11064162 -0.54954827
0.13612673 0.09140817 -0.5609358 -0.0632035 -0.97981507 0.5543378 0.24253327 0.24165058
-0.5872494 0.32715487 0.5064288 0.032592326 0.46683788 0.33557346 -0.1003884 0.3104004
-0.122640446 0.81288344 0.5276557 -0.39513132 0.65459126 -0.09266254 -0.33119962 0.19207254
-0.27875075 0.464969 0.79960954 -0.38872883 -0.4903916 -0.377487 0.15862234 -0.2475358
-0.394035 0.6590831 -0.593636 0.20156716 -0.32865542 -0.04092974 0.6831287 0.24164647
-0.1372964 0.3782897 0.8712089 -0.41033828 0.47882822 -0.40888873 -0.26663372 0.018753862
0.52203465 -0.42665532 0.24418001 0.3513508 0.6732813 -0.58155984 0.76917 -0.13248095
0.53574544 -0.37482637 0.77334327 -0.46245947 0.40675223 0.06300246 -0.64156353 0.19894637
0.27662352 -0.4247311 0.68718153 0.89193535 -0.38543785 0.3142917 -0.60379106 -0.28026307

fc.0.bias f4 [200]
00000000: 0d64 9f3d e40d 063e d059 483e 5918 843e
00000010: 8e9b aabe fa11 803e 4a9f 02bf af6f 2c3e
00000020: 6ad2 4c3e 8159 f8bc 0b10 5cbe a019 2e3d
00000030: 42b6 ff3e 4bec d3be 3c08 3b3e df18 dfbe
00000040: 2041 b8be 345f 52be 8efd e9be 7ad6 d63d
00000050: 960d d0be 86d9 723c 3367 563d 3dea a93c
00000060: 5603 923c c979 333e c230 95be 25dc f03e
00000070: 1937 ffbe a53b 9fbe ce05 2ebf 7d0f 553d
00000080: 3846 033e 8da3 033e 417f e1bd e595 65be
00000090: 5275 fe3b 8bf6 a8be a5ee 29bf 1415 ecbe
000000a0: d717 f03d 74f6 24bf 75fa 31bf 9462 a53d
000000b0: 2b76 dabe 0e49 26bf 6104 56be 02bd d93e
000000c0: 75e8 a83e 989b f6be 1157 61bc 36a9 833d
000000d0: 6e6c 973d de6a 48bd df00 ac3e f7b0 15bf
000000e0: 2527 9d3d db17 3a3c 478e bf3d 69cf cbbe
000000f0: a501 f73e f2b0 fc3c 9540 8f3e dc7e e03e
00000100: 3ee1 38be a81a d03c 0afd b73c 36f6 e13d
00000110: 6fc4 483d 9105 933d f868 3cbe 2108 04bf
00000120: 2abe 483c cd38 0f3e a395 3f3e bf3e 61bd
00000130: 1e9b eebe a6a4 18bf 5ee7 e73e f796 143e
00000140: 4400 bfbe 2361 2bbb 1d44 d5be d493 a23c
00000150: b7d8 f03b e2b6 303e 0b66 823d 230d df3d
00000160: add1 c73d 76f8 a9bc 305d 08be 1d88 b23e
00000170: 3859 00bf af29 bcbe 3d94 da3d b1ba 65bd
00000180: 2fb7 09bf 1299 09bf 1367 18bf 4090 34bf
00000190: f02e a03e e24c 403e cc6e 2bbf 83b9 fbbe
000001a0: 5f63 17bf 156c 21bd 0b18 e3be d4b5 f5bd
000001b0: 8973 663e 68a7 853e bdb9 323e fe5f dcbe
000001c0: e908 a3be 6552 123e 1945 32bf 435a 19be
000001d0: 5d04 743e 230a ea3d 97de 853e 5433 833e
000001e0: 8d21 8d3e 9c8e 6bbd 68ed bebe 1ee0 c13e
000001f0: 3989 cd3e f364 203e cf5f b7be 2b23 0d3f
00000200: 0c9e fbbe 54c4 d3be 6207 2fbf f73a 18be
00000210: 1dfc 173e 02ac e0be 5227 6abc 6f57 ebbe
00000220: 6c7c 283e 9b97 90bd f161 55be a969 263d
00000230: d281 163e a0ae 82bc 7a61 21bf 695f e23a
00000240: a07b 443e 56ac 28bf dc7b 9fbe f048 34bf
00000250: ded4 a4be d93f f1bd 48e6 eebe 8ce8 383e
00000260: 7a70 27bf 390e 9c3e 1f33 9a3e 9a23 063e
00000270: ae2c 1abf f291 acbc 86d8 8a3e 5037 2c3d
00000280: f279 a6be c0e8 f43b 2f80 a33d 030a 06bf
00000290: 17f0 7cbd 6f0d 813e 694c 20bf 1e72 aebc
000002a0: 4a5a fcbe 4566 c8be db0a 8abe 7667 1dbf
000002b0: abe2 dd3d cbd5 c7be 2f8d 623e 34d7 893e
000002c0: 5e4e 25bf 4a0a 91bc 7518 0f3e 9097 933e
000002d0: de21 18bf bdc3 05bd e272 32bf aad8 823e
000002e0: ffde 343e 3048 0dba 4942 bb3e e2c7 b93e
000002f0: c216 ac3b 4469 003e aaa5 1e3e 63df e73c
00000300: aad9 b73c 849c ddbe 62e6 af3e 83c0 c5be
00000310: c120 ff3c 5473 7d3e e850 34bf 304a e23c
0.07782755 0.13091236 0.19565511 0.25799826 -0.33321804 0.25013715 -0.51024306 0.16839479
0.20002142 -0.030316116 -0.21490495 0.042504907 0.4994374 -0.41391215 0.1826486 -0.43573663
-0.35987186 -0.2054413 -0.4570126 0.10490127 -0.40635365 0.014822369 0.052344512 0.020741576
0.017823856 0.17526926 -0.29138762 0.47042957 -0.49846724 -0.31100193 -0.6797761 0.052016724
0.12819755 0.12855358 -0.110106 -0.22420461 0.0077654505 -0.33000597 -0.6637977 -0.4610983
0.11723297 -0.6443856 -0.6952279 0.08075443 -0.4266828 -0.6495522 -0.20900108 0.42527014
0.3298985 -0.48165584 -0.013753668 0.06428759 0.07393728 -0.04893004 0.33594415 -0.5847315
0.07673482 0.011358227 0.09353309 -0.3980668 0.48243442 0.030846093 0.2797896 0.43846786
-0.18054673 0.025403336 0.022459526 0.11033289 0.04901546 0.07178796 -0.18399417 -0.51574904
0.01225237 0.13986512 0.18709426 -0.05499148 -0.4660272 -0.59626234 0.45293707 0.14510714
-0.3730489 -0.0026150427 -0.4165353 0.01984588 0.007350053 0.17257264 0.063671194 0.108911775
0.09756789 -0.020748358 -0.13316798 0.3486947 -0.50136137 -0.36750552 0.106728055 -0.056086246
-0.5379514 -0.5374919 -0.5953228 -0.7053261 0.3128581 0.18779328 -0.6696594 -0.49164972
-0.59136003 -0.039409716 -0.4435428 -0.119975716 0.2250501 0.26104283 0.17453666 -0.43041986
-0.31842735 0.14289244 -0.69636685 -0.14975838 0.2382979 0.11427715 0.26146385 0.25625098
0.2756466 -0.05750905 -0.37290502 0.378663 0.40143755 0.15663509 -0.35815284 0.5513179
-0.49144018 -0.41360724 -0.6837064 -0.14866243 0.14842267 -0.43881232 -0.014291601 -0.45965144
0.16453713 -0.070601664 -0.20838143 0.04062811 0.1469796 -0.015952408 -0.6303936 0.0017270866
0.19187784 -0.65887964 -0.31149185 -0.70423794 -0.32193655 -0.11779756 -0.46660066 0.1805746
-0.65406 0.304796 0.30117127 0.13099518 -0.60224426 -0.021065686 0.2711832 0.042044938
-0.32514912 0.007474035 0.079834335 -0.52359027 -0.061752405 0.25205562 -0.6261659 -0.02129465
-0.49287635 -0.39140525 -0.26961407 -0.61485994 0.10834249 -0.390303 0.2212417 0.26922
-0.64572704 -0.017705102 0.13974173 0.2882657 -0.5942668 -0.032657374 -0.6970655 0.25555927
0.17663191 -0.000538948 0.3657401 0.3628531 0.0052517364 0.12540156 0.15492883 0.028304761
0.022442658 -0.43283474 0.34355456 -0.38623437 0.031143548 0.24751025 -0.70435953 0.027623266

fc.1.weight f4 [200, 200]
00000000: c47a 8ebd d70b babd 6350 3abd b567 373d
00000010: 3b17 85bd 36bb b4bc 2f02 e4bb 2416 4fbc
00000020: 9c70 b63c 212c e3bc 7771 56bd 0a40 11bc
00000030: 5cd5 ae3c d6ab 1fbc 128e cb3c 7c1b 83bd
00000040: daf0 78ba 25bb 7cbd 7a12 773d 3628 023c
00000050: 130d 2cbd 09fd 8ebd 9850 bcbc b317 843c
00000060: 37ca 58bd 896b 44bd 40b8 c83c 803e 47bd
00000070: 7544 c5bc e95e 02bc 1fe4 00bd a696 ccbd
00000080: 963a 3abd d6f7 63bd 5e3f 3d3c bde8 46bb
00000090: 4b15 613d de3d babc 3d06 26bd 381b 5dbd
000000a0: c428 82bc ba40 afbc b16e 8a3c c01c 9abc
000000b0: 37d5 57bd df1c 76bd d0f0 313b c0f5 cabb
000000c0: a9a4 00bd 5acc 4f3c 22a7 2bbd 6036 e5bc
000000d0: 446c cfbc 2cb2 4dbd 38aa 96bd 3395 77bd
000000e0: 38a7 d93c 3327 bd3b f958 403d 1c07 803d
000000f0: d6c9 8cbd c4c2 9cbb 47f8 82bb 0117 003d
00000100: fb9c 7cbc c383 49bd 41a3 1c3d 77a3 1e3d
00000110: 5724 62bd 11da f73c 4816 823b 38e9 72bd
00000120: e117 5fbd 9248 51bd 1b5d 02bd 6486 6dbc
00000130: bcad b03c 446e 4c3d 08d5 46bd 9836 91bd
00000140: 29e2 22bc 4305 413c 4080 fbbc cd1d 553d
00000150: 2881 61bd 581c 193d e8e6 8b3c 5243 a43c
00000160: 42ac 13bd 733a 063d 71f4 b2b9 9178 90bc
00000170: 6916 763c 5a29 d2bb 0c67 023d 582f 5ebb
00000180: 6d45 be3c dc52 b1bc 92c5 94bc 9cd2 9a3c
00000190: 5d2b 9d3c 4670 8cbd 2101 273d 793e 1abc
000001a0: d097 5c3b cb55 b439 d683 b6ba 5452 18bd
000001b0: dee4 7e3b 93ba 1f3d baa2 85bd 79ea 25bd
000001c0: 8f81 10bd e399 f13c be4d a73b 2012 203d
000001d0: c868 813a cfa7 9cbd 5c72 5f3d 700a a9bc
000001e0: 2ae1 463c a433 a5bc 8b94 f23c 6431 67bd
000001f0: 6430 093d ac44 ff3c dbb5 873b ac8a 233d
00000200: 71ef 30bd a7ca 7cbd 2234 6bbd d571 70bc
00000210: 31d0 343d 52e1 b5bc a5d0 74bd c247 1bbd
00000220: 6824 97bd 8ea3 0a3d bc6b 9cbd f719 6e3d
00000230: 341f 0b3d 34b4 353d 7846 04bd 4e05 b73c
00000240: 17ed bfbd 8927 dbbc 4309 053d ab84 d33c
00000250: cd9d 8cbc 96f1 d4bd 05fc 5d3c 605f 41bd
00000260: a25b 383d 0010 8fbd cc4a d63c 57b6 68bc
00000270: 2cac f8bc 1d1f 7e3d 9ba5 2cbd 3469 98bd
00000280: b227 3a3d 9791 673d 5aec a63c ae30 883b
00000290: 198d 423c 3ce6 1fba 7b6b cfbc 2e0d 57bd
000002a0: 62be 75bd 6319 09bd 147a 72bd c979 753d
000002b0: ddab 933c b3a1 37bd 0e62 493d 6485 93bd
000002c0: a792 11bb b58c 05bc 402f 8fbd a3f2 073d
000002d0: b208 593d 4ab8 5abd f7eb 523d 9639 a3bd
000002e0: 55c9 17bc f04d 7abc 8d71 883c dee5 bbbc
000002f0: bffa b3bc 6ab1 9bbd d6cb 94bd e20a 96bd
00000300: c2fe 7bbd 16b5 093d 401c e93b 0ffe 403d
00000310: d19c e0bc d448 da3b 8cee 8b3d f847 e8bb
00000320: a72c 02be cf97 1abe 5bb1 15be 7a69 87bd
00000330: 692d f73b c326 3eba 6aa3 583c 171e 133d
00000340: 5436 8cbc 99ec 7d3c d3f7 e1bc 7670 2b3e
00000350: 7bcd 07bd 970e c0bd 6caf 82bc dceb 123a
00000360: 697e 25bb a56f 933d 98f1 97bd e7f5 84bd
00000370: ed55 293d 1e5a 0fbd f586 7a3d 681a 4e3d
00000380: 75f0 14be fc56 23bd 75d6 81bd 4f50 7bbd
00000390: a452 6ebd 8566 593d cd0a 8bbc d6a1 4b3d
000003a0: f8ba b9bd 0d0a ef3d 99f9 65bd e789 05bd
000003b0: aff3 f5bc 0f10 363a 63ac d7bc 59c5 003d
000003c0: ec2b bebd 63a9 b93b 6d25 373b e449 64bd
000003d0: 209a 84bd 504c 523d 371b 4dbd 567f b9bd
000003e0: 9cb5 95bd d247 473d 69d6 a4bd 74a5 603d
000003f0: abd7 573d 85b7 0c3a ced3 32bd 305c bbbc
-0.069570094 -0.090842895 -0.04548682 0.044776637 -0.064985715 -0.022061925 -0.006958268 -0.012639556
0.022270493 -0.027731003 -0.052354302 -0.008865366 0.021341972 -0.009745559 0.024848018 -0.064017266
-0.0009496339 -0.061701912 0.060320355 0.007944157 -0.042004656 -0.069818564 -0.022987649 0.016124582
-0.052927222 -0.047954116 0.02450192 -0.04864359 -0.024080494 -0.007957199 -0.031467553 -0.099896714
-0.04546603 -0.055656277 0.011550752 -0.0030351125 0.054951947 -0.022734579 -0.040533293 -0.053981036
-0.01588858 -0.021393169 0.016898485 -0.018812537 -0.052693572 -0.060086127 0.0027151592 -0.0061938465
-0.031407032 0.012682999 -0.041907437 -0.02798003 -0.02532018 -0.050218746 -0.073566854 -0.06044502
0.026568994 0.005772495 0.04695985 0.06251356 -0.06874435 -0.00478396 -0.003996882 0.03127194
-0.015418286 -0.049197923 0.03824163 0.03873011 -0.055210438 0.03025535 0.0039699413 -0.059304446
-0.054466132 -0.0510946 -0.031827074 -0.014497373 0.021567218 0.049909845 -0.048543006 -0.07090491
-0.009941616 0.01178104 -0.030700803 0.052030373 -0.055054814 0.037380546 0.017077878 0.020051632
-0.03605295 0.032770585 -0.0003413293 -0.017635616 0.015019991 -0.006413621 0.031836554 -0.003390273
0.023226464 -0.021645956 -0.018160615 0.018899255 0.019185716 -0.06857352 0.04077256 -0.009414309
0.0033659823 0.00034396196 -0.0013924788 -0.03718789 0.003889374 0.03899629 -0.06525178 -0.040506814
-0.035279807 0.029492324 0.005105703 0.039079785 0.0009873146 -0.076491944 0.05455242 -0.02063486
0.012138644 -0.020166226 0.029611846 -0.056443587 0.033493415 0.031160675 0.004141552 0.03992717
-0.0431971 -0.0617167 -0.057422765 -0.014675577 0.04414386 -0.022202168 -0.05976929 -0.03791023
-0.07379991 0.033847384 -0.07637736 0.05813023 0.033965304 0.04436131 -0.032293767 0.022341397
-0.09371393 -0.02675225 0.032479536 0.025820097 -0.017165089 -0.10397641 0.013548856 -0.047210097
0.045009263 -0.06985474 0.026158713 -0.014203629 -0.030355535 0.06204139 -0.04215012 -0.07441941
0.045448013 0.05653533 0.020376373 0.0041561937 0.011874461 -0.0006099676 -0.025319805 -0.052502804
-0.059996016 -0.033471476 -0.059198454 0.059930597 0.018026287 -0.044831943 0.049165778 -0.072031766
-0.0022212656 -0.008151223 -0.06991434 0.03319038 0.052986808 -0.053398408 0.051494565 -0.07969968
-0.00926431 -0.015277371 0.016655708 -0.022936758 -0.021970151 -0.076021984 -0.07265441 -0.073262945
-0.061522253 0.033619963 0.0071139634 0.04711729 -0.027418526 0.006661514 0.068326086 -0.0070886575
-0.12712346 -0.15096973 -0.14618437 -0.06611915 0.007543255 -0.0007253701 0.013222555 0.035917368
-0.01711575 0.015498304 -0.027583992 0.16742119 -0.033154946 -0.09377783 -0.015952788 0.0005604604
-0.0025252348 0.07199029 -0.07419127 -0.06492215 0.04134171 -0.03499805 0.06116386 0.05031815
-0.14544852 -0.039877877 -0.063397326 -0.061355885 -0.05818428 0.053076286 -0.016972924 0.049714886
-0.090688646 0.11671839 -0.056146238 -0.032602217 -0.030023424 0.0006945142 -0.026327318 0.031438205
-0.09285721 0.0056659444 0.0027945891 -0.05573453 -0.064747095 0.05134231 -0.050074782 -0.090574905
-0.0731003 0.048652478 -0.08048708 0.05484529 0.05269591 0.0005367923 -0.043659024 -0.022871107

fc.1.bias f4 [200]
00000000: 7946 7ebd 8979 e4bd 2a6a bfbc ac4d a63b
00000010: 18f1 183d f2a6 3cbc 9ea5 713d bcc1 76bd
00000020: f57d 07bd 2cf8 c7bd 3831 f6bb e0b6 99bd
00000030: b7ac 35bc bf13 fabc a530 35bd 0f4c 8cbd
00000040: 511d a1bd c590 053d 8542 12bd c601 9fbc
00000050: 6050 23bd 7460 8abd 87af 7b3c 1744 bd3a
00000060: 81da d8bc 1ac8 42bc 9d7d f9bc 0fc0 973c
00000070: 4d30 73bd a905 24bb c688 21bd 25fd e33c
00000080: c82d 07bd b8fd 5ebc c28a c9bc fc1f 6a3d
00000090: abe8 10bd 4142 1f3c f199 f53b 70fb 0bbd
000000a0: 8135 0fbc b9f7 7ebd 7a91 1abd 88de 67bd
000000b0: 6a2e 83bd 0eea f8bc 6deb 7c3c 4280 16bd
000000c0: fa06 1f3d 6908 5d3d 454e d9b9 4ad8 4f3d
000000d0: c5fa 08bc f2b6 70b9 b7ae 44bd d123 c73c
000000e0: 21e1 433d d069 98bd d2dd 61bd 7f40 34bd
000000f0: 0384 d53c 21ee 02bc b04c 01bd db07 373d
00000100: 9948 a8bc ca90 3abd d75f 0c3b 9c8b 2bbd
00000110: cb7a 93bd a497 223d 8472 99bd 2a81 3a3b
00000120: d1e7 90bd bbe8 85bd c438 173b 8dc7 7abd
00000130: 10c0 93bc 3dd4 1a3d 7992 03bd 8249 3d3c
00000140: c59c debb 3dd0 c2bd 15df f93b e442 653d
00000150: 9105 ca3c 0398 eabc ae22 b2bc 370d 25bc
00000160: 1a5e 83bd 7412 5bbd 2ac6 863c 753c 6cbb
00000170: b216 a93c ccda b6ba d5f6 513d 53c7 cabc
00000180: 55ae 88bc 16b5 313d c3b5 35bd bb57 59bc
00000190: 6fc0 f4bc c01a 2a3b c7a2 6b3d 92d0 76bd
000001a0: 40d0 853c f6a0 50bc 7d0f 02be c99f 013d
000001b0: 7e0b 99bd a5b7 813d a779 86bd 4316 48bd
000001c0: 084f c83c ebce a6bc 815d 663d b3f4 7abd
000001d0: eca3 05bd ad08 ddbc 9a5f 5cbd 8124 d3bd
000001e0: 33e2 133d 95f2 71bd f2cb 5abc be44 a63c
000001f0: 5912 4abd 6ef3 7abc 551b b535 8e9c 2cbd
00000200: 92a7 5f3c 2a43 3cbd 0c74 bebd 3416 5abd
00000210: 7188 2abd dcbc 293d c427 e1bc 30d8 6b3d
00000220: b018 43bd 0c94 c4bd 953e 7f3c 6f49 e6bc
00000230: 1767 9abd 03d9 b23c 088e 6d3d cb38 6cbd
00000240: 2dd5 c23c 6fc3 cd3c c200 2fbb fe59 b6bb
00000250: 06ff fcba 41af 24bd d376 dd38 c3e3 4b3c
00000260: 33b1 5fbd 50c9 31bd 7a3f 973c 26c7 84bb
00000270: 9c76 e33c b94b 95bc 02bc 9cbd 8ba3 bbbc
00000280: 1685 90bd 2b9c 3e3d 1a0e cabb 61a3 d03c
00000290: 234e 513a 84e0 89bc 6f20 54bd ced1 5cbd
000002a0: cb32 a3bd 76e7 5c3d 7784 863c 99d8 cfbd
000002b0: ae01 1ebc e038 80bd 6594 89bd e519 61bb
000002c0: 75db 39bd f61b 603d 67c8 3cbd 5e90 cabc
000002d0: e539 4fbd 0904 2cbd e31b 533c 0fea 483d
000002e0: bdbf 82bd 67fb 4ebd 2bab 7fbc 1cc3 2e3d
000002f0: 2f05 03bc 7692 86bc 17c7 1e3d efe2 2cbc
00000300: f6a0 383d b1c7 973b e2bc a8bd 56d9 763c
00000310: 9b58 72bd fdf9 be3b d62b 87bd 3ad4 80bc
-0.062078927 -0.111559935 -0.023366053 0.005075177 0.0373393 -0.011514412 0.058995835 -0.060243353
-0.033079106 -0.09764132 -0.0075131916 -0.07505584 -0.011088542 -0.030526994 -0.044235844 -0.068504445
-0.0786692 0.032608766 -0.03570797 -0.019410025 -0.039871573 -0.06756678 0.015361673 0.0014439848
-0.026471378 -0.011888528 -0.030455405 0.018524198 -0.059372235 -0.0025027788 -0.039437078 0.02783067
-0.033002645 -0.013610296 -0.024602298 0.05715941 -0.03537814 0.009720386 0.007495158 -0.034175336
-0.008740784 -0.062247965 -0.037736394 -0.056608707 -0.06405337 -0.030385043 0.015436989 -0.03674341
0.038825013 0.0539631 -0.0004144778 0.05074338 -0.008360569 -0.00022956336 -0.048018184 0.02430907
0.04782212 -0.07442057 -0.055143185 -0.04400682 0.026063925 -0.007991345 -0.031567276 0.044685226
-0.02054243 -0.045548238 0.002141943 -0.04188119 -0.07201155 0.039695397 -0.07492545 0.0028458335
-0.070754655 -0.065385304 0.0023074606 -0.061225463 -0.018035918 0.037800062 -0.03212211 0.01155317
-0.0067935907 -0.095123746 0.0076254704 0.055971995 0.024660857 -0.028636938 -0.021745052 -0.010073951
-0.06414433 -0.053484395 0.016451914 -0.0036046777 0.020640705 -0.0013950705 0.051260788 -0.024753248
-0.01668469 0.043385588 -0.044362795 -0.0132655455 -0.029876916 0.0025955886 0.057528283 -0.060257502
0.016334653 -0.012733689 -0.12701221 0.031646524 -0.07472895 0.063338555 -0.06566172 -0.048849355
0.024451748 -0.020362338 0.056241516 -0.06126852 -0.03262703 -0.026981676 -0.05380211 -0.10309697
0.036104392 -0.059069235 -0.013354288 0.02029645 -0.049333904 -0.015316827 1.3493506e-06 -0.04214149
0.013650792 -0.04596249 -0.09299478 -0.05324383 -0.041634027 0.041439876 -0.027484782 0.05757922
-0.047630966 -0.0959855 0.015578886 -0.028111188 -0.07539194 0.021831995 0.05799678 -0.05767135
0.02378329 0.025117604 -0.0026703333 -0.005564927 -0.0019302077 -0.040206198 0.00010560234 0.012444439
-0.05461235 -0.043404877 0.018462885 -0.0040520607 0.027766518 -0.018224584 -0.07653047 -0.022905132
-0.07056634 0.046535652 -0.006166232 0.02546853 0.00079843606 -0.01683069 -0.051788744 -0.053911023
-0.07968672 0.053931676 0.016420586 -0.101487346 -0.009643955 -0.06260848 -0.06717757 -0.003434771
-0.045375306 0.054714166 -0.046089556 -0.024727043 -0.050592322 -0.041996036 0.012885067 0.04905134
-0.063842274 -0.050532725 -0.0156047745 0.04266654 -0.007996841 -0.01642726 0.038764086 -0.010552152
0.04507538 0.0046319594 -0.082391515 0.015066465 -0.059166532 0.005828141 -0.06600158 -0.015726198

fc.2.weight f4 [2, 200]
00000000: 59e9 633b ec2b 34bd fbb6 e03b a586 f5bc
00000010: 3c47 82bc 71d4 22bd 68db 433d 2195 89ba
00000020: 6487 87bb 46ad 7e3a 9e6c 0bbd 6b03 c93c
00000030: dbab 9cbb 6dc4 abbb 93d5 d9bc e485 593d
00000040: bc16 30bd a0ab 7abc 3f49 833b 143b 0dbb
00000050: e668 37bb c6e2 6f3c 38ef 3d3c 90f0 8b3d
00000060: 9415 e53b 8294 1d3d 0f9f 5a3c 9699 f439
00000070: 7903 ad3b fa7a 80bc ed8a 683d bfa5 2abd
00000080: 8830 d63c 4a2b 933c ceb7 343d 4799 093c
00000090: d4f8 89bc 16af a2bc 34f3 f33a 8e14 293d
000000a0: f9c2 bdbc 14d7 213c de09 053d 916e 36bd
000000b0: 074d 5e3d c5cc e43c 1b14 b03c 5a62 29bb
000000c0: 7810 163d d78b 3bbc 0797 4ebb 2024 b8bb
000000d0: b791 893d 147a 7e3d 0781 aabc 82b1 93bc
000000e0: e7e0 0bbd d98b 1a3d 5472 c53c 6ab8 a83b
000000f0: d6dd d13c 5302 b23c 0ea8 15bd 0a06 4b3c
00000100: 8b21 7b3c 2f98 9abc 8411 fbbc 0676 f1bc
00000110: 4b8d 9d3c 710d 12bd 8d54 e6bc 2798 6fbd
00000120: c69e 07bc 3108 ffbb 7d95 833d 353e 2c3c
00000130: e3ee bb3c 7a36 ab3c a471 573c 804b 003d
00000140: 15de 3fbd 628a 963c a70d 43bb 4e68 5e3b
00000150: 6fc0 a33c 6682 05bc e1b7 7abd 249e 3cba
00000160: 1507 20bb 063b 0fbd eb1a cbba cdce 173d
00000170: 0716 b7bc 01a0 3d3d 8010 b3bd c400 8e3c
00000180: 539e a2bc 0c9d 563c bfe4 c43c 8dd5 fabb
00000190: 9de8 91bc c929 80bd 5426 96b9 142c ae3c
000001a0: 5b0d 6fbd a51b 2e3d 50fd 30bd 0c93 09bd
000001b0: b4ff b13b b166 ed3d a957 72bd 0703 6bbd
000001c0: 748d 3bbc 7312 883c 757d e73c b58b 63bd
000001d0: 7a2e 8d3b 0847 453c 1b08 babc 918b c6bc
000001e0: c0a9 743c 41e8 de3b 3071 bbbb d9fe 23bd
000001f0: b130 1d3d dbc8 04bd 287a 513d 473b 50bd
00000200: 0bf8 b8bc 1830 ebbc 25a2 adbc 9c7a 03bc
00000210: 60c5 fdbc 63c5 9aba 39c7 89bd 49af a43b
00000220: 878e d5bc 81c7 0abd ea20 323b 7e45 ab3d
00000230: e020 bd3c 6606 153d 9c5c 09bd 88f8 e8bc
00000240: 84c3 0dbc 36b4 2cbd 329e 94bd a5e9 8fbc
00000250: 4c09 23bc 665a 37bc f7b4 e73c 0cb9 8fbd
00000260: 2ea4 66bc 5622 1dbd ca3b d53b 1e99 b1bc
00000270: 1731 1cbd 2a47 083d 3d85 fe3c f8a1 84bc
00000280: a88e 81bd 27b5 163a 7443 d53c c21a dabc
00000290: a4bb d7bc f2ce 413d a367 99ba 49c2 b23c
000002a0: f68f a5bd feef dd3c c09c 59bd 7006 44bd
000002b0: 67f8 043d 26ba 7cbd 5956 2a3d a74a c33c
000002c0: f5fe 86bc 81f7 233d 54b1 1bbc 495e 01bd
000002d0: cd89 1cbd c661 67bb 5e2b bc3c 4432 59bd
000002e0: a897 003d 581c 00bd 7c83 8ebd 3425 67bd
000002f0: ae9e e9bc e9d9 9f3c 9b91 bd3c 5484 6bbb
00000300: 830c 623d d481 05bd 0926 57bc 8849 eabc
00000310: 7267 33bd 1bbe 5b3d 0fbd 903d 659a 2638
00000320: 02c6 aebc 61d3 5dbd 877c 85bb 0624 393c
00000330: 6448 f13c 5f00 0cbd 30fb dbbc a8f4 633d
00000340: d2fb bdbb a05f 043c 33c3 0cbc 9f21 c2bc
00000350: 1c93 453c 3993 5d3c 170b 2f3d c549 263c
00000360: 792b 76bd 2137 053d 14da 1839 ab93 cabb
00000370: a239 a3bc 82d2 d73b f88a 85bc 779b 66bd
00000380: 9f43 15bb 7faa d1bc b177 37bc bb46 423c
00000390: ec94 a83b f1c1 1e3d 5964 4b3c 0d37 fabb
000003a0: 13ca 593d a475 b4bc 6aee 51bb 3f5f 983a
000003b0: da70 70bd 2098 33bd ebcd 25bb 5838 b4bc
000003c0: 7638 5ebd 162e 113d eb68 103c a2ed ef3b
000003d0: 9385 783d 388c 9abb f87c 263d 0d8e 2fbc
000003e0: 9d4f 78bd 24ba 383b 6500 e53c 9cf0 af3c
000003f0: 0fea e93c ddc5 3a3c b16c 39bd e173 2d3d
0.0034776537 -0.0439872 0.0068577505 -0.02997143 -0.015903108 -0.03975338 0.047816664 -0.0010496714
-0.004136013 0.0009715151 -0.034039132 0.024537763 -0.004781229 -0.0052419216 -0.026591098 0.053106204
-0.04299043 -0.015299708 0.0040065343 -0.0021550106 -0.0027986108 0.014641469 0.011592679 0.06832993
0.0069910977 0.038471706 0.013343587 0.00046653737 0.005279955 -0.01568364 0.056773115 -0.041661974
0.026146188 0.017964978 0.044120602 0.008398361 -0.016842283 -0.019858878 0.0018611909 0.041279368
-0.02316426 0.009877939 0.032480113 -0.044539038 0.054272678 0.027929673 0.021493962 -0.0025845976
0.0366368 -0.011446915 -0.0031523125 -0.005619541 0.06717246 0.06212814 -0.020813478 -0.018028978
-0.03415003 0.037731025 0.024102367 0.005148937 0.025618475 0.021729624 -0.036537223 0.012391577
0.0153278215 -0.018871395 -0.030648 -0.029475223 0.019232413 -0.03565735 -0.028116489 -0.058494713
-0.008277601 -0.007782959 0.06424997 0.010512878 0.022941059 0.0209 0.013149653 0.031322002
-0.046842653 0.018376533 -0.0029762776 0.0033936682 0.01998922 -0.008148765 -0.061210517 -0.00071951956
-0.0024418284 -0.0349684 -0.0015495693 0.037062455 -0.02234937 0.04629517 -0.087433815 0.01733435
-0.019850885 0.013098966 0.024034856 -0.007654852 -0.017811114 -0.0625797 -0.00028638786 0.021261252
-0.058362346 0.042506833 -0.043210328 -0.0335875 0.0054320935 0.115918525 -0.05916563 -0.057375934
-0.011447299 0.01661036 0.028258065 -0.055553157 0.004308519 0.012040861 -0.022708943 -0.024236472
0.01493305 0.006802589 -0.00572028 -0.040037964 0.038376514 -0.032418113 0.051141888 -0.05083778
-0.022579214 -0.028709456 -0.02119548 -0.008024838 -0.030977905 -0.0011808093 -0.06727452 0.0050257784
-0.026068939 -0.033881668 0.0027180263 0.08362864 0.023086965 0.036383055 -0.033535585 -0.028438821
-0.008652572 -0.04216405 -0.07256736 -0.017567465 -0.009950947 -0.011190986 0.028284533 -0.07017717
-0.014077229 -0.038362823 0.0065073716 -0.021679457 -0.038132753 0.033270992 0.031069392 -0.016190514
-0.06326038 0.00057490397 0.02603314 -0.026624087 -0.026334591 0.0473165 -0.001170386 0.021821158
-0.08084099 0.027091976 -0.053128004 -0.0478577 0.032463457 -0.061700962 0.041586254 0.023839308
-0.016478995 0.04003096 -0.009502728 -0.031584058 -0.038217355 -0.003530608 0.022969898 -0.053026453
0.03139463 -0.03127703 -0.069586724 -0.056431964 -0.028518047 0.019513087 0.02314072 -0.0035937028
0.055187713 -0.032594517 -0.013131627 -0.028599516 -0.043799825 0.053648096 0.0706731 3.9721275e-05
-0.021334652 -0.054156665 -0.0040736827 0.011300093 0.029453464 -0.03418004 -0.026853174 0.055653244
-0.0057978416 0.008079439 -0.008591461 -0.023697672 0.012058999 0.01352387 0.042735185 0.010149424
-0.060100053 0.03252328 0.0001457709 -0.006182154 -0.019924942 0.006586374 -0.016301617 -0.056300607
-0.00227759 -0.025593994 -0.01119797 0.011857684 0.005144706 0.038759176 0.012414061 -0.007635957
0.05317123 -0.022028752 -0.0032032975 0.0011625065 -0.058701374 -0.04384625 -0.0025299739 -0.021999523
-0.054253064 0.03544434 0.008814077 0.007322029 0.06067426 -0.0047164224 0.040646523 -0.01071502
-0.0606228 0.002818712 0.02795429 0.021477036 0.02855399 0.011399713 -0.04526967 0.04234684

fc.2.bias f4 [2]
00000000: b0f0 c9bb ef69 84bd
-0.0061627254 -0.06465518
