result/test/P.pt (torch, 39503 bytes, 8 tensors)

fc.0.weight f4 [64, 8]
-0.45807254 0.34936786 0.31379184 -0.27887717 -0.2063366 -0.10228949 -1.0281136 -0.43482235
0.11803574 0.25808713 0.07507696 0.16673729 -0.29623562 -0.023149794 -0.13356602 -0.34790713
0.4572466 -0.34721467 -0.3068791 0.27533087 0.21481779 0.1119148 1.1247169 0.6197076
-0.29974 -0.25934777 -0.21533161 0.12630518 0.087260365 0.15955682 0.5907718 0.92200804
0.17933609 0.25821853 0.33241507 -0.34714746 -0.15687346 -0.19934168 -0.40485686 -0.23977752
-0.061111934 -0.0037370706 -0.20257564 -0.15865351 -0.17021923 -0.1983494 -0.5425467 -0.8151716
0.09076304 -0.014438542 0.030897925 0.048635427 0.34653893 -0.1616538 0.9646397 -0.4692346
-0.30321214 0.017416187 0.118609 0.20815296 0.028371686 -0.024187883 0.6986093 -0.54947793
-0.541428 0.43795174 -0.5629916 -0.23443662 0.18520556 0.08653391 -0.0122808125 0.40877038
0.27151865 0.009627075 0.2450065 0.24566354 0.0709987 -0.17086096 0.4448912 -0.8239376
0.0980392 -0.25157183 -0.077930436 -0.33752662 0.16855435 -0.02023664 0.4271239 -0.36666772
0.1944012 -0.13370228 -0.08587655 0.1775635 0.23706824 0.2871188 0.31404012 0.96594566
-0.47063777 0.14263043 -0.002486368 -0.28560647 -0.09376113 -0.29161128 0.09089053 -0.31449836
-0.080311105 0.16671847 0.29469022 -0.25866 0.37129906 -0.1464633 0.8091939 -0.1250046
-0.0023797757 0.103283376 -0.001207627 -0.35792446 0.02756986 0.027388224 0.79426265 -0.8623866
0.31939414 0.39056733 -0.27621195 -0.0010520067 -0.14403304 0.29821914 -0.13278542 0.6979222
-0.3635757 -0.13904986 -0.0028186708 0.05317125 0.21493642 -0.35800868 0.2714671 -1.2553163
-0.3318477 0.3882865 -0.13969688 0.11935731 -0.18516277 -0.05775689 -0.66516936 -0.3811979
-0.22678356 -0.304301 0.4127632 0.13641883 0.0040341835 -0.1505776 0.41819626 -0.15862721
-0.11151184 0.2663518 -0.2771529 0.20530404 0.20504545 -0.09955176 0.2335737 -0.3741808
-0.13121356 -0.336388 -0.20303982 0.3142613 0.12551185 0.15671222 0.54723185 -0.2360438
-0.10790004 -0.13011064 -0.12330051 -0.5356552 0.15108582 0.14465521 0.6488107 0.76350915
0.30232394 0.26514694 0.29207093 -0.028857196 -0.10555169 -0.21174955 -0.87755615 -0.89537287
-0.31633535 -0.38545018 -0.28014442 -0.050530832 -0.3239342 -0.04158994 -0.72994703 -0.03428095
-0.3770455 0.00109886 0.30775818 -0.053909753 -0.18132226 0.04244417 -0.5931861 0.48827013
0.50278944 -0.45620897 0.60245 0.19661447 -0.18204024 -0.08425116 -0.103135146 -0.42999583
0.03655658 0.09453761 0.181884 -0.30630648 0.1765977 -0.09460825 -0.03395275 -0.21644247
0.23174591 -0.14086795 -0.24839047 -0.010660264 0.2922479 -0.013190845 0.6917268 0.11719929
-0.032288708 0.19991967 0.06391984 0.3340134 -0.14484838 -0.18462794 -0.22699012 0.3007979
0.2623751 0.13875158 -0.4513439 -0.40569586 -0.028690388 -0.2059562 -0.44361448 -0.37473142
0.005396658 0.25901195 -0.07287845 -0.26347283 -0.022561945 -0.21346694 0.07038235 -0.7062724
0.2950496 0.45600232 0.1580394 0.3410453 -0.016556853 -0.17932367 0.31934735 -0.5547491
00000000: 7c88 eabe 58e0 b23e 53a9 a03e fdc8 8ebe
00000010: e749 53be 277d d1bd 3a99 83bf 09a1 debe
00000020: b9bc f13d ff23 843e f3c1 993d 2ebd 2a3e
00000030: 32ac 97be a3a4 bdbc 88c5 08be e220 b2be
00000040: 3a1c ea3e 1fc6 b1be 421f 9dbe 2bf8 8c3e
00000050: 32f9 5b3e 9633 e53d b9f6 8f3f 28a5 1e3f
00000060: 8577 99be 3bc9 84be e47f 5cbe 2556 013e
00000070: 90b5 b23d dd62 233e d23c 173f b808 6c3f
00000080: e1a3 373e 3835 843e 4f32 aa3e 50bd b1be
00000090: 70a3 20be 3a20 4cbe 6649 cfbe 3d88 75be
000000a0: 8250 7abd a4e9 74bb fd6f 4fbe 1176 22be
000000b0: f34d 2ebe 1b1c 4bbe 57e4 0abf 16af 50bf
000000c0: f9e1 b93d a28f 6cbc a51d fd3c f135 473d
000000d0: 8d6d b13e 9388 25be a1f2 763f 843f f0be
000000e0: 9f3e 9bbe 64ac 8e3c 47e9 f23d 0d26 553e
000000f0: bd6b e83c ab25 c6bc 0fd8 323f 96aa 0cbf
00000100: 079b 0abf 363b e03e 3820 10bf 2710 70be
00000110: 87a6 3d3e b138 b13d 7635 49bc 5a4a d13e
00000120: 7e04 8b3e e1ba 1d3c fce2 7a3e 398f 7b3e
00000130: c467 913d 2df6 2ebe c8c8 e33e 93ed 52bf
00000140: c7c8 c83d 06ce 80be fe99 9fbd 4ad0 acbe
00000150: 8399 2c3e 4fc7 a5bc fcaf da3e dfbb bbbe
00000160: 1c11 473e 40e9 08be 0be0 afbd 35d3 353e
00000170: 04c2 723e 3c01 933e dec9 a03e 3748 773f
00000180: 6ff7 f0be b60d 123e 55f2 22bb 033b 92be
00000190: d605 c0bd 134e 95be d024 ba3d ee05 a1be
000001a0: 267a a4bd 3fb8 2a3e a3e1 963e 156f 84be
000001b0: e91a be3e 7afa 15be 5527 4f3f 3501 00be
000001c0: 03f6 1bbb 3c86 d33d 3d49 9eba e041 b7be
000001d0: 30da e13c 455d e03c cc54 4b3f 5ec5 5cbf
000001e0: a187 a33e 71f8 c73e a76b 8dbe 7de3 89ba
000001f0: 667d 13be 2eb0 983e e7f8 07be 08ab 323f
00000200: 9826 babe 1663 0ebe 73b9 38bb 19ca 593d
00000210: 4b18 5c3e ea4c b7be bcfd 8a3e 34ae a0bf
00000220: f1e7 a9be 7dcd c63e b30c 0fbe 9b71 f43d
00000230: 4f9b 3dbe 7d92 6cbd 8a48 2abf 5f2c c3be
00000240: f339 68be 57cd 9bbe b355 d33e 61b1 0b3e
00000250: 2f31 843b 0431 1abe d21d d63e 2c6f 22be
00000260: 5260 e4bd 435f 883e fce6 8dbe 393b 523e
00000270: 6ff7 513e cbe1 cbbd f22d 6f3e a094 bfbe
00000280: d95c 06be 0c3b acbe ace9 4fbe dbe6 a03e
00000290: 2e86 003e 2b79 203e 6317 0c3f 77b5 71be
000002a0: b2fa dcbd b93b 05be fa84 fcbd b320 09bf
000002b0: 3eb6 1a3e 7f20 143e 7518 263f 5675 433f
000002c0: 34ca 9a3e 57c1 873e 528a 953e ed65 ecbc
000002d0: 7c2b d8bd e0d4 58be 85a7 60bf 2837 65bf
000002e0: b5f6 a1be ba59 c5be 176f 8fbe 6bf9 4ebd
000002f0: b4da a5be 375a 2abd cfdd 3abf 2e6a 0cbd
00000300: 1c0c c1be a007 903a 7b92 9d3e 79d0 5cbd
00000310: 8bac 39be f0d9 2d3d 0bdb 17bf 8bfe f93e
00000320: cfb6 003f 3994 e9be 2a3a 1a3f 4e55 493e
00000330: c268 3abe df8b acbd 8538 d3bd 6a28 dcbe
00000340: 5abc 153d ef9c c13d cd3f 3a3e 34d4 9cbe
00000350: 07d6 343e f8c1 c1bd 0a12 0bbd 18a3 5dbe
00000360: cd4e 6d3e b03f 10be 125a 7ebe 63a8 2ebc
00000370: 84a1 953e 6a1e 58bc 0215 313f 2e06 f03d
00000380: 2a41 04bd beb7 4c3e 68e8 823d ce03 ab3e
00000390: 2253 14be 1b0f 3dbe 1970 68be 2f02 9a3e
000003a0: 0756 863e e514 0e3e 8c16 e7be 5eb7 cfbe
000003b0: 1b08 ebbc 2fe6 52be 7021 e3be ccdc bfbe
000003c0: 73d6 b03b 379d 843e 4c41 95bd e9e5 86be
000003d0: d4d3 b8bc 1497 5abe 9f24 903d 45ce 34bf
000003e0: be10 973e 2379 e93e 15d5 213e 7d9d ae3e
000003f0: 3da2 87bc a0a0 37be 7f81 a33e 0904 0ebf

fc.0.bias f4 [64]
-0.3027005 0.4046502 0.29848173 -0.15243773 0.098709054 0.23328182 0.20211086 0.51725173
0.086511835 0.15457278 -0.00041572002 -0.21564592 0.19071348 -0.24381211 0.38111588 0.07214317
0.047274787 0.35717085 0.047726534 -0.0475259 -0.0151865855 0.38020205 0.25627768 -0.13986172
0.32109126 -0.05861097 0.2359929 0.058308363 -0.025737172 0.2590289 0.04756547 -0.0521665
0.20386174 -0.022463197 0.24380094 0.14269865 0.338546 0.37210184 0.0778705 0.3653527
-0.19029477 0.28731287 0.08881852 0.3129968 -0.37822732 -0.043144226 0.41007665 0.2156534
0.40098554 0.197754 0.21249993 -0.22979891 0.38289028 0.20347874 0.23283297 -0.45971715
0.19869691 0.21889809 0.23740514 -0.004079085 -0.32424045 -0.008601359 0.08797426 0.011377187
00000000: 8ffb 9abe 502e cf3e 99d2 983e a318 1cbe
00000010: f927 ca3d 6ee1 6e3e 26f6 4e3e 9c6a 043f
00000020: 1e2d b13d 5448 1e3e fff4 d9b9 49d2 5cbe
00000030: 654a 433e e2a9 79be 9f21 c33e ccbf 933d
00000040: 35a3 413d 19df b63e e67c 433d 85aa 42bd
00000050: 28d1 78bc d8a9 c23e d436 833e e937 0fbe
00000060: 1366 a43e 0e12 70bd 1fa8 713e c0d4 6e3d
00000070: c3d6 d2bc 709f 843e 03d4 423d 8aac 55bd
00000080: 22c1 503e bd04 b8bc f4a6 793e 981f 123e
00000090: e755 ad3e 2284 be3e 927a 9f3d 820f bb3e
000000a0: a2dc 42be ac1a 933e 7ce6 b53d 1e41 a03e
000000b0: 03a7 c1be 00b8 30bd 91f5 d13e 3fd4 5c3e
000000c0: fa4d cd3e 0680 4a3e 9599 593e 6850 6bbe
000000d0: 320a c43e bb5c 503e c46b 6e3e 0c60 ebbe
000000e0: 3477 4b3e d226 603e 551a 733e d8a9 85bb
000000f0: d802 a6be b7ec 0cbc d92b b43d 6267 3a3c

fc.1.weight f4 [64, 64]
-0.024242098 0.019338155 -0.06771153 0.14292538 -0.027495211 0.008616946 0.17693858 0.19116995
-0.19545901 -0.056274462 0.019698 0.120157845 -0.070184074 -0.079500265 -0.07801833 -0.018102504
0.011729088 0.052519236 0.032117765 -0.105675235 0.18729092 -0.02669712 -0.08210201 0.20582363
0.007349188 0.15331228 0.040358767 0.09639131 -0.05340391 0.09761023 -0.1204138 -0.17570311
-0.040728517 0.042352982 -0.08535731 0.03081014 0.040148083 0.08550354 -0.059968334 0.09181294
0.12728064 -0.0061185416 0.17735924 0.07420934 0.09230091 -0.016285777 0.2072382 0.09596358
0.057736978 0.11185795 -0.15478297 0.040860746 -0.19836964 0.040334772 0.026253825 -0.027743617
-0.0040488113 -0.06411843 0.036881596 -0.004505483 -0.049785476 -0.14931431 0.12337393 0.03545543
0.12985903 0.10315869 -0.12296699 0.09106029 0.13298434 0.16162404 0.13472086 -0.21615332
-0.07172348 -0.04085805 0.13041402 -0.055728257 -0.06932866 0.036133043 -0.06550167 0.07920731
-0.09902494 -0.10401185 -0.14523467 -0.0098229265 -0.07907849 0.119868934 -0.07190594 0.0125665935
0.14066032 0.075582415 0.119709015 -0.052206427 0.06324668 0.09910866 0.118401326 -0.13394506
-0.026916191 -0.032758165 -0.039412852 -0.05011296 -0.0011340909 0.07257667 -0.009606628 0.17869309
0.009429977 0.09634074 0.017293006 0.1774179 0.017887972 0.050736845 -0.059220012 -0.07293579
-0.046685603 0.16834034 0.049018435 0.109231226 0.1554791 0.076427236 -0.015790189 -0.07489276
-0.12729804 0.12495723 0.071192384 0.0009027395 -0.09849452 0.041825503 0.22044893 0.14425252
-0.10503967 0.001266852 0.06648201 0.03851801 -0.062428594 -0.11585049 0.059919357 -0.124286935
0.10536535 -0.099409476 -0.12395494 -0.105171576 0.11440104 -0.099739894 0.07936157 0.046148226
-0.100057974 -0.018140629 -0.10733378 -0.06981893 0.075999364 -0.072292656 0.046294257 0.035354897
-0.08383235 0.03581901 -0.04736364 0.019467235 -0.11178057 0.00801824 -0.10689476 0.022157773
-0.059052944 -0.034508422 -0.048866242 0.08324221 -0.12016359 0.01032801 0.021896765 -0.045644343
0.02197507 -0.11069809 0.10476126 -0.110688925 0.063951224 -0.050411955 -0.058803633 -0.02503255
-0.11085138 -0.047983155 -0.059746638 -0.00692074 -0.08906643 -0.06306644 0.0871826 -0.011393473
-0.045252264 -0.09668031 0.0515185 -0.07720986 -0.10480288 0.03961131 -0.032039523 -0.01038076
0.10340462 0.12821124 0.100209005 0.12150586 -0.033825334 0.030801492 -0.060591478 -0.15657519
-0.04696985 -0.08017672 -0.024007784 0.14331883 0.05259329 -0.031551216 -0.053437058 0.16401483
0.06193447 -0.036238343 0.007581658 0.019888075 0.027388575 0.057583638 0.046593957 0.19352403
-0.020326218 0.0547442 0.05253204 -0.06730883 0.16202313 0.09799017 -0.09151396 -0.038599666
0.14468628 0.1275123 0.13508296 0.05994252 0.012217209 0.034348283 0.016364915 0.12904976
-0.011539535 0.14344764 0.24416311 0.19257778 -0.033190016 0.013023752 0.07702097 -0.036610216
-0.027785577 -0.03885276 -0.048836533 0.026189249 -0.0930599 -0.09327904 -0.019688936 -0.032209877
-0.0574889 0.06058704 0.24292597 0.15301834 -0.051300574 -0.06214758 0.008499443 0.06348469
00000000: 5d97 c6bc 0d6b 9e3c 58ac 8abd 085b 123e
00000010: a33d e1bc 172e 0d3c 632f 353e 0ec2 433e
00000020: 6826 48be 0d80 66bd b35d a13c 5115 f63d
00000030: abbc 8fbd 09d1 a2bd 13c8 9fbd b44b 94bc
00000040: 5c2b 403c 691e 573d eb8d 033d 426c d8bd
00000050: 31c9 3f3e ebb3 dabc 1925 a8bd 6ec3 523e
00000060: 75d1 f03b e5fd 1c3e 3c4f 253d cf68 c53d
00000070: 0fbe 5abd dfe7 c73d 839b f6bd 84eb 33be
00000080: f2d2 26bd 527a 2d3d d0cf aebd 8c65 fc3c
00000090: 5172 243d 7b1c af3d 5ba1 75bd 6c08 bc3d
000000a0: db55 023e 0c7e c8bb a99d 353e 11fb 973d
000000b0: 4208 bd3d c069 85bc 4036 543e 8e88 c43d
000000c0: 9c7d 6c3d c815 e53d 6d7f 1ebe 995d 273d
000000d0: 6921 4bbe 1336 253d 4312 d73c 9546 e3bc
000000e0: e4ab 84bb 8650 83bd 2811 173d bba2 93bb
000000f0: dbeb 4bbd dae5 18be 79ab fc3d b739 113d
00000100: c4f9 043e dd44 d33d 1ed6 fbbd d17d ba3d
00000110: 0c2d 083e c680 253e 44f4 093e 4c57 5dbe
00000120: c3e3 92bd c55a 27bd 418b 053e 5043 64bd
00000130: 2ffc 8dbd 3e00 143d bd25 86bd 7137 a23d
00000140: 96cd cabd 2a04 d5bd 66b8 14be 57f0 20bc
00000150: e7f3 a1bd d87d f53d 6c43 93bd 1de4 4d3c
00000160: 4209 103e f4ca 9a3d 002a f53d 68d6 55bd
00000170: 7a87 813d 7bf9 ca3d 657c f23d e528 09be
00000180: 587f dcbc 6d2d 06bd 5f6f 21bd 3f43 4dbd
00000190: c7a5 94ba 14a3 943d 1e65 1dbc 52fb 363e
000001a0: 3180 1a3c 4b4e c53d 10aa 8d3c 0aad 353e
000001b0: cc89 923c 70d1 4f3d af90 72bd 5c5f 95bd
000001c0: 6739 3fbd 6961 2c3e 8ec7 483d 9fb4 df3d
000001d0: ea35 1f3e e285 9c3d 6d5a 81bc 6061 99bd
000001e0: 6b5a 02be 94e9 ff3d 50cd 913d d3a5 6c3a
000001f0: 7fb7 c9bd 3851 2b3d 5dbd 613e efb6 133e
00000200: 0a1f d7bd 800c a63a b827 883d 10c5 1d3d
00000210: 20b5 7fbd 0643 edbd 006e 753d 268a febd
00000220: cac9 d73d 3297 cbbd 16dc fdbd 3264 d7bd
00000230: 184b ea3d 6e44 ccbd 5288 a23d ec05 3d3d
00000240: 32eb ccbd a89b 94bc d0d1 dbbd 3afd 8ebd
00000250: 8ea5 9b3d 2c0e 94bd 0c9f 3d3d 4cd0 103d
00000260: 4cb0 abbd f4b6 123d 6000 42bd c079 9f3c
00000270: 36ed e4bd f05e 033c a4eb dabd 3884 b53c
00000280: 80e1 71bd b458 0dbd f827 48bd e47a aa3d
00000290: 5418 f6bd d036 293c d860 b33c 90f5 3abd
000002a0: 1005 b43c aeb5 e2bd 128d d63d e0b0 e2bd
000002b0: dcf8 823d c47c 4ebd 14dc 70bd 1011 cdbc
000002c0: 0c06 e3bd fc89 44bd e4b8 74bd 60c7 e2bb
000002d0: 7668 b6bd fa28 81bd ca8c b23d b0ab 3abc
000002e0: 705a 39bd 5400 c6bd 1005 533d 3420 9ebd
000002f0: e4a2 d6bd 783f 223d e03b 03bd 1014 2abc
00000300: cdc5 d33d cf49 033e 613a cd3d 10d8 f83d
00000310: 6f8c 0abd 6953 fc3c c52e 78bd 3f55 20be
00000320: 7563 40bd b133 a4bd f9ab c4bc 2cc2 123e
00000330: 106c 573d d93b 01bd d1e0 5abd 81f3 273e
00000340: 00af 7d3d a86e 14bd 8f6f f83b 51ec a23c
00000350: 015e e03c d2dc 6b3d 4ed9 3e3d 2a2b 463e
00000360: 2b83 a6bc 743b 603d d62b 573d 36d9 89bd
00000370: 64e9 253e 12af c83d ac6b bbbd af1a 1ebd
00000380: a428 143e 9692 023e 3053 0a3e 4a86 753d
00000390: b02a 483c c9b0 0c3d b70f 863c 9f25 043e
000003a0: 5110 3dbc f0e3 123e e505 7a3e 1c33 453e
000003b0: 41f2 07bd 9361 553c 2cbd 9d3d 98f4 15bd
000003c0: 949e e3bc 1224 1fbd d108 48bd d68a d63c
000003d0: 3096 bebd 1509 bfbd b14a a1bc 81ee 03bd
000003e0: 7b79 6bbd 1e2a 783d 96c1 783e d7b0 1c3e
000003f0: 8d20 52bd 768e 7ebd 3f41 0b3c 4304 823d

fc.1.bias f4 [64]
-0.006887705 0.08589527 -0.061378866 0.20258655 0.1694406 0.10865305 0.08348937 0.04413975
0.0022704236 -0.04640038 0.024207825 0.04266886 -0.030860333 -0.05799711 0.12569946 -0.14945193
0.12433439 0.0466608 -0.11977719 0.0133719 -0.08633819 -0.06235353 0.069405764 -0.02997815
0.087919794 -0.059213627 -0.09776937 0.07722328 0.047533177 0.047759693 0.1321842 -0.0726331
0.06777072 0.027418017 -0.03587185 -0.03989629 -0.080766805 0.0019816163 0.11571927 -0.07179142
-0.04940638 0.098325044 0.07902874 0.16515148 -0.13973449 0.17216347 0.051101778 -0.09345181
-0.058186885 -0.18300979 0.08124048 0.013337389 0.0451855 -0.020277182 -0.03149452 0.05471954
0.10611316 -0.059024554 0.07687517 0.08350048 0.0706287 0.12908885 0.050631285 0.07283187
00000000: 42b2 e1bb dce9 af3d 6868 7bbd d972 4f3e
00000010: d681 2d3e 7e85 de3d 7afc aa3d e2cb 343d
00000020: 63cb 143b 530e 3ebd 7d4f c63c 8bc5 2e3d
00000030: cfce fcbc 618e 6dbd 5cb7 003e ed09 19be
00000040: 07a3 fe3d 651f 3f3d be4d f5bd d015 5b3c
00000050: 14d2 b0bd 6a66 7fbd 9c24 8e3d bd94 f5bc
00000060: 4b0f b43d fd89 72bd 4f3b c8bd 3d27 9e3d
00000070: 26b2 423d ab9f 433d 4c5b 073e aac0 94bd
00000080: 60cb 8a3d c09b e03c 5cee 12bd 4b6a 23bd
00000090: 1169 a5bd 01de 013b 3afe ec3d 6107 93bd
000000a0: 585e 4abd a45e c93d d2d9 a13d 781d 293e
000000b0: 8f16 0fbe 9f4b 303e 1950 513d aa63 bfbd
000000c0: 5f55 6ebd eb66 3bbe 6961 a63d 1085 5a3c
000000d0: 6e14 393d 551c a6bc 6600 01bd 9921 603d
000000e0: db51 d93d bbc3 71bd bb70 9d3d 4d02 ab3d
000000f0: c8a5 903d de2f 043e c062 4f3d e028 953d

fc.2.weight f4 [64, 64]
0.0454825 -0.027213901 -0.07931553 0.172232 0.050671335 -0.050067496 -0.05199763 0.07585177
0.008511385 -0.019684082 -0.032338534 0.06292714 -0.03960537 -0.071424715 -0.1871402 -0.021908203
0.12087919 0.019346751 9.7628545e-05 0.08077657 0.048828747 -0.009206472 -0.04424073 -0.12069256
0.18066815 0.07677994 -0.086192936 0.013793007 -0.026600026 -0.17113824 0.02468851 -0.005254756
-0.002924955 0.038401946 0.0893573 -0.01674734 -0.057577234 0.1263161 -0.05980545 -0.016324233
0.1116251 0.108449675 0.08000071 -0.058720775 0.088416584 0.19232152 0.13414039 -0.07721625
-0.089098975 -0.19707064 0.054956023 0.087983705 -0.19899455 0.05540461 0.17187746 0.08725738
0.013303069 -0.04289825 0.007125757 0.029228712 0.0019249428 0.14095646 0.11293224 0.13137817
0.2309497 0.06290087 0.028950036 0.14374582 0.13566458 -0.067330055 0.12012385 -0.0061393497
-0.00090791716 -0.02472055 0.038274053 0.03491008 -0.022623979 0.022877766 0.039743096 0.12477086
-0.046196103 0.18371859 0.11263871 -0.08590793 0.121927954 0.029225808 0.07922165 0.011057537
0.07671223 -0.12313084 0.0028489088 0.038646437 -0.07038903 -0.05759597 0.017202262 0.02379879
-0.1130405 0.115188874 -0.1230049 -0.076612644 0.10511428 0.16435021 0.035630785 -0.06323392
0.084843345 0.21400735 0.23823527 0.13071269 0.013031101 0.05856732 -0.076735586 0.010785912
-0.023191525 0.09501914 -0.12387053 -0.03880632 0.14635701 0.0012469769 -0.14976802 0.0027967086
0.12696919 -0.050717082 0.050659813 0.23370221 -0.101982415 0.101589516 0.056097995 -0.10691271
-0.009223379 -0.060151942 0.08368312 0.16442941 0.15199265 0.039174806 0.06973061 -0.019489858
-0.059262782 0.09954381 0.18017453 0.11187363 0.172483 0.100638255 -0.008990966 -0.017823538
0.02906333 0.115702584 0.024260871 0.10659224 0.040407993 0.07620262 0.013468083 0.080260135
0.06963352 -0.04644436 -0.01102879 0.09415288 0.086122766 0.018503001 -0.15325299 -0.01499078
-0.010890833 0.04228653 -0.1149776 0.12083167 0.0036859363 -0.02391466 -0.041894045 -0.028082283
0.026043713 0.15743774 -0.013306454 -0.098683216 -0.14816238 -0.099457644 -0.057735488 0.07795993
-0.01513509 0.036887072 0.07963215 -0.025946481 -0.108268484 0.029393509 -0.11050386 0.049579307
-0.045202557 0.12131966 0.03255924 0.06473077 0.032448962 0.05463129 -0.016702881 0.0915864
-0.09316522 -0.11946324 0.11263925 -0.08794887 0.124079086 0.09104224 0.064562425 -0.05675263
-0.12783775 0.13369259 0.15461653 0.15971301 -0.008906187 -0.06419666 -0.025051486 0.06287294
0.022062585 -0.022060316 0.05247793 0.07612652 -0.066377394 -0.038954847 -0.011544034 0.06370168
0.10689756 -0.0462207 0.035520468 0.10301915 0.029688315 0.0825536 -0.074512094 0.14019012
0.06641517 0.09015969 0.085072204 0.014839083 -0.08982427 -0.17312628 -0.08417355 0.15998967
0.07951631 0.028232727 0.014118133 -0.12994142 0.09442273 0.11952355 0.076256186 -0.12814228
0.087009825 0.076615684 0.14561464 0.06829087 -0.03564692 -0.037788693 0.21250796 -0.046008773
0.09140643 -0.026189737 -0.005141822 -0.14352597 0.095355384 -0.12853065 0.09025314 0.17456785
00000000: dc4b 3a3d b0ef debc 2e70 a2bd 965d 303e
00000010: bf8c 4f3d 9313 4dbd 78fb 54bd 2c58 9b3d
00000020: 5673 0b3c 8340 a1bc 6975 04bd f2df 803d
00000030: 3e39 22bd 1f47 92bd aea1 3fbe d578 b3bc
00000040: 828f f73d 147d 9e3c edbd cc38 306e a53d
00000050: a700 483d bed6 16bc c535 35bd a92d f7bd
00000060: 1201 393e cd3e 9d3d ec85 b0bd 10fc 613c
00000070: 4ce8 d9bc dd3e 2fbe 8f3f ca3c 1730 acbb
00000080: 9ab0 3fbb 5c4b 1d3d f600 b73d b831 89bc
00000090: 1bd6 6bbd 0259 013e 8ff6 74bd 66ba 85bc
000000a0: b39b e43d dd1a de3d 6ad7 a33d 3285 70bd
000000b0: c113 b53d efef 443e 195c 093e 8e23 9ebd
000000c0: 8679 b6bd e3cc 49be 9119 613d cd30 b43d
000000d0: 3ac5 4bbe f2ef 623d a500 303e ffb3 b23d
000000e0: 1ef5 593c 13b6 2fbd 2f7f e93b 0d71 ef3c
000000f0: 5d4e fc3a e456 103e 0549 e73d 0088 063e
00000100: 147e 6c3e 2cd2 803d a028 ed3c 1b32 133e
00000110: a8eb 0a3e 57e4 89bd 7e03 f63d 992c c9bb
00000120: 4a01 6eba c082 cabc 41c5 1c3d dffd 0e3d
00000130: ec55 b9bc 276a bb3c a8c9 223d dd87 ff3d
00000140: 2038 3dbd ba20 3c3e 20af e63d 7ff0 afbd
00000150: 5db5 f93d f66a ef3c f63e a23d ac2a 353c
00000160: 4d1b 9d3d 062c fcbd c2b4 3a3b ba4b 1e3d
00000170: 2028 90bd c0e9 6bbd c2eb 8c3c aef5 c23c
00000180: c781 e7bd 25e8 eb3d fee9 fbbd 17e7 9cbd
00000190: 2846 d73d 6c4b 283e 96f1 113d c980 81bd
000001a0: 59c2 ad3d be24 5b3e f2f3 733e 8cd9 053e
000001b0: 6680 553c 49e4 6f3d 8c27 9dbd 65b7 303c
000001c0: 27fc bdbc 6599 c23d d5af fdbd 60f3 1ebd
000001d0: 9dde 153e 9a71 a33a ca5c 19be fc48 373b
000001e0: 3604 023e b7bc 4fbd aa80 4f3d a24f 6f3e
000001f0: 28dc d0bd 2a0e d03d 03c7 653d 0df5 dabd
00000200: a81d 17bc e261 76bd 0e62 ab3d 2f60 283e
00000210: f6a3 1b3e c375 203d ecce 8e3d 32a9 9fbc
00000220: 88bd 72bd a0dd cb3d ac7f 383e 001e e53d
00000230: 629f 303e 6e1b ce3d d84e 13bc ab02 92bc
00000240: 3816 ee3c 7af5 ec3d bcbe c63c 084d da3d
00000250: da82 253d 1f10 9c3d 3ca9 5c3c 6d5f a43d
00000260: 059c 8e3d 713c 3ebd 19b2 34bc 3ad3 c03d
00000270: 2261 b03d 9b93 973c 5aee 1cbe e39b 75bc
00000280: 776f 32bc a434 2d3d 6079 ebbd 9876 f73d
00000290: c08f 713b ade8 c3bc 1799 2bbd d10c e6bc
000002a0: a059 d53c 5c37 213e 5003 5abc 6d1a cabd
000002b0: e1b7 17be 73b0 cbbd 0c7c 6cbd 75a9 9f3d
000002c0: 2bf9 77bc e616 173d 2e16 a33d b78d d4bc
000002d0: debb ddbd a8ca f03c d94f e2bd ac13 4b3d
000002e0: 5126 39bd 7176 f83d d65c 053d 9191 843d
000002f0: 34e9 043d 0fc5 5f3d 7bd4 88bc a791 bb3d
00000300: 68cd bebd 25a9 f4bd 68af e63d 8a1e b4bd
00000310: 2d1d fe3d 5b74 ba3d 4e39 843d 7275 68bd
00000320: e6e7 02be b6e6 083e cc53 1e3e cf8b 233e
00000330: 41eb 11bc 8a79 83bd c638 cdbc 87c3 803d
00000340: 98bc b43c d6b7 b4bc 19f3 563d 39e8 9b3d
00000350: dff0 87bd 1e8f 1fbd 3023 3dbc 0776 823d
00000360: 1ced da3d eb51 3dbd e97d 113d b4fb d23d
00000370: e934 f33c dd11 a93d cc99 98bd 008e 0f3e
00000380: ad04 883d a5a5 b83d 563a ae3d a01f 733c
00000390: c9f5 b7bd 0448 31be 2f63 acbd 55d4 233e
000003a0: 72d9 a23d 5248 e73c be4f 673c 5d0f 05be
000003b0: b460 c13d c3c8 f43d 342c 9c3d bb37 03be
000003c0: 3532 b23d afe8 9c3d 011c 153e 15dc 8b3d
000003d0: 8102 12bd 51c8 1abd b09b 593e b273 3cbd
000003e0: 4b33 bb3d dc8b d6bc bb7c a8bb 79f8 12be
000003f0: af49 c33d 8a9d 03be a3d6 b83d eac1 323e

fc.2.bias f4 [64]
0.11117133 0.13674153 0.07771848 0.058320947 0.10356287 0.06431453 0.07098591 0.106459126
0.013285716 0.05220607 -0.048104126 0.033800572 0.014528267 0.06495161 -0.078296214 -0.015632462
0.07301198 0.08726394 0.058616146 -0.05742894 0.14844145 0.0260456 -0.034870096 0.025133917
-0.03221187 0.077358685 -0.053046353 0.05063103 -0.063520074 -0.0617546 0.050607096 0.032405034
0.14893895 0.05002549 0.06031301 -0.1022638 0.09835123 -0.13497114 0.019836621 -0.05642326
0.12709056 0.002955426 -0.033205625 -0.09674165 -0.09810373 -0.061728094 0.16924638 0.054519136
0.093522325 -0.11368499 0.028902177 0.14942063 -0.049485877 -0.08839589 0.08528285 -0.0065075555
0.11563495 0.021938894 -0.11372722 0.0062617804 -0.053677853 -0.029688057 0.10692075 0.07261747
00000000: cbad e33d f905 0c3e de2a 9f3d f2e1 6e3d
00000010: c518 d43d 56b7 833d 1061 913d 3e07 da3d
00000020: 55ac 593c 08d6 553d d508 45bd 7872 0a3d
00000030: f807 6e3c 5a05 853d c459 a0bd a60f 80bc
00000040: 4e87 953d 70b7 b23d 7c17 703d 9c3a 6bbd
00000050: 0901 183e 955d d53c f2d3 0ebd a5e5 cd3c
00000060: 98f0 03bd 3b6e 9e3d 2247 59bd 7c62 4f3d
00000070: d016 82bd 64f2 7cbd 6349 4f3d 24bb 043d
00000080: 7483 183e 87e7 4c3d c60a 773d af6f d1bd
00000090: 5f6c c93d e035 0abe 6980 a23c 141c 67bd
000000a0: 0724 023e d2af 413b 9f02 08bd 7c20 c6bd
000000b0: 9cea c8bd 99d6 7cbd ec4e 2d3e 754f 5f3d
000000c0: a288 bf3d add3 e8bd 42c4 ec3c b901 193e
000000d0: b4b1 4abd e808 b5bd c6a8 ae3d 553d d5bb
000000e0: 04d2 ec3d 32b9 b33c d1e9 e8bd 9f2f cd3b
000000f0: 4fdd 5bbd 5e34 f3bc 44f9 da3d 78b8 943d

fc.3.weight f4 [6, 64]
-0.1677072 0.16125603 0.0605902 -0.03959006 -0.0797955 -0.11099198 -0.16851103 -0.035827965
0.10307957 -0.14311703 0.102081314 0.15635714 0.04368822 -0.09248634 -0.102843136 -0.10499476
0.11705645 0.14403276 -0.04691276 0.09981083 0.059625432 0.15778948 0.0020629468 -0.035468053
-0.100247666 0.050605886 0.0741655 -0.18433991 -0.054758232 0.07898019 -0.014348122 -0.0652102
-0.15696253 -0.0052350354 -0.055046752 -0.01951837 0.057544637 -0.031056935 0.095891885 -0.099841766
-0.19436018 0.17039305 -0.047430854 -0.08544837 -0.010748386 0.076314636 0.0016219369 0.10242529
-0.12507848 0.121296965 -0.053472493 0.0077136997 -0.068814516 -0.08252164 0.10880504 0.073473245
-0.108658135 0.05250478 0.013497362 0.031219782 -0.082962014 0.05456663 -0.10592141 0.105635636
-0.21275918 -0.17189683 -0.010412222 0.09769527 0.059696406 0.06803241 -0.03044561 -0.16266476
-0.13276616 -0.073576696 0.07557278 0.2100073 0.14980428 -0.0040633306 0.031842697 0.07683658
-0.09852997 -0.10650484 0.11636478 0.020697389 -0.064206615 0.031097902 -0.09000449 0.08335967
0.008856886 0.07317473 0.14930835 0.09897206 -0.044410385 0.15094773 -0.13963778 -0.14741632
0.025755879 -0.004912906 0.14303918 -0.07015482 -0.10649099 0.13478944 0.031217653 0.05274579
-0.01844822 0.022422435 0.08351473 -0.09139963 0.04005122 0.13112073 0.092305005 -0.04182403
-0.10524848 0.002890873 -0.033533193 0.038639884 -0.12129763 -0.0723699 0.12086662 -0.060964447
-0.0018915405 0.019378876 0.0771435 -0.04284098 0.033411615 0.021456758 -0.09858084 0.050526667
-0.085931264 -0.052875493 -0.1005043 0.12908474 -0.14556934 -0.0658738 -0.048049476 -0.06760666
0.12823321 -0.11064745 0.0982368 -0.023305867 0.11468824 -0.043482494 -0.061873578 -0.035922702
-0.03403763 0.043199126 -0.08655086 -0.08320214 0.0990275 -0.04609247 -0.10752858 0.07654625
0.086556554 0.016684083 -0.1671976 0.1525546 -0.09485571 -0.0024082018 -0.0826645 0.040823024
0.058728397 0.00025463008 -0.0059052915 -0.07372524 -0.13110675 0.074140176 -0.058051225 -0.14044213
-0.031009717 0.14431767 -0.05921832 0.11374521 0.004348144 -0.048950575 -0.092079446 -0.09121696
-0.05296771 0.1001953 0.0023647249 -0.15680471 -0.07981259 0.071350664 0.078742415 0.041064005
0.043285444 0.16482864 0.019997403 0.063969485 0.03831741 0.07047504 0.22829829 -0.086418815
-0.11256889 -0.018696534 -0.012929048 0.006244278 0.043189935 0.12971897 -0.052986294 0.23359199
-0.047058407 -0.07786466 -0.10288256 -0.18642198 0.13274449 0.11080651 -0.08681102 -0.0793052
0.081562944 -0.17676556 0.054931328 0.084879115 -0.06121481 0.013717735 -0.00012895082 0.031788543
0.0780933 0.09763666 0.13710466 0.06855467 0.0648608 -0.10622363 0.15720403 0.10520372
0.19427626 -0.052993998 0.09644643 0.09617996 0.0736766 -0.049229052 -0.051923387 -0.052421436
-0.117799245 0.022919096 -0.13356413 0.047866955 0.11846396 -0.11551622 -0.06716659 -0.08270041
-0.056929007 0.06699158 -0.043500938 0.08725968 -0.09230672 0.09329938 -0.032612875 -0.07561791
0.030486342 0.09218601 -0.087195866 0.09809406 0.057824578 -0.086400874 -0.02663668 0.12388834
00000000: 70bb 2bbe 4d20 253e 6e2d 783d 3029 22bd
00000010: d36b a3bd c34f e3bd 288e 2cbe 58c0 12bd
00000020: 621b d33d 458d 12be 0210 d13d 161c 203e
00000030: 6bf2 323d 7a69 bdbd 6c9f d2bd 7e07 d7bd
00000040: 4bbb ef3d 537d 133e 9827 40bd 9f69 cc3d
00000050: cc39 743d 9193 213e 8132 073b f346 11bd
00000060: a64e cdbd 1e48 4f3d 15e4 973d 9ac3 3cbe
00000070: 2b4a 60bd 5ec0 a13d 6314 6bbc ed8c 85bd
00000080: c9ba 20be a98a abbb b478 61bd fde4 9fbc
00000090: edb3 6b3d 1d6b febc f762 c43d d779 ccbd
000000a0: 5b06 47be 847b 2e3e db46 42bd 8eff aebd
000000b0: 001a 30bc d94a 9c3d 2c97 d43a 5ac4 d13d
000000c0: 9314 00be 8b6a f83d f905 5bbd 34c3 fc3b
000000d0: a0ee 8cbd 1b01 a9bd 2dd5 de3d 2479 963d
000000e0: 2888 debd 410f 573d 0a24 5d3c a1c0 ff3c
000000f0: fde7 a9bd 4281 5f3d 53ed d8bd 7f57 d83d
00000100: 8bdd 59be b905 30be 0698 2abc 7514 c83d
00000110: 3884 743d 9454 8b3d 1269 f9bc 9791 26be
00000120: daf3 07be 61af 96bd e7c5 9a3d 270c 573e
00000130: 4b66 193e b025 85bb 7d6d 023d 7f5c 9d3d
00000140: 15ca c9bd 361f dabd a850 ee3d 928d a93c
00000150: c27e 83bd 07c1 fe3c 4654 b8bd 7ab8 aa3d
00000160: 791c 113c a2dc 953d 4ae4 183e ddb1 ca3d
00000170: aae7 35bd 0b92 1a3e 35fd 0ebe 4ef4 16be
00000180: fefd d23c 71fc a0bb dd78 123e 55ad 8fbd
00000190: f317 dabd 3e06 0a3e 2abc ff3c f80b 583d
000001a0: b920 97bc 41af b73c c509 ab3d bb2f bbbd
000001b0: c00c 243d 8344 063e 680a bd3d ad4f 2bbd
000001c0: 848c d7bd cd74 3d3b 1a5a 09bd db44 1e3d
000001d0: e46a f8bd ac36 94bd eb88 f73d dbb5 79bd
000001e0: 91ed f7ba 73c0 9e3c 69fd 9d3d 067a 2fbd
000001f0: 9eda 083d 15c6 af3c c0e4 c9bd 0df5 4e3d
00000200: bbfc afbd f993 58bd 33d5 cdbd ca2e 043e
00000210: 2110 15be d8e8 86bd 87cf 44bd 5c75 8abd
00000220: 914f 033e 219b e2bd 6030 c93d f2eb bebc
00000230: abe1 ea3d b31a 32bd 266f 7dbd af23 13bd
00000240: 0b6b 0bbd 91f1 303d 9441 b1bd e265 aabd
00000250: eece ca3d 75cb 3cbd f237 dcbd 48c4 9c3d
00000260: 9044 b13d 0fad 883c d935 2bbe 4637 1c3e
00000270: b643 c2bd ecd2 1dbb 014c a9bd 0b36 273d
00000280: 308d 703d df7f 8539 2d81 c1bb 42fd 96bd
00000290: d940 06be ced6 973d 1fc7 6dbd 10d0 0fbe
000002a0: 1708 febc 03c8 133e e98e 72bd 40f3 e83d
000002b0: e07a 8e3b 6680 48bd 2694 bcbd f5cf babd
000002c0: abf4 58bd 3233 cd3d 80f9 1a3b 6a91 20be
000002d0: c874 a3bd 4c20 923d b443 a13d bb32 283d
000002e0: 144c 313d d7c8 283e 98d1 a33c 6f02 833d
000002f0: b7f2 1c3d 3855 903d 07c7 693e 59fc b0bd
00000300: 858a e6bd 7929 99bc 5cd4 53bc cd9c cc3b
00000310: eee7 303d 0dd5 043e 2808 59bd bd32 6f3e
00000320: 51c0 40bd 8277 9fbd 17b4 d2bd 67e5 3ebe
00000330: 2cee 073e 86ee e23d fac9 b1bd c46a a2bd
00000340: 790a a73d 0802 35be acff 603d 1ad5 ad3d
00000350: 61bc 7abd 5ac0 603c f936 07b9 b434 023d
00000360: 61ef 9f3d bbf5 c73d 2a65 0c3e 6466 8c3d
00000370: bdd5 843d c68b d9bd 18fa 203e 0c75 d73d
00000380: 5bf0 463e 3c10 59bd b585 c53d 00fa c43d
00000390: c2e3 963d 67a4 49bd 9ead 54bd dcb7 56bd
000003a0: bb40 f1bd d4c0 bb3c 09c5 08be 2410 443d
000003b0: 3c9d f23d c593 ecbd a38e 89bd d55e a9bd
000003c0: 642e 69bd e232 893d 0a2e 32bd 34b5 b23d
000003d0: 4e0b bdbd bf13 bf3d 1495 05bd 90dd 9abd
000003e0: 7ebe f93c 05cc bc3d bf93 b2bd 8ae5 c83d
000003f0: 77d9 6c3d f1f2 b0bd 2b35 dabc 2cb9 fd3d

fc.3.bias f4 [6]
0.03238337 0.065189764 0.13379477 0.07643332 0.0078964615 -0.057996992
00000000: 6da4 043d 3682 853d 7f01 093e 1389 9c3d
00000010: 2960 013c 418e 6dbd
