result/test/P.pt (torch, 22423 bytes, 6 tensors)

fc.0.weight f4 [64, 8]
0.09960032 0.27653602 -0.1581871 -0.085570686 0.29235843 -0.0044368757 -0.069271065 0.20966727
0.049283497 0.26124638 -0.3794228 0.34116915 -0.040523455 0.10418477 -0.20821953 -0.40886667
-0.34264997 -0.14744063 0.20128824 -0.17586695 0.29801196 -0.05025691 -0.06707047 0.12909588
0.33263525 0.31678367 0.11559319 0.27106005 0.35808775 -0.099326916 0.024581036 0.14747013
-0.08465797 0.11888652 0.09807125 -0.29982257 -0.08485155 0.22037819 0.016893553 -0.0033607897
-0.06616863 0.0635464 0.049109686 -0.06535479 0.04606999 -0.2924702 0.33175313 -0.21541381
0.055106 0.1531152 -0.023817753 0.022224735 0.15939525 -0.35288626 -0.09451199 0.27230126
-0.18783008 -0.28511137 0.24372616 0.27985343 -0.052637536 0.1374729 -0.16352905 -0.16660185
-0.31681347 0.28732827 -0.19281879 0.1982523 0.21412723 0.030968376 0.07702303 -0.18459564
0.319633 0.07489053 -0.33087477 0.24910662 0.1766478 0.34481028 0.26682723 -0.23513386
-0.18624468 0.19290069 -0.074502714 0.034337096 -0.176972 0.10145556 0.16896635 -0.20069112
-0.43260822 0.17396365 0.24606542 -0.13956892 -0.053381614 0.08825556 -0.11066891 0.2957189
0.046534713 0.10494556 0.41769087 0.07317843 0.02292307 0.268771 0.40044895 -0.17609939
0.22205338 -0.10122201 0.38232782 0.2640298 0.15315942 0.07789276 -0.33056185 0.26341224
0.24269988 0.0006597668 0.33163247 -0.264153 0.058258027 0.08710991 0.12375752 -0.09861051
-0.33816347 0.09617902 -0.2925108 0.20629436 0.3180472 0.21277285 0.071129255 -0.07900279
-0.15589154 -0.22746468 -0.1558481 0.06567915 -0.2883966 -0.10912737 -0.09305143 0.32149822
-0.2438294 0.16311526 -0.23739305 0.33032936 0.051078223 0.34552678 0.29621488 -0.34313685
0.34455898 -0.25806013 0.19444402 -0.17104758 0.25002745 -0.26853117 0.13278832 -0.02197583
-0.24677756 0.27567902 0.29196587 0.080793284 0.0868326 0.0034382774 -0.3474327 -0.0829452
-0.1087477 0.31759447 -0.18036759 -0.29122686 -0.35854656 -0.33168706 -0.3631336 0.036202013
-0.03353557 0.18578836 0.22036128 0.22952715 0.16339998 -0.15929659 -0.3323053 0.16965657
-0.0038515895 -0.2231388 0.14809363 -0.07267508 -0.07444127 -0.29971945 -0.23801509 0.24741732
0.26159808 -0.30138394 0.19378337 -0.26256406 0.032316223 0.12910308 0.087467015 0.32905668
-0.058564357 0.04062471 0.14168468 0.1057942 -0.16683622 -0.35361564 -0.2767059 -0.12458033
0.021211522 -0.41245714 -0.1784034 0.25261992 0.24399917 0.122257814 -0.11240061 0.081499696
-0.14963014 0.12547283 0.20856719 -0.25105438 -0.21213433 -0.1623703 -0.2584006 0.13604161
-0.17818044 -0.13679363 0.22656797 -0.07293642 0.0784529 0.17148592 0.20662615 -0.08386266
-0.24114762 -0.35284254 -0.046025243 -0.080935605 -0.25399303 0.22364078 -0.112626664 0.0254395
-0.17509912 -0.061876968 -0.08446498 0.0917421 0.25518745 -0.20436151 -0.21214856 0.1642141
0.18278311 -0.2843634 -0.33950555 0.083287805 0.14851928 -0.08311741 -0.32971355 -0.16113707
-0.4761423 0.120823435 0.17905286 0.30628353 -0.15397738 -0.12239181 0.3835329 0.48671874
00000000: 41fb cb3d 2196 8d3e cdfb 21be af3f afbd
00000010: 01b0 953e 3663 91bb fddd 8dbd 04b3 563e
00000020: 7edd 493d 16c2 853e b543 c2be b9ad ae3e
00000030: ecfb 25bd d35e d53d 8037 55be f956 d1be
00000040: d16f afbe adfa 16be 811e 4e3e 7716 34be
00000050: 0695 983e 31da 4dbd 3e5c 89bd b631 043e
00000060: 2b4f aa3e 7831 a23e 1fbc ec3d 62c8 8a3e
00000070: 4757 b73e e96b cbbd 2b5e c93c 6902 173e
00000080: 2861 adbd c77a f33d 94d9 c83d 5882 99be
00000090: a6c6 adbd d2aa 613e 5964 8a3c b240 5cbb
000000a0: 6b83 87bd 9d24 823d 3d27 493d bbd8 85bd
000000b0: e3b3 3c3d a7be 95be 8cdb a93e 7095 5cbe
000000c0: d4b6 613d 3bca 1c3e 731d c3bc a610 b63c
000000d0: 8238 233e 82ad b4be 818f c1bd 126b 8b3e
000000e0: 8756 40be 1efa 91be 5a93 793e f348 8f3e
000000f0: 759a 57bd b2c5 0c3e 2974 27be ad99 2abe
00000100: 6035 a2be b11c 933e 4a72 45be a702 4b3e
00000110: 2b44 5b3e 64b1 fd3c 40be 9d3d a406 3dbe
00000120: f0a6 a33e 3560 993d 6b68 a9be ce15 7f3e
00000130: 29e3 343e f98a b03e 949d 883e eec6 70be
00000140: edb6 3ebe c287 453e e194 98bd 0ea5 0c3d
00000150: 2638 35be efc7 cf3d 8405 2d3e f981 4dbe
00000160: d37e ddbe 8723 323e 93f8 7b3e 28eb 0ebe
00000170: aea6 5abd 55bf b43d 62a6 e2bd 7868 973e
00000180: 2f9b 3e3d b3ed d63d 94db d53e 93de 953d
00000190: 29c9 bb3c 5a9c 893e a507 cd3e 6653 34be
000001a0: f661 633e 7c4d cfbd 79c0 c33e ea2e 873e
000001b0: d3d5 1c3e 3d86 9f3d 673f a9be f8dd 863e
000001c0: 5186 783e 33f4 2c3a bbcb a93e 103f 87be
000001d0: f89f 6e3d ae66 b23d 9574 fd3d 4ff4 c9bd
000001e0: c323 adbe 82f9 c43d fac3 95be d43e 533e
000001f0: 15d7 a23e 20e1 593e 37ac 913d 37cc a1bd
00000200: 08a2 1fbe 80ec 68be a596 1fbe ca82 863d
00000210: b8a8 93be 2c7e dfbd c091 bebd 6a9b a43e
00000220: 6aae 79be b007 273e 2a17 73be ee20 a93e
00000230: 6637 513d e3e8 b03e 7aa9 973e a2af afbe
00000240: 096a b03e 7520 84be 551c 473e 1927 2fbe
00000250: 9903 803e eb7c 89be a9f9 073e a806 b4bc
00000260: 42b3 7cbe cd25 8d3e 8d7c 953e f376 a53d
00000270: 4ad5 b13d b954 613b b3e2 b1be 2cdf a9bd
00000280: 1db7 debd be9b a23e 48b2 38be b01b 95be
00000290: 6a93 b7be e3d2 a9be a6ec b9be 9048 143d
000002a0: 985c 09bd 4e3f 3e3e 63a6 613e 2a09 6b3e
000002b0: 5352 273e a51e 23be ec23 aabe 74ba 2d3e
000002c0: f36a 7cbb 7f7e 64be dba5 173e acd6 94bd
000002d0: aa74 98bd d474 99be 3aba 73be f75a 7d3e
000002e0: 2ff0 853e ff4e 9abe 266f 463e cc6e 86be
000002f0: 045e 043d 9933 043e e821 b33d 1e7a a83e
00000300: 2ee1 6fbd 1966 263d ca15 113e a1aa d83d
00000310: 1dd7 2abe 1c0d b5be 65ac 8dbe f923 ffbd
00000320: c9c3 ad3c 952d d3be 62af 36be 6657 813e
00000330: ebda 793e 4e62 fa3d 4b32 e6bd 50e9 a63d
00000340: a538 19be f37b 003e a392 553e 338a 80be
00000350: be39 59be 6644 26be 154d 84be 7e4e 0b3e
00000360: ef74 36be a113 0cbe 6f01 683e b15f 95bd
00000370: eaab a03d 019a 2f3e ce95 533e 30c0 abbd
00000380: 67ef 76be c7a7 b4be f784 3cbd 91c1 a5bd
00000390: 600b 82be 1702 653e cfa8 e6bd 8066 d03c
000003a0: 2f4d 33be b472 7dbd fafb acbd 48e3 bb3d
000003b0: eea7 823e 2544 51be 793d 59be be27 283e
000003c0: 7f2b 3b3e 1498 91be acd3 adbe cc92 aa3d
000003d0: 7015 183e 7639 aabd 37d0 a8be 1e01 25be
000003e0: ecc8 f3be 4772 f73d a259 373e 32d1 9c3e
000003f0: 3fac 1dbe 8fa8 fabd 6d5e c43e 3333 f93e

fc.0.bias f4 [64]
-0.05771902 -0.2311404 -0.16305478 0.124907814 0.007098077 -0.33991224 0.31454527 0.11251851
-0.0045609963 -0.23009828 -0.30356938 -0.1901051 -0.10904967 0.26991 -0.21147628 -0.119458795
0.104277305 0.15345204 -0.3123379 0.03818816 -0.10633711 0.22558533 0.12413205 -0.06999453
-0.071407825 0.13618833 0.090228155 0.2804827 0.33152705 -0.06047318 0.32748157 -0.33230922
-0.02222104 0.10212278 -0.117437474 0.17741929 -0.11422951 0.12576038 0.03675437 0.29589373
-0.2460999 0.19430831 -0.04073278 0.19175611 0.33847454 -0.12682256 0.17882049 -0.28287303
0.21588652 -0.29354674 -0.07869061 -0.017782263 -0.343085 0.29048893 0.4013379 -0.17056927
-0.15361805 -0.17856418 0.18986721 -0.087082006 -0.22337031 -0.31261483 -0.21858308 -0.067193225
00000000: c76a 6cbd 12b0 6cbe d5f7 26be abcf ff3d
00000010: fc96 e83b fa08 aebe 140c a13e 1b70 e63d
00000020: 6974 95bb e29e 6bbe 726d 9bbe e9aa 42be
00000030: 6f55 dfbd a531 8a3e 3d8d 58be d0a6 f4bd
00000040: 578f d53d 8822 1d3e c1ea 9fbe 306b 1c3d
00000050: 45c7 d9bd d7ff 663e f238 fe3d 4b59 8fbd
00000060: 443e 92bd f474 0b3e 8ac9 b83d 6e9b 8f3e
00000070: eabd a93e bab2 77bd aaab a73e 6f24 aabe
00000080: e608 b6bc c025 d13d 0f83 f0bd 67ad 353e
00000090: 29f1 e9bd 54c7 003e c08b 163d 627f 973e
000000a0: 9d01 7cbe c2f8 463e 6ad7 26bd b75b 443e
000000b0: 894c ad3e c6dd 01be b81c 373e bcd4 90be
000000c0: 5b11 5d3e c24b 96be 8b28 a1bd 1cac 91bc
000000d0: d6a8 afbe f7ba 943e 297c cd3e b6a9 2ebe
000000e0: 0d4e 1dbe 87d9 36be 8d6c 423e 0d58 b2bd
000000f0: 30bb 64be 0d0f a0be 3ed4 5fbe 9a9c 89bd

fc.1.weight f4 [64, 64]
0.09095441 -0.109543815 -0.095788926 -0.01149407 -0.017642751 0.0755939 -0.062729165 0.073515385
-0.08407006 0.104777694 0.11046238 -0.047414407 -0.120486796 0.11512968 -0.047072858 0.038870767
0.053470254 -0.10123922 -0.0124555975 -0.0297817 -0.051933482 0.11109349 0.094305456 -0.113544345
-0.016771525 0.034707025 0.109434485 -0.11961776 -0.09633544 -0.017798513 -0.016763866 -0.09566295
-0.069921955 -0.0845982 0.061969653 -0.005985275 -0.074358 -0.024807155 -0.10071844 0.0815679
-0.09253439 0.0031914562 0.058373883 0.032351643 -0.104085684 0.021384075 -0.07383795 -0.024963543
0.02217023 -0.08505371 0.07219975 0.010428041 0.100231394 -0.006339833 -0.12369843 0.11473349
0.100841686 -0.008666664 0.058727458 0.09490752 -0.032201752 0.030903876 -0.03919506 0.08266343
-0.051660717 -0.02196261 -0.0896724 0.0051354333 0.11520393 -0.09516484 -0.16974057 -0.072111174
-0.0014377483 -0.11385764 0.007699311 0.04204899 -0.079480976 0.02094945 0.066864565 -0.05008623
-0.11835735 -0.07694028 -0.121420726 -0.05472128 -0.06812729 -0.08909687 -0.18170066 0.004625693
-0.17659667 -0.015402287 -0.040989563 -0.121619195 -0.077399135 -0.105680585 -0.18103538 -0.104721345
0.026849702 0.041590825 0.038736984 0.004287352 -0.0066743344 -0.054699242 -0.11677647 0.035450976
0.034990527 -0.10170451 -0.07068324 -0.05834674 0.04610845 0.037172228 -0.07597958 -0.13618365
0.029229386 0.03638545 -0.050979674 0.037104983 -0.11652352 0.009014908 -0.0035011515 -0.12978823
0.007689938 -0.04949385 -0.036244355 -0.07841857 0.008545876 -0.12754431 0.0672158 0.03260736
-0.08916554 0.064846195 -0.011218891 0.028838834 -0.109632075 0.03684809 -0.05478602 0.010135442
-0.064005405 -0.17585954 -0.027044903 -0.1414487 -0.12386426 -0.15499708 0.009187609 -0.008936554
-0.16727623 0.06447775 0.023359016 -0.15796585 -0.14115603 -0.1448911 0.059542492 0.08145949
-0.087982 -0.04800037 -0.1352072 0.08748861 0.11734769 -0.08789627 -0.045157574 -0.02348124
-0.025468156 -0.057126194 -0.092765674 0.042621627 0.115222275 -0.083594605 0.03747247 -0.08844142
-0.053230226 -0.005586591 0.05640392 0.05828405 -0.0154510625 0.0012514591 -0.12678294 -0.1697957
0.0470205 -0.08133182 0.07747272 -0.06152422 -0.107289135 0.025612636 -0.068096675 -0.14512461
0.020341024 0.052317664 -0.02039983 -0.02121897 -0.05651057 -0.1079611 -0.03406617 -0.040010095
-0.005068629 0.06670894 -0.01697269 0.013628994 0.095536694 0.14249568 0.0113669885 0.072433665
-0.022736432 -0.03651139 0.012801042 0.18543749 -0.014823217 -0.044931218 0.115774155 0.11320855
-0.047404148 -0.021787245 0.002799809 0.0032232106 0.020842275 0.014252206 0.13568445 0.016870901
0.14774452 0.11047764 0.12933452 0.11412589 0.020142242 0.07191761 0.18535322 0.013024352
0.11933361 0.068134025 -0.09949821 0.0921636 -0.008773789 -0.1609328 -0.06565867 0.121086925
0.019478237 0.13248703 -0.0049210936 0.0098482985 0.14670573 -0.04159808 0.06716679 0.14223039
0.22055666 0.013902484 0.01331608 0.088553265 0.039003864 -0.017914925 0.18785794 0.20046878
-0.039644048 0.03541042 0.19477941 0.086059585 0.015286812 0.066289276 -0.035418883 0.03873833
00000000: 4e46 ba3d 8258 e0bd fc2c c4bd a051 3cbc
00000010: 8887 90bc fad0 9a3d 2678 80bd 3c8f 963d
00000020: ec2c acbd b095 d63d 1a3a e23d 9c35 42bd
00000030: c8c1 f6bd 1cc9 eb3d 78cf 40bd f436 1f3d
00000040: a003 5b3d 8256 cfbd 9012 4cbc c0f8 f3bc
00000050: 34b8 54bd fc84 e33d 3823 c13d f089 e8bd
00000060: 7064 89bc f428 0e3d 301f e03d 28fa f4bd
00000070: 844b c5bd 30ce 91bc 6054 89bc f0ea c3bd
00000080: 3e33 8fbd d241 adbd e4d3 7d3d 2020 c4bb
00000090: 0249 98bd 6038 cbbc 7845 cebd 120d a73d
000000a0: ac82 bdbd c027 513b 7419 6f3d 2883 043d
000000b0: e02a d5bd a82d af3c 5a38 97bd 5880 ccbc
000000c0: 589e b53c a430 aebd 76dd 933d 60da 2a3c
000000d0: 1e46 cd3d 60be cfbb 9a55 fdbd 64f9 ea3d
000000e0: 1686 ce3d a0fe 0dbc 348c 703d e05e c23d
000000f0: fce5 03bd 202a fd3c 008b 20bd 724b a93d
00000100: 309a 53bd eeea b3bc 2aa6 b7bd 2347 a83b
00000110: 0af0 eb3d c9e5 c2bd 79d0 2dbe 06af 93bd
00000120: d472 bcba 322e e9bd 804a fc3b 903b 2c3d
00000130: ecc6 a2bd 2e9e ab3c 4af0 883d 3827 4dbd
00000140: 5765 f2bd de92 9dbd 6eab f8bd 6c23 60bd
00000150: 5286 8bbd 6b78 b6bd bd0f 3abe 2093 973b
00000160: c2d5 34be e059 7cbc ace4 27bd 7c13 f9bd
00000170: 7083 9ebd 106f d8bd 5761 39be 2578 d6bd
00000180: e8f3 db3c 245b 2a3d acaa 1e3d ea7c 8c3b
00000190: 60b4 dabb 500c 60bd 8028 efbd 0b35 113d
000001a0: 3a52 0f3d 744a d0bd 60c2 90bd fefc 6ebd
000001b0: 37dc 3c3d e841 183d 2f9b 9bbd ba73 0bbe
000001c0: 7772 ef3c e908 153d 10d0 50bd 65fb 173d
000001d0: e2a3 eebd 44b3 133c 9373 65bb 35e7 04be
000001e0: e0fb fb3b 10ba 4abd f674 14bd ea99 a0bd
000001f0: 0004 0c3c fa9a 02be 70a8 893d 4c8f 053d
00000200: 6c9c b6bd 15ce 843d 70cf 37bc 6b3f ec3c
00000210: c886 e0bd 06ee 163d 4e67 60bd 200f 263c
00000220: 4415 83bd 8614 34be 468d ddbc eed7 10be
00000230: 8cac fdbd 8eb7 1ebe a087 163c a06a 12bc
00000240: 764a 2bbe e90c 843d 685b bf3c cdc1 21be
00000250: 358b 10be 555e 14be d4e2 733d 3cd4 a63d
00000260: e82f b4bd 099c 44bd c273 0abe 3a2d b33d
00000270: fc53 f03d f602 b4bd 26f7 38bd bb5b c0bc
00000280: 98a2 d0bc 28fd 69bd eefb bdbd 0494 2e3d
00000290: a8f9 eb3d a633 abbd bc7c 193d c620 b5bd
000002a0: f007 5abd b90f b7bb cc07 673d 42bb 6e3d
000002b0: 7426 7dbc 0008 a43a 63d3 01be edde 2dbe
000002c0: 9198 403d 4c91 a6bd 04aa 9e3d d200 7cbd
000002d0: 68ba dbbd 97d1 d13c 4576 8bbd 8c9b 14be
000002e0: 38a2 a63c 0c4b 563d 8b1d a7bc 68d3 adbc
000002f0: a177 67bd b61a ddbd f888 0bbd a0e1 23bd
00000300: be16 a6bb b29e 883d 500a 8bbc 254c 5f3c
00000310: bea8 c33d 63ea 113e 9b3c 3a3c 1a58 943d
00000320: c141 babc f88c 15bd 76bb 513c 53e3 3d3e
00000330: 14dd 72bc cc09 38bd 001b ed3d e2d9 e73d
00000340: da2a 42bd 2a7b b2bc 007d 373b 803c 533b
00000350: 6bbd aa3c 1682 693c ddf0 0a3e d834 8a3c
00000360: 574a 173e 1a42 e23d 4570 043e d6ba e93d
00000370: 5801 a53c 8a49 933d 3ccd 3d3e 1764 553c
00000380: 2e65 f43d da89 8b3d b8c5 cbbd 45c0 bc3d
00000390: f0bf 0fbc 91cb 24be 0e78 86bd 6cfc f73d
000003a0: d390 9f3c aeaa 073e 2041 a1bb c25a 213c
000003b0: 073a 163e c062 2abd be8e 893d d8a4 113e
000003c0: 9bd9 613e 3fc7 633c b02b 5a3c 6a5b b53d
000003d0: 84c2 1f3d 52c2 92bc d55d 403e b047 4d3e
000003e0: cc61 22bd 840a 113d 4174 473e 0240 b03d
000003f0: 8975 7a3c acc2 873d 6413 11bd 15ac 1e3d

fc.1.bias f4 [64]
-0.1137833 -0.18537724 -0.10912956 0.12989111 0.19600855 0.046005428 -0.022632122 -0.09687006
0.18902545 0.0086303875 0.006638417 0.09803322 0.07101528 -0.101500124 0.15941666 -0.07017811
-0.094839916 0.048548687 0.08781746 -0.090513185 -0.08863817 0.020522505 -0.11962932 -0.19664766
0.11958753 -0.16823637 -0.07357103 -0.01875937 -0.13009188 0.16981839 -0.05200451 -0.06222649
-0.050007068 -0.12287906 0.15147166 0.15398788 -0.049094334 -0.011099885 -0.0020009577 0.035726503
0.058693573 0.115562126 -0.009865337 -0.119367786 0.044404015 0.0072024195 -0.078344345 -0.15487954
0.16400814 -0.022131458 0.02092056 -0.03311722 0.113210365 -0.15356228 -0.049611315 0.09033297
0.12387517 0.014352729 0.040633492 -0.01347746 0.045756448 -0.107365236 0.0313256 -0.017212236
00000000: 3807 e9bd 88d3 3dbe 527f dfbd 2d02 053e
00000010: 77b6 483e 3070 3c3d 0067 b9bc cf63 c6bd
00000020: e38f 413e 7866 0d3c 1487 d93b a4c5 c83d
00000030: 7670 913d 4cdf cfbd 1f3e 233e 8ab9 8fbd
00000040: 6e3b c2bd fdda 463d a4d9 b33d fa5e b9bd
00000050: ee87 b5bd d01e a83c 3800 f5bd 015e 49be
00000060: 4fea f43d 2846 2cbe 68ac 96bd 40ad 99bc
00000070: ce36 05be dfe4 2d3e ae02 55bd 34e1 7ebd
00000080: 36d4 4cbd 04a8 fbbd 631b 1b3e 00af 1d3e
00000090: 2417 49bd 4bdc 35bc 8022 03bb f455 123d
000000a0: ac68 703d d6ab ec3d 39a2 21bc 1977 f4bd
000000b0: fce0 353d 4602 ec3b 0073 a0bd be98 1ebe
000000c0: c0f1 273e 084d b5bc 9861 ab3c eca5 07bd
000000d0: d6da e73d 6e3f 1dbe 3c35 4bbd 7e00 b93d
000000e0: 44b2 fd3d b527 6b3c 4e6f 263d 90d0 5cbc
000000f0: 1d6b 3b3d 4ee2 dbbd 464f 003d ad00 8dbc

fc.2.weight f4 [6, 64]
0.038979694 0.028174207 -0.049495444 0.038002513 -0.035755087 -0.110530704 0.041022852 -0.107915215
0.048988037 -0.094576225 0.11162235 0.09448762 0.035128113 0.01358733 0.2738208 0.057203
-0.0018956661 0.016398923 -0.041620627 0.093603745 -0.020214498 0.09588453 -0.092913866 0.1258196
0.017159564 -0.004277954 -0.04514979 -0.08817348 0.081982665 0.09500489 -0.06700914 -0.10720834
-0.038619395 -0.0884224 0.11704432 0.030113887 -0.103772596 0.048048876 -0.024295986 0.059937894
0.08246473 0.061199207 -0.0074357223 0.030240292 0.0025794208 0.024678584 -0.07779747 0.032899566
0.06994281 0.039631147 0.032906096 -0.08365171 -0.04576999 0.12191488 -0.03459373 0.09477686
0.074099064 0.18343206 -0.031096667 -0.022702903 0.039853293 -0.020840274 -0.011403521 0.1773253
-0.10584037 0.07332164 0.058170974 -0.016873773 0.07492111 0.001414001 0.06971352 0.035590447
0.15187085 0.11457486 0.1697514 0.116208665 0.0053742677 0.1756429 0.27468354 0.11840174
-0.0071583986 -0.013899363 0.055680454 0.050879017 0.013020948 0.10879479 -0.08750123 0.13430512
-0.039872754 0.18117632 -0.07838218 0.01807724 -0.016070142 0.052217975 0.0376578 0.07510498
-0.060909297 -0.016000494 -0.10292251 0.10340994 0.039430946 0.07231922 -0.1104081 0.045477644
-0.027746633 -0.0148049425 0.041956518 0.055459693 0.04212044 -0.009809519 -0.08984792 0.05310445
0.011333329 0.06669722 -0.07475181 0.0005633533 0.09535776 -0.017141331 0.09213534 0.04901684
0.061758287 -0.03952418 0.019114602 0.055777565 0.084090866 0.032536883 0.13406149 0.069373325
-0.03247027 -0.032031924 0.016603312 -0.027731344 -0.116061166 -0.007942289 0.022554904 -0.055668883
0.011442125 -0.06577468 0.027282152 0.036018122 0.031941406 -0.08017346 -0.3039102 -0.015196431
0.0456831 -0.059545174 0.09072705 0.07253422 0.0040255934 -0.08389364 -0.12045285 -0.06488034
0.04239352 -0.009708749 0.034743205 -0.06632556 -0.06852262 -0.10203501 -0.12994196 -0.03600709
-0.070048995 -0.020609856 -0.085923865 -0.0081084035 -0.115735754 0.055045262 0.029130042 -0.016295433
0.05210261 -0.03307937 -0.0018003774 0.023487512 0.088031754 -0.12200722 -0.11197746 -0.1278246
-0.07719741 -0.005856689 0.012793922 -0.0064192265 -0.002293095 -0.18248646 0.011713803 0.08665544
0.057703182 -0.11791008 -0.09992323 -0.11142482 0.08890871 -0.05342284 -0.13621217 -0.05774317
0.052281752 0.15917172 -0.017122697 -0.043427307 -0.08012174 -0.00657402 0.042253405 0.10383319
-0.019215763 -0.06736342 -0.08989906 0.11347227 -0.032543566 0.04174399 0.021838479 0.05273556
0.010856986 0.14870343 -0.07445914 0.08176124 0.11229886 -0.07384278 0.019452065 0.15302052
0.017603569 -0.05449217 -0.062659934 0.075935945 -0.053985916 -0.020711353 -0.010432127 -0.0966354
-0.037867945 -0.10901865 0.012449326 -0.0036868963 0.097182795 0.0036081646 -0.061065137 -0.08337301
-0.035806287 -0.10105674 0.0014612272 0.004645109 -0.06994395 0.14489637 -0.054316685 0.09137859
-0.058071777 0.01173893 0.05191732 -0.03233023 0.09662114 -0.0066679996 0.114937395 0.0077758147
0.15049647 0.03390077 0.11484109 -0.07176852 0.1332182 -0.021555081 0.17831412 0.18754223
00000000: 2ca9 1f3d 98cd e63c bcbb 4abd 86a8 1b3d
00000010: ed73 12bd ec5d e2bd 9407 283d a702 ddbd
00000020: aea7 483d 2eb1 c1bd 429a e43d ba82 c13d
00000030: 7fe2 0f3d 649d 5e3c 3d32 8c3e b14d 6a3d
00000040: 0078 f8ba 0957 863c 647a 2abd 52b3 bf3d
00000050: e098 a5bc 1c5f c43d a049 bebd dad6 003e
00000060: 3792 8c3c 142e 8cbb fcee 38bd 4c94 b4bd
00000070: 87e6 a73d ec91 c23d 173c 89bd 0c90 dbbd
00000080: 5f2f 1ebd ce16 b5bd efb4 ef3d 66b1 f63c
00000090: ba86 d4bd e6ce 443d 6008 c7bc 7081 753d
000000a0: 45e3 a83d 05ac 7a3d 5ca7 f3bb 7dba f73c
000000b0: 800b 293b be2a ca3c 4854 9fbd b2c1 063d
000000c0: 2d3e 8f3d 4554 223d 8bc8 063d 9651 abbd
000000d0: 5079 3bbd 82ae f93d 28b2 0dbd 5f1a c23d
000000e0: 40c1 973d 9dd5 3b3e 70be febc 70fb b9bc
000000f0: 353d 233d 39b9 aabc d5d5 3abc c394 353e
00000100: d6c2 d8bd a829 963d b044 6e3d de3a 8abc
00000110: 3d70 993d 0056 b93a f6c5 8e3d 4ac7 113d
00000120: 0884 1b3e 39a6 ea3d 50d3 2d3e cffe ed3d
00000130: a01a b03b bbdb 333e 52a3 8c3e 9d7c f23d
00000140: 0091 eabb 27ba 63bc 3011 643d 8466 503d
00000150: d055 553c cecf de3d d833 b3bd 4887 093e
00000160: 9d51 23bd 4986 393e d686 a0bd b816 943c
00000170: 88a5 83bc 84e2 553d 113f 1a3d a4d0 993d
00000180: 077c 79bd 7813 83bc 09c9 d2bd 97c8 d33d
00000190: 5882 213d 191c 943d a41d e2bd c446 3a3d
000001a0: e84c e3bc 6e90 72bc 99da 2b3d b429 633d
000001b0: 7c86 2c3d 1bb8 20bc 3002 b8bd 0d84 593d
000001c0: 6daf 393c 8d98 883d 7a17 99bd 00ae 133a
000001d0: ee4a c33d fa6b 8cbc 74b1 bc3d e2c5 483d
000001e0: 42f6 7c3d 1be4 21bd 3a96 9c3c 0477 643d
000001f0: d537 ac3d 6545 053d 6a47 093e 9a13 8e3d
00000200: 8cff 04bd e833 03bd ab03 883c d82c e3bc
00000210: 7ab1 edbd 6020 02bc 10c5 b83c 0e05 64bd
00000220: c077 3b3c e0b4 86bd d27e df3c bd87 133d
00000230: fed4 023d fc31 a4bd 1e9a 9bbe 74fa 78bc
00000240: 341e 3b3d a4e5 73bd 1bcf b93d d28c 943d
00000250: 20e9 833b 6ed0 abbd fcaf f6bd fcdf 84bd
00000260: d4a4 2d3d 7211 1fbc e44e 0e3d b2d5 87bd
00000270: 9655 8cbd bbf7 d0bd 810f 05be 2c7c 13bd
00000280: d975 8fbd 00d6 a8bc daf8 afbd 1cd9 04bc
00000290: de06 edbd 2477 613d 20a2 ee3c 007e 85bc
000002a0: 8c69 553d 3c7e 07bd a4fa ebba e268 c03c
000002b0: fe49 b43d ecde f9bd 7054 e5bd 74e4 02be
000002c0: ad19 9ebd 78e9 bfbb 999d 513c 6058 d2bb
000002d0: c047 16bb bbdd 3abe 40eb 3f3c 6878 b13d
000002e0: 2c5a 6c3d d77a f1bd 8da4 ccbd b232 e4bd
000002f0: c515 b63d e8d1 5abd 347b 0bbe 1a84 6cbd
00000300: 6425 563d e9fd 223e e644 8cbc d5e0 31bd
00000310: de16 a4bd e06a d7bb e811 2d3d 7fa6 d43d
00000320: 606a 9dbc d5f5 89bd 001d b8bd 2664 e83d
00000330: 674c 05bd bffb 2a3d 9ce6 b23c 3e01 583d
00000340: 80e1 313c b645 183e 097e 98bd 7072 a73d
00000350: f2fc e53d e23a 97bd f059 9f3c 69b1 1c3e
00000360: 5c35 903c 2f33 5fbd da53 80bd 4e84 9b3d
00000370: 5620 5dbd dbaa a9bc 83eb 2abc c8e8 c5bd
00000380: 6b1b 1bbd 2c45 dfbd 42f8 4b3c db9f 71bb
00000390: c607 c73d f576 6c3b 701f 7abd 78bf aabd
000003a0: 9da9 12bd d6f6 cebd a686 bf3a 0036 983b
000003b0: c63e 8fbd b75f 143e 2c7b 5ebd b324 bb3d
000003c0: acdc 6dbd a454 403c 41a7 543d b46c 04bd
000003d0: 4ee1 c53d 3c7f dabb 4c64 eb3d 43cc fe3b
000003e0: bf1b 1a3e 89db 0a3d ce31 eb3d 60fb 92bd
000003f0: 5a6a 083e 4894 b0bc fa97 363e 120b 403e

fc.2.bias f4 [6]
0.11542503 0.03281422 0.03368447 0.025286196 -0.066612214 -0.23970765
00000000: f563 ec3d 3468 063d baf8 093d ff24 cf3c
00000010: fc6b 88bd ec75 75be
